app/models/disc_K3_deg1_-5_-7.pth (torch, 20470 bytes, 5 tensors)

model.0.weight f4 [64, 2]
0	0x3ef86d11	0.4852071
1	0x3e219a9e	0.15781638
2	0x3e2f38a2	0.17111447
3	0xbe29361d	-0.16524549
4	0xbf1c10a2	-0.6096288
5	0xbe6f785f	-0.23385762
6	0xbf91ad91	-1.1381093
7	0xbe93c411	-0.28860524
8	0xbea045a1	-0.31303123
9	0xc094fab9	-4.655606
10	0xbedc498b	-0.4302486
11	0x3e96d08c	0.29455984
12	0xbe32bac3	-0.17454056
13	0x3e219041	0.15777685
14	0xbe9a4918	-0.3013389
15	0xc0b62482	-5.6919565
16	0xbed6a16c	-0.4192003
17	0xbe72a628	-0.23696196
18	0x3e7b0a3b	0.24515621
19	0x3ef9fe7f	0.48826978
20	0xbf6eeb41	-0.9332772
21	0xbf6310e9	-0.8869768
22	0x3dfba860	0.12287974
23	0x3e1ee253	0.15516023
24	0xbe40ea3d	-0.18839355
25	0x3ed22932	0.41047055
26	0xbf3bf0e9	-0.73414475
27	0xbd6cb74a	-0.057791986
28	0x3cfbad90	0.03072241
29	0x3f00d04c	0.50317836
30	0xbe9b6011	-0.3034673
31	0xbdec0bd2	-0.11525692
32	0x3d714bf8	0.05891034
33	0xbd5a7161	-0.053330783
34	0xbebba0d9	-0.36646155
35	0x3f02e968	0.511374
36	0x3e97da27	0.29658625
37	0x3d78bed0	0.060728848
38	0x3f365b61	0.71233183
39	0xbe1edd3f	-0.15514086
40	0xbf363a42	-0.71182644
41	0xbfad4ffd	-1.3540035
42	0xbec8a9cc	-0.39192045
43	0x3e0f738a	0.14008918
44	0x3eb17b5d	0.3466443
45	0xbe55f3b4	-0.20893747
46	0x3e4db74f	0.20089458
47	0x3eadc1aa	0.33936816
48	0x3e021c87	0.12706195
49	0x3e3c25f5	0.18373854
50	0x3f170376	0.58989656
51	0xbf15c057	-0.5849661
52	0x3edb612b	0.4284757
53	0xbf4373b3	-0.7634842
54	0xbf3e8f08	-0.74437
55	0x3ceae5d7	0.02867405
56	0x3eab8b31	0.33504632
57	0x3deb1baa	0.11479886
58	0xbe3a03d5	-0.18165524
59	0x3e301827	0.17196713
60	0xbdf3e5f1	-0.11909092
61	0xbd822a40	-0.06355715
62	0xbed9e255	-0.4255549
63	0x3e80d1fd	0.25160208
64	0xbec0e045	-0.37671104
65	0x3e524d7c	0.2053737
66	0xbe8703ee	-0.26370186
67	0x3f20312a	0.6257502
68	0xbe4f1e3d	-0.20226379
69	0xbf0a96de	-0.54136455
70	0x3ec3217a	0.38111478
71	0xbf030c1c	-0.5119035
72	0xbe6606db	-0.22463553
73	0x3e1388e0	0.14407682
74	0xbe89441c	-0.26809776
75	0x3ee20260	0.44142437
76	0x3edd04f8	0.43167853
77	0x3eeaf0c5	0.45886818
78	0xbee98bd9	-0.45614508
79	0xbf96f63f	-1.1793898
80	0xbea41753	-0.32049045
81	0xbea06d95	-0.31333604
82	0x3e949e0a	0.29026824
83	0xbe88b487	-0.2670023
84	0xbc0b813d	-0.0085146995
85	0x3d7d203b	0.061798315
86	0xbe96dfcb	-0.29467615
87	0x3e8dc3bf	0.27688405
88	0x3e63d002	0.22247317
89	0xbf2b4f5d	-0.66917974
90	0x3f0bd41c	0.5462053
91	0xbedd15cf	-0.431807
92	0xbdb0d726	-0.08634786
93	0x3f054ab2	0.520671
94	0xbe972e13	-0.2952734
95	0x3f0a1746	0.5394176
96	0x3b130bbd	0.0022437416
97	0x3db064e6	0.08612995
98	0x3fc04d0b	1.5023512
99	0xbf23176b	-0.6370761
100	0x3e9bd1ca	0.30433494
101	0x3d44aed0	0.048018277
102	0x3ea9e059	0.33178976
103	0xbf89aeb0	-1.0756435
104	0xbd7c1eaa	-0.06155268
105	0x3ef7799b	0.48334965
106	0xbf48628a	-0.7827536
107	0x3e86683f	0.26251408
108	0xbe7edc96	-0.24888834
109	0x3f0f119d	0.5588625
110	0x3db41abf	0.08794164
111	0x3e07fc0b	0.1327974
112	0xbe7839f3	-0.24240856
113	0xbf07eb0b	-0.5309302
114	0x3f0ef939	0.55849034
115	0x3f145049	0.57935005
116	0xbd8f9ef0	-0.07012737
117	0x3eb68cca	0.3565429
118	0xbd87e651	-0.06635726
119	0x3efb0242	0.4902516
120	0xbf0896e1	-0.5335522
121	0xbea64d62	-0.32480913
122	0xbeff720f	-0.49891707
123	0x3dae150f	0.0850011
124	0x3dd0978b	0.101851545
125	0xbc2714e8	-0.0101978555
126	0x3eb13f06	0.34618396
127	0x3d009942	0.031396158

model.0.bias f4 [64]
0	0xbf328199	-0.69729
1	0x3edc6f84	0.4305383
2	0xbd88ced2	-0.06680073
3	0x3f3e0335	0.74223644
4	0x3fbfe485	1.4991614
5	0xbfb7b5a0	-1.4352303
6	0x3ea6cd97	0.32578728
7	0x4051318f	3.2686498
8	0xbf51060b	-0.81649846
9	0xbe638fb6	-0.2222279
10	0xc0a7e9ec	-5.247305
11	0x3d918fff	0.07107543
12	0xbec2b6a3	-0.38029966
13	0x3f2573f2	0.64630044
14	0xbe98e411	-0.298615
15	0x3de135a9	0.10996563
16	0xbf16b69e	-0.588724
17	0x3e405a24	0.18784386
18	0xbf4ead3f	-0.807331
19	0x3f166523	0.5874807
20	0xc03a8f72	-2.9150052
21	0xbe5b82ce	-0.21436617
22	0x3eae6654	0.34062445
23	0xbf012c46	-0.5045818
24	0xbf20edf0	-0.62863064
25	0xbe6f3cc8	-0.2336303
26	0x3fde4566	1.7364929
27	0x3d9c628b	0.07635983
28	0xbea9e848	-0.3318503
29	0x3e99647e	0.29959482
30	0x3c224e62	0.009906383
31	0x3d437109	0.04771522
32	0xbf8840f5	-1.0644823
33	0xbf28cbb2	-0.65935814
34	0x402bc709	2.6840231
35	0x3fd7f65e	1.687206
36	0xbdfc2202	-0.12311174
37	0x3e04f203	0.12982945
38	0xbeddf7cb	-0.43353114
39	0x3e1b52de	0.1516833
40	0x3d3ec642	0.046575792
41	0x3e9cc7d5	0.3062121
42	0x3f39f755	0.72643024
43	0x3d062471	0.032749597
44	0x3f80ac1d	1.0052525
45	0xbee134b3	-0.4398552
46	0x3e119e10	0.14220452
47	0xbe7e54d4	-0.24837047
48	0xbde10819	-0.10987873
49	0x402dfbd2	2.718495
50	0x3f1e892a	0.61928046
51	0x3ff03c82	1.8768466
52	0x3f032b26	0.51237714
53	0xbe4f34a8	-0.2023493
54	0xbe52b1b2	-0.20575598
55	0x3eb86490	0.36014223
56	0x3d53c3c2	0.05170036
57	0x3e8b965a	0.27263147
58	0x3e6717de	0.22567698
59	0x3f0ddfa0	0.5541935
60	0x3f54e852	0.8316699
61	0xbf9c314b	-1.2202543
62	0x3f9243f8	1.1426992
63	0x3e9c5a4c	0.3053764

model.2.weight f4 [64, 64]
0	0xbd77ede5	-0.06052961
1	0xbc075de0	-0.008262128
2	0xbe14d3b1	-0.14533879
3	0xbd83d2c7	-0.06436687
4	0x3da03084	0.078217536
5	0xbe07210f	-0.13196205
6	0xbdbe53d1	-0.092933305
7	0x3d1f2174	0.038850263
8	0x3d80beb3	0.06286373
9	0xbe198821	-0.14993335
10	0xbe04137f	-0.12898062
11	0xbd9d9530	-0.07694471
12	0xbd3abb0e	-0.045588546
13	0xbcbdb276	-0.023156386
14	0xbdb289d1	-0.08717693
15	0xbdffdad2	-0.124929085
16	0xbd97b364	-0.07407263
17	0x3a1cf87a	0.00059879536
18	0xbe3c0e1c	-0.18364757
19	0xbe415743	-0.18880944
20	0xbe004d4d	-0.12529488
21	0xbdb069f5	-0.0861396
22	0x3df71433	0.120643996
23	0xbd2c4da3	-0.042066228
24	0xbe093ddd	-0.13402505
25	0xbcadd363	-0.021218961
26	0x3e5019dd	0.20322366
27	0xbd002fdc	-0.031295642
28	0xbdbdaef4	-0.09261885
29	0xbde6b873	-0.1126565
30	0x3d08a63e	0.033361666
31	0xbdc9b5f2	-0.098491564
32	0x3c54a498	0.012978695
33	0x3cef63eb	0.02922245
34	0xbde2da73	-0.11076822
35	0x3e3aec4f	0.18254207
36	0xbd9cfc80	-0.07665348
37	0x3d1f79db	0.03893457
38	0xbe088e17	-0.13335453
39	0x3cc6a7d9	0.024249958
40	0xbe075da7	-0.1321932
41	0xbc622e3a	-0.013804967
42	0xbdb73953	-0.089464806
43	0xbd219409	-0.039447818
44	0xbc58edec	-0.013240319
45	0x3ddda2f6	0.10822098
46	0x3cf2b650	0.029627949
47	0x3d1a9b7c	0.037745938
48	0xbd333424	-0.043750897
49	0x3dd13a76	0.10216229
50	0xbc862dd2	-0.01637927
51	0x3d8f743a	0.0700459
52	0xbc753793	-0.014966863
53	0xbddf5dc9	-0.1090656
54	0xbd9ffa05	-0.07811359
55	0x3d92cc42	0.07167865
56	0xbdc91acf	-0.098195665
57	0xbddc39c2	-0.10753204
58	0x3d86ce5a	0.06582327
59	0x3cbcdd33	0.023054695
60	0xbd69b84e	-0.057060532
61	0x3cec5a6c	0.02885171
62	0x3db154e4	0.0865877
63	0xbe35d617	-0.1775745
64	0xbcf47d5e	-0.029844936
65	0xbdd8fc3a	-0.105949834
66	0x3bcad2f7	0.0061896998
67	0xbeb5c07f	-0.35498425
68	0x3d09b850	0.03362304
69	0xbe1b05b0	-0.15138888
70	0x3c994519	0.018709706
71	0xbdfee039	-0.12445111
72	0xbe495271	-0.19660355
73	0xbc3211b5	-0.0108684795
74	0xbe57c26a	-0.21070257
75	0xbe0510bd	-0.12994666
76	0x3c8df10e	0.017326858
77	0xbddf2d08	-0.10897261
78	0xbd2ff7e8	-0.04296103
79	0xbe313bdf	-0.17307995
80	0xbddb9474	-0.107216746
81	0xbd77e832	-0.060524173
82	0xbcef0f06	-0.029181968
83	0xbdf611ff	-0.12015151
84	0xbe0548c8	-0.13016045
85	0xbe38b8de	-0.18039271
86	0xbd6ec26a	-0.058290876
87	0xbd3f6159	-0.046723697
88	0xbdec99e8	-0.11552793
89	0xbf07aa77	-0.52994484
90	0xbeb6dfde	-0.35717672
91	0xbdca2e0c	-0.09872064
92	0xbd23a6d1	-0.03995401
93	0xbd82a483	-0.06379034
94	0x3d0961cd	0.033540536
95	0xbe3c3574	-0.18379766
96	0xbc966404	-0.018358238
97	0xbd82ffd9	-0.06396455
98	0x3ae5bdd4	0.0017527887
99	0xbef3fb9a	-0.47652894
100	0xbd73d0b7	-0.059525218
101	0x3c39d879	0.011343115
102	0xbe07eed7	-0.13274704
103	0xbc67e0d7	-0.014152727
104	0xbdc20804	-0.09474185
105	0xbe669635	-0.22518237
106	0x3ccd09fb	0.025029173
107	0xbbd57d38	-0.0065151714
108	0x3d6d4f20	0.057936788
109	0xbe56fe8f	-0.20995544
110	0xbca3184c	-0.019909047
111	0xbd4caa37	-0.049967017
112	0x3c5fec67	0.013667203
113	0xbdb58dae	-0.08864914
114	0xbd6b038c	-0.05737643
115	0x3db1fc74	0.0869073
116	0x3d8124ed	0.06305871
117	0xbe132448	-0.14369309
118	0x3d75ab88	0.059978038
119	0xbd4a7e28	-0.04943672
120	0xbcb95244	-0.022622235
121	0xbdab8df3	-0.08376684
122	0xbdf444e8	-0.11927205
123	0xbd8274c6	-0.06369929
124	0xbe34cec4	-0.17657
125	0xbcd55597	-0.026041789
126	0x3dbfad46	0.09359221
127	0x3cd8e619	0.026476907
128	0xbdfc480e	-0.12318431
129	0x3d645a84	0.055750385
130	0xbdad4965	-0.084612645
131	0xbe395238	-0.1809777
132	0xbf438f0a	-0.76390135
133	0xbd86bb9b	-0.06578752
134	0xbc608b2b	-0.013705055
135	0xbf9227b2	-1.1418364
136	0xbe452ad4	-0.19254619
137	0xbdf6ed8b	-0.120570265
138	0xbea07848	-0.31341767
139	0x3e0a1e3e	0.13488099
140	0xbd0c62e6	-0.034274004
141	0xbe8d651a	-0.27616197
142	0xbdfcbdec	-0.12340912
143	0xbe9f5740	-0.31121254
144	0xbddf02b4	-0.108891875
145	0xbdfd24d4	-0.1236054
146	0xbe49c8f9	-0.19705571
147	0xbd305501	-0.043049816
148	0xbe0dc5c6	-0.13844976
149	0xbdadf4fa	-0.08493991
150	0xbfbb37f6	-1.4626453
151	0x3d4c178c	0.049827144
152	0xbe0cd367	-0.13752519
153	0xbf1b7450	-0.60724354
154	0xbf0348ad	-0.5128277
155	0xbe5e1711	-0.21688487
156	0x3d1ad28f	0.03779846
157	0xbdd11980	-0.10209942
158	0xbe191ec8	-0.14953148
159	0xbe3b9270	-0.1831758
160	0xbd0898d3	-0.03334887
161	0x3d9d5ab0	0.07683313
162	0x3e308476	0.1723803
163	0xbf82b784	-1.0212255
164	0xbd28221c	-0.041048154
165	0x3a945219	0.0011315971
166	0xbd6bc271	-0.05755848
167	0xbda1fcf0	-0.07909572
168	0xbf0d1d15	-0.551225
169	0xbe24329c	-0.16034931
170	0x3df74155	0.12073008
171	0x3c3a0d3c	0.011355694
172	0x3ea44841	0.32086375
173	0xbf31152a	-0.6917292
174	0xbd55fa40	-0.05224061
175	0xb91ef867	-0.00015160591
176	0x3d08de65	0.033415217
177	0x3e0b7530	0.13618922
178	0xbd84bebb	-0.064816914
179	0x3ed48537	0.41507885
180	0xb98b2118	-0.00026536803
181	0xbe40ace5	-0.18815954
182	0x3c5c13d1	0.013432459
183	0xbdba9af6	-0.09111588
184	0xbcb79e46	-0.022414338
185	0xbb02c6b8	-0.0019954871
186	0xbe08f280	-0.13373756
187	0x3dcff755	0.10154597
188	0xbdb57b41	-0.088613994
189	0xbe61b6f2	-0.22042444
190	0x3e9b2dd3	0.303084
191	0xbd4abc1a	-0.049495794
192	0xbdc9e919	-0.09858913
193	0xbbf86a6d	-0.0075810463
194	0xbf0785f1	-0.52938753
195	0xbfdad7c8	-1.7097101
196	0xbe5b8669	-0.21437992
197	0xbf2ad634	-0.667331
198	0xbe23922c	-0.15973729
199	0x3e1a43c0	0.15064907
200	0xbf14f273	-0.5818245
201	0xbdb906ac	-0.09034476
202	0xbf4667c2	-0.7750207
203	0x3e0744c6	0.13209829
204	0xbeadd3f3	-0.33950767
205	0xbf0b62fb	-0.5444791
206	0xbd2ca3f3	-0.04214854
207	0xbe723ef3	-0.23656826
208	0xbea53f33	-0.3227478
209	0xbe9c2aac	-0.30501306
210	0xb95babea	-0.0002094951
211	0x3d92434f	0.07141744
212	0xbf442281	-0.7661515
213	0xbf0f1e59	-0.5590568
214	0x3c038226	0.008026635
215	0xbd826490	-0.06366837
216	0x3cfa6daa	0.03056987
217	0xbdab2e8f	-0.0835849
218	0xbf0b46f3	-0.54405135
219	0xbf320fbd	-0.69555265
220	0xbcebc9aa	-0.028782684
221	0xbe65a35d	-0.224256
222	0xbc02448a	-0.007950911
223	0xbeb03d74	-0.34421885
224	0xbf099d92	-0.5375606
225	0xbe0306cd	-0.12795563
226	0x40157e97	2.3358514
227	0xbe3a4e92	-0.18194035
228	0xbf02bec0	-0.5107231
229	0xbe84a98b	-0.259106
230	0x3d970ea8	0.07375842
231	0xbf9517d5	-1.1647898
232	0xbf0b6e94	-0.54465604
233	0xbd13315d	-0.03593575
234	0x3eaa0386	0.33205813
235	0xbef9bb61	-0.4877577
236	0x3e8e5238	0.27797103
237	0xbdad4ae2	-0.084615484
238	0xbc37d31b	-0.011219765
239	0xbe9575e1	-0.29191497
240	0xbd6e77a6	-0.058219574
241	0x3e092893	0.13394384
242	0x3e513ae5	0.20432623
243	0xbf17ed08	-0.59346056
244	0x3e0f5dc6	0.14000615
245	0xbf430bdb	-0.76189965
246	0xbea91700	-0.3302536
247	0x3e2452c5	0.16047199
248	0xbee38a81	-0.44441608
249	0x3e3e3de1	0.18578292
250	0xbd8ad61a	-0.06779118
251	0x3e1e7fbb	0.15478413
252	0xbed16ec5	-0.40904823
253	0xbf1955f9	-0.5989681
254	0x3f7dc198	0.99123526
255	0x3e20d7ec	0.15707368

model.2.bias f4 [64]
0	0x3d36fe63	0.044676196
1	0xbe2088d9	-0.15677203
2	0x3a6c3ad7	0.00090114534
3	0x3ebc7167	0.3680527
4	0x3cf3dae7	0.029767467
5	0x3e0ac2d0	0.13550878
6	0xbe22c63f	-0.15895937
7	0x3d8ef23c	0.06979796
8	0xbe8fcb20	-0.2808466
9	0x3d4c9d37	0.04995462
10	0x3d546e19	0.05186281
11	0x3cf5fd94	0.030028142
12	0xbf59e7b3	-0.8511917
13	0x3be1d302	0.006891609
14	0xbe1ba498	-0.15199506
15	0x3c539042	0.012912812
16	0xbc09b853	-0.008405763
17	0xbdd5d80d	-0.10441599
18	0x3c5fdd33	0.013663578
19	0x3d6e9220	0.058244824
20	0xbe0ceed5	-0.13762982
21	0xbcc67a41	-0.024228217
22	0xbdd1ba74	-0.10240641
23	0x3ba91511	0.005159982
24	0x3f2ae05d	0.667486
25	0xbd2f757d	-0.042836655
26	0xbd346dd2	-0.044050045
27	0x3caa4a79	0.020787464
28	0x3bae1b43	0.0053133084
29	0xbd2ef0bd	-0.042710055
30	0xbdeaf706	-0.11472897
31	0x3e6567c6	0.22402868
32	0x3d3763ef	0.04477304
33	0x3db4e0fa	0.088319734
34	0x3c9f0ad4	0.019414343
35	0x3b999f40	0.0046881735
36	0xbd5d8b06	-0.05408766
37	0x3da07c89	0.07836253
38	0x3d0dbc40	0.034603357
39	0xbe10a48f	-0.14125274
40	0x3df7ecfd	0.12105749
41	0x3e1a57ea	0.15072599
42	0x3dbac1ac	0.09118971
43	0xbe026eea	-0.12737623
44	0xbe0aa91e	-0.13541076
45	0xbdada8ee	-0.084794864
46	0x3d81f539	0.06345601
47	0x3d5c6ad6	0.053812824
48	0xbcf5e2d9	-0.030015396
49	0x3df05843	0.117355846
50	0x3d3c2e5c	0.04594265
51	0xbd79d3b7	-0.060992923
52	0x3b29be3e	0.0025900747
53	0xbdd5294d	-0.10408268
54	0x3c55587f	0.013021587
55	0xbe204585	-0.1565152
56	0xbdadeae1	-0.08492065
57	0x3d89098a	0.066912726
58	0x3e9eb5e5	0.3099815
59	0x3d9739a8	0.07384044
60	0x3d8a75d2	0.06760754
61	0x3b82a521	0.00398697
62	0xbebd352c	-0.3695463
63	0xbdb011c7	-0.08597141

model.4.weight f4 [1, 64]
0	0xbcc4968e	-0.023997571
1	0xbdd5646e	-0.10419546
2	0xbe430ffa	-0.19049063
3	0xbe4a6818	-0.19766271
4	0x3c79c6e4	0.015245173
5	0x3e4c9dad	0.19982024
6	0xbd7a8070	-0.061157644
7	0x3caef553	0.021357214
8	0xbe21d917	-0.1580547
9	0xbc466758	-0.0121096
10	0xbdc05afc	-0.09392354
11	0x3c804b89	0.015661018
12	0xbe6ab51d	-0.22920652
13	0xbdbd0712	-0.09229864
14	0xbd06fdc1	-0.032956842
15	0xbd033352	-0.032031365
16	0xbd5ae4df	-0.053440925
17	0x3d9cb808	0.07652289
18	0xbd1cd3b8	-0.03828785
19	0x3cdc63d4	0.02690307
20	0xbee2f329	-0.4432614
21	0x3d263742	0.04058004
22	0x3b0a9068	0.0021143202
23	0xbde39552	-0.11112465
24	0x3e8bab8e	0.27279323
25	0xbda65db2	-0.0812334
26	0xba9585ec	-0.001140771
27	0xbd2d1a53	-0.042261433
28	0xbe270af3	-0.1631277
29	0x3d63d06e	0.055618696
30	0xbb074c9d	-0.002064503
31	0x3e9a01a4	0.30079377
32	0x3db69119	0.08914394
33	0xbdd77c82	-0.10521795
34	0xbef6883c	-0.48150814
35	0xbd2af864	-0.04174079
36	0x3d0d1f2a	0.03445355
37	0xbdd090ac	-0.10183844
38	0xbcc0fe70	-0.023558825
39	0xbc21c624	-0.009873901
40	0x3d19ebfd	0.03757857
41	0x3dd48805	0.10377506
42	0x3e12652f	0.14296411
43	0xbdc0b763	-0.09409978
44	0xbcdf4ed1	-0.027259262
45	0x3d5e0a92	0.0542093
46	0x3e8d61aa	0.27613574
47	0x3d0d618e	0.034516864
48	0x3d71d0e6	0.05903711
49	0x3ec6bbcd	0.38815156
50	0x3c7c82ac	0.015412014
51	0xbd091b52	-0.03347332
52	0x3d2abba2	0.041682847
53	0x3c9bb3a7	0.019006563
54	0xbd299fa2	-0.041412003
55	0x3c641891	0.013921873
56	0xbd739fd1	-0.059478585
57	0xbd6623ef	-0.056186613
58	0x3eaa3046	0.33239955
59	0xbcbe48ad	-0.023228014
60	0x3c7840cf	0.01515217
61	0xbd942a27	-0.072346024
62	0x3ea6e136	0.32593697
63	0x3d0c7c53	0.034298252
