app/models/disc_K3_deg1_-5_-3.pth (torch, 20470 bytes, 5 tensors)

model.0.weight f4 [64, 2]
0	0xbf2210a3	-0.63306636
1	0x3ed8145e	0.4220304
2	0x3ed95494	0.4244734
3	0x3de2a1cf	0.11066019
4	0xbee32eb1	-0.4437156
5	0xbd86af7e	-0.06576441
6	0xbea5e935	-0.32404485
7	0x3dc452d9	0.095861144
8	0xbee119dd	-0.43965045
9	0xbf5ebfd6	-0.8701147
10	0x3ce0c318	0.027436778
11	0xbecef8bc	-0.40424144
12	0xbeea6823	-0.45782575
13	0xbea77ea0	-0.32713795
14	0xbe587fd1	-0.21142508
15	0x3d833512	0.06406607
16	0x3db99ef2	0.090635195
17	0xbd72abbe	-0.059245817
18	0x3e583262	0.2111297
19	0xbd51bd09	-0.05120567
20	0x3f093def	0.5361013
21	0x3f09e851	0.5387011
22	0xbf2c245d	-0.67242986
23	0x3e0b32de	0.13593623
24	0xbe214a82	-0.15751079
25	0x3e93220a	0.28736907
26	0xbf3920b0	-0.723155
27	0x3e8386d7	0.25688812
28	0xbc18553f	-0.009297668
29	0x3d69a63c	0.0570433
30	0x3e12e2e0	0.14344358
31	0xbe92c17f	-0.2866325
32	0xbde0d62a	-0.109783486
33	0x3da99558	0.08280438
34	0xbe4eed33	-0.20207672
35	0x3e4962d1	0.19666602
36	0xbf0b98ef	-0.54530233
37	0x3dc7f9fe	0.09764479
38	0x3dff2b37	0.124594145
39	0x3e9564e5	0.2917854
40	0xbe63bbab	-0.22239558
41	0xbe7d9ab0	-0.2476604
42	0x3d0e3b76	0.034724675
43	0xbd9a310b	-0.075288855
44	0x3ea19d93	0.31565532
45	0xbec2ce39	-0.3804796
46	0xbea20028	-0.31640744
47	0xbf1087b7	-0.56457084
48	0x3ece3680	0.40275955
49	0xbdde43b4	-0.10852757
50	0x3d72f756	0.05931791
51	0xbef40d70	-0.47666502
52	0xbdadea65	-0.08491973
53	0x3ebe3933	0.37153015
54	0xbd7b3295	-0.061327536
55	0x3c221694	0.009893078
56	0xbe844640	-0.25834846
57	0xbf2ad13c	-0.66725516
58	0x3e4b6ecc	0.19866484
59	0x3d645e2a	0.055753864
60	0x3f19b5dd	0.60043126
61	0x3ebea3e5	0.37234417
62	0x3e002160	0.12512732
63	0x3e983283	0.29726037
64	0xbed689df	-0.41902062
65	0xbfa738f9	-1.3064262
66	0xbd274dbd	-0.04084562
67	0xbdf9f180	-0.122042656
68	0x3dd61972	0.10454072
69	0xbe7f970a	-0.2495996
70	0x3ed01af7	0.40645573
71	0xbed4d4a6	-0.41568488
72	0x3e6a645c	0.22889847
73	0x3ee381dc	0.44435012
74	0xbf11605e	-0.5678767
75	0xbe56f0fb	-0.20990364
76	0xbf230532	-0.636798
77	0x3d7e77f2	0.062126108
78	0x3edfcf54	0.43712866
79	0xbeed5f72	-0.46361881
80	0x3ee398e1	0.44452575
81	0x3cf33ed3	0.029693043
82	0x3f08101a	0.5314957
83	0x3ed6fdba	0.41990453
84	0xbea607bf	-0.32427785
85	0xbedc39e3	-0.43012914
86	0x3ecdc3e0	0.40188503
87	0x3e24104c	0.16021842
88	0x3eaea9e1	0.34113982
89	0xbd6b1325	-0.057391305
90	0x3dd535e6	0.10410671
91	0x3ecadf1a	0.39623338
92	0x3e814d49	0.25254276
93	0xbf1938f4	-0.5985253
94	0x3db082f7	0.086187296
95	0x3f105671	0.563819
96	0xbe17eb93	-0.14835958
97	0xbf103945	-0.56337386
98	0x3ee830d9	0.45349768
99	0xbeb715f6	-0.35758942
100	0x3f8a86bb	1.0822366
101	0xbec3eda9	-0.38267258
102	0xbe1ddad2	-0.15415505
103	0x3f257ef8	0.64646864
104	0x3f18fa6b	0.5975711
105	0x3e91a18b	0.2844356
106	0xbe38235c	-0.17982239
107	0xbf169243	-0.5881693
108	0x3d54e98d	0.051980544
109	0xbf343728	-0.7039666
110	0xbefa9413	-0.48941097
111	0xbea9766d	-0.33098164
112	0xbd50bccf	-0.050961312
113	0x3e28a51d	0.16469236
114	0x3e92514f	0.2857766
115	0xbebe2142	-0.3713475
116	0xbef1b97f	-0.47211835
117	0xbeb7a839	-0.3587053
118	0xbf13ee1d	-0.5778521
119	0xbe4a9d5a	-0.19786587
120	0xbef811b2	-0.48451
121	0x3e6ace17	0.2293018
122	0xbe9fe4a2	-0.3122912
123	0xbf01d7ba	-0.507198
124	0xbe2382ca	-0.15967861
125	0xbe0d1dc8	-0.13780892
126	0x3dd75910	0.10515034
127	0xbec461ff	-0.38356015

model.0.bias f4 [64]
0	0x3ed60c77	0.41806385
1	0xbf340f3c	-0.70335746
2	0xbf082327	-0.5317864
3	0x3f03dd49	0.5150953
4	0xbf30cfb4	-0.6906693
5	0xbe423691	-0.18966128
6	0x3e07b50f	0.13252662
7	0xbf3990a4	-0.7248633
8	0x3e84988d	0.25897637
9	0x3f0c11f6	0.54714906
10	0xbecd6920	-0.40119267
11	0x3bef4c3b	0.0073027886
12	0xbe1936bf	-0.1496229
13	0xbee9630f	-0.45583388
14	0x3e3ec0df	0.18628262
15	0x3edf786f	0.4364657
16	0x3c900b5e	0.017583545
17	0xbe3d1b92	-0.18467548
18	0xbee06096	-0.4382369
19	0x3ddeca88	0.108784735
20	0x3edba319	0.4289787
21	0x3e094662	0.13405755
22	0xbf0badbb	-0.54561967
23	0xbf1607d7	-0.5860571
24	0xbd86b6bf	-0.06577825
25	0x3f1285cb	0.572354
26	0x3f028276	0.5098032
27	0xbf333f65	-0.7001861
28	0xbed86ced	-0.42270604
29	0xbea80d70	-0.32822752
30	0x3f133e4e	0.57516944
31	0xbedfe6cb	-0.4373077
32	0xbf782099	-0.9692474
33	0xbebbd6fc	-0.36687458
34	0xbf0962ba	-0.5366627
35	0x3f55042f	0.8320951
36	0xbe94ac32	-0.29037625
37	0x3e2c0f54	0.16802722
38	0xbecaec80	-0.3963356
39	0x3f3d25bd	0.7388571
40	0x3e9b831e	0.30373472
41	0x3e884dfd	0.26622
42	0x3ef275d9	0.47355536
43	0xbed99e75	-0.42503706
44	0x3ef67c68	0.4814179
45	0xbf188bbf	-0.59588236
46	0xbed3e748	-0.4138739
47	0xbf4d6d77	-0.80245155
48	0x3e9b7cbc	0.30368602
49	0x3e82ee71	0.2557254
50	0x3f9cae26	1.2240646
51	0xbeaf9550	-0.34293604
52	0xbe17cd62	-0.14824441
53	0x3f17f8c1	0.59363943
54	0xbf495cdd	-0.78657323
55	0xbdeb0a21	-0.11476541
56	0x3e516d05	0.20451744
57	0x3daf0a53	0.08546891
58	0xbe8a06b6	-0.26958245
59	0x3f10fd5b	0.5663659
60	0xbed04d58	-0.4068401
61	0xbe72bf8f	-0.23705886
62	0x3ec6278e	0.38702053
63	0x3d7cb2ff	0.06169414

model.2.weight f4 [64, 64]
0	0x3d97dcff	0.074151985
1	0xbe013dbf	-0.1262121
2	0x3d9c9b18	0.07646769
3	0x3d477372	0.04869408
4	0x3d9c361d	0.07627509
5	0x3e3a82e4	0.18213993
6	0xbe10020a	-0.14063278
7	0xbdae68e2	-0.085160986
8	0xbd617fab	-0.055053394
9	0x3d87b892	0.06627001
10	0xbce0429b	-0.02737551
11	0xbd6dcb91	-0.058055464
12	0xbdef10a3	-0.11673095
13	0x3b8351fb	0.0040075756
14	0xbe2938d2	-0.16525581
15	0xbdccd162	-0.10000874
16	0x3cc3dd53	0.023909247
17	0x3c8794ef	0.01655051
18	0xbd60eee2	-0.054915316
19	0xbdb5c659	-0.088757224
20	0x3dafae82	0.085782066
21	0x3dd9586c	0.10612568
22	0x3dd5c131	0.10437239
23	0xbd43d273	-0.047808122
24	0xbd39762c	-0.045278713
25	0x3d9a52b8	0.075353086
26	0xbd61ebee	-0.05515664
27	0xbc2b273d	-0.010446367
28	0xbc3fab57	-0.011698565
29	0xbd381cf0	-0.044949472
30	0xbd30e598	-0.043187708
31	0x3dcda7f9	0.10041804
32	0x3d8772d6	0.066137
33	0x3d75daef	0.060023244
34	0x3d2788a4	0.040901795
35	0xbc3c68ea	-0.011499623
36	0x3d9c2782	0.07624723
37	0x3d9c1c85	0.07622627
38	0xbd5176e0	-0.05113876
39	0xbb37d234	-0.0028048875
40	0x3ca6dc2d	0.02036866
41	0xbd6007e9	-0.054695044
42	0x3d96dbe6	0.07366161
43	0x3dc1ec5c	0.0946891
44	0xbc2bd0ce	-0.010486795
45	0xbdb5faf9	-0.0888576
46	0xbe3689b1	-0.17825963
47	0x3db83115	0.08993737
48	0x3dffab42	0.12483837
49	0x3da8e4a1	0.082467325
50	0xbe2e792f	-0.17038415
51	0xbe1f1061	-0.15533592
52	0x3b4fedfb	0.003172754
53	0x3dd162d4	0.10223928
54	0x3d91caf0	0.071187854
55	0xbded4428	-0.115852654
56	0xbde1d217	-0.110263996
57	0xbc34abe1	-0.011027307
58	0xbdd5c46f	-0.10437857
59	0xbd306c8a	-0.04307226
60	0x3d08020b	0.033205073
61	0xbdbe6718	-0.09297007
62	0xbdca27c9	-0.0987087
63	0x3e3d8416	0.18507418
64	0xbdb5734f	-0.08859884
65	0xbdc17e88	-0.09447962
66	0x3d28dab5	0.0412242
67	0xbe113cf0	-0.14183402
68	0x3ea465a0	0.32108784
69	0x3c12e3a9	0.008965411
70	0x3df0e000	0.117614746
71	0x3d04a7b7	0.032386508
72	0xbce0fa08	-0.027462974
73	0xbdddf9cb	-0.1083866
74	0xbdfde004	-0.12396243
75	0xbe00d25c	-0.12580246
76	0xbd86bbae	-0.06578766
77	0xbbb4d2e2	-0.0055183033
78	0xbd17ea25	-0.037088532
79	0xbdf79852	-0.120896
80	0x3aea3af0	0.0017870348
81	0x3db4eb0c	0.08833894
82	0xbdee1604	-0.11625293
83	0xbe0ca891	-0.13736178
84	0x3c83229b	0.016007712
85	0xbcbea52c	-0.02327212
86	0xbd995746	-0.07487349
87	0x3eb846bd	0.3599147
88	0xbd87aede	-0.0662515
89	0x3b8305c3	0.0039984896
90	0xbdf2296a	-0.11824305
91	0x3e03b137	0.12860571
92	0x3ed51bc5	0.4162275
93	0xbc0e34f9	-0.008679622
94	0xbdd215cf	-0.10258066
95	0xbc443f03	-0.011977914
96	0x3ef206b0	0.47270727
97	0x3d52a6ae	0.05142849
98	0x3e281f27	0.16418134
99	0x3d941e04	0.072322875
100	0x3dab8fed	0.08377061
101	0xbd0c532a	-0.034259
102	0xbc5906ff	-0.013246297
103	0xbd796bdf	-0.06089389
104	0xbcf6e4d5	-0.030138412
105	0xbd9fb6e0	-0.077985525
106	0xbafcb1a7	-0.0019279019
107	0xbe25459a	-0.16139832
108	0xbe1f8e21	-0.15581562
109	0x3ca6964d	0.02033534
110	0x3e848890	0.2588544
111	0xbe1fd3b8	-0.15608108
112	0x3e4adda2	0.19811109
113	0xbc51969d	-0.012792257
114	0x3c114d3c	0.008868512
115	0xbdbb1796	-0.09135358
116	0x3da23658	0.079205215
117	0x3e215e89	0.15758719
118	0x3dbbd321	0.09171129
119	0x3dc95f12	0.09832586
120	0xbdd25a73	-0.10271158
121	0x3d14be96	0.03631457
122	0x3de03fa1	0.10949636
123	0xbd23df97	-0.040008154
124	0xbd3a795a	-0.045525886
125	0x3eaa2585	0.3323175
126	0xbc93aa1d	-0.018025452
127	0x3da814e4	0.082071096
128	0x3e3bc848	0.1833812
129	0xbe1f5274	-0.15558797
130	0xbf279d62	-0.6547452
131	0x3d9c7270	0.07639015
132	0xbe2757be	-0.16342065
133	0xbe653847	-0.2238475
134	0xbe328096	-0.17431864
135	0xbea79fa6	-0.3273899
136	0xbcf57367	-0.029962255
137	0x3d5185fc	0.051153168
138	0xbe0ad8cd	-0.13559265
139	0xbeabcd56	-0.33555096
140	0x3d06c92f	0.032906707
141	0xbee7798e	-0.45209926
142	0x3e328055	0.17431767
143	0xbe48ba62	-0.1960235
144	0x3da98cd3	0.08278813
145	0xbde6c81d	-0.11268637
146	0xbf18cbe7	-0.5968613
147	0x3da1af56	0.07894771
148	0x3e4178cb	0.18893735
149	0xbcc0b0b0	-0.023521751
150	0xbe0df15a	-0.138616
151	0xbeb2f516	-0.3495261
152	0xbdd78c02	-0.10524751
153	0xbe0c1ee2	-0.13683656
154	0x3e154ee8	0.14580882
155	0xbdad161f	-0.08451485
156	0xbe955f76	-0.29174393
157	0x3c7fa0f1	0.015602336
158	0x3c9375d7	0.018000526
159	0x3da32217	0.079654865
160	0xbe8981df	-0.26856896
161	0xbf4dde08	-0.8041692
162	0xbea0647c	-0.31326663
163	0xbea5732e	-0.32314438
164	0xbdbb7bdb	-0.09154483
165	0xbe63470d	-0.22195072
166	0xbef29b43	-0.4738408
167	0xbe8067dc	-0.25079238
168	0xbe20c811	-0.1570132
169	0x3da6914b	0.08133181
170	0x3e7ea234	0.24866563
171	0xbd0f6035	-0.03500386
172	0xbe213d4d	-0.1574604
173	0x3daae831	0.08345068
174	0xbe9447a4	-0.28960907
175	0xbe0e9f21	-0.1392789
176	0xbdc05262	-0.09390713
177	0xbeaf35e9	-0.34220818
178	0xbf637cf3	-0.8886253
179	0x3c20ab0f	0.009806409
180	0xbd2c9632	-0.042135425
181	0x3e53857e	0.20656392
182	0xbe3b1785	-0.1827069
183	0xbe9a701f	-0.30163667
184	0x3d9cfe30	0.0766567
185	0xbf191ef4	-0.59812856
186	0xbe713c9a	-0.23558274
187	0xbd2a4d96	-0.041577898
188	0xbee4ee02	-0.44712836
189	0xbba12ec0	-0.004918903
190	0x3e878a6d	0.26472798
191	0xbe7e4820	-0.24832201
192	0x3d2ac8b1	0.0416953
193	0xbdf492da	-0.11942072
194	0x3d9c5caf	0.076348655
195	0xbd580f03	-0.05274869
196	0xbe0b1f89	-0.13586248
197	0xbd6ef2a7	-0.05833688
198	0x3d4116e1	0.04714096
199	0xbda91f63	-0.0825794
200	0xbd21046a	-0.03931085
201	0xbd5511de	-0.052018993
202	0xbd9f069e	-0.07764934
203	0xbdf26822	-0.11836268
204	0x3d8f5aa9	0.06999714
205	0xbe215233	-0.15754013
206	0xbd0a4383	-0.03375579
207	0x3e325c52	0.1741803
208	0xbd9a6aa9	-0.07539875
209	0x3dac191c	0.08403227
210	0xbdd54d7d	-0.1041517
211	0xbdb7e588	-0.089793265
212	0xbcd4522e	-0.025918093
213	0x3d11c893	0.035591673
214	0xba9503af	-0.0011368896
215	0x3d3e825c	0.04651104
216	0xbd0c0d48	-0.034192353
217	0x3c9d589e	0.019207295
218	0xbe02e27b	-0.12781708
219	0xbd978a5a	-0.07399435
220	0xbd11cbba	-0.03559468
221	0x3de8a186	0.11358933
222	0xbd53f56b	-0.05174772
223	0xbcfc01df	-0.030762611
224	0xbce8ccc1	-0.028417947
225	0x3d39fc7e	0.04540681
226	0x3aec9485	0.0018049633
227	0x3e058abc	0.13041204
228	0x3d8a0883	0.06739905
229	0x3d88e13b	0.06683584
230	0x3bb915a4	0.0056483317
231	0x3d4325f6	0.047643624
232	0xbdaeb7ff	-0.08531188
233	0x3d20dd3c	0.039273486
234	0x3aa23706	0.0012376017
235	0x3cf8fa53	0.030392801
236	0xbdd14371	-0.102179416
237	0xbdb10bd9	-0.08644838
238	0x3d695163	0.056962382
239	0xbe21652a	-0.15761247
240	0xbd025d99	-0.031827543
241	0xbc6f1575	-0.014592518
242	0x3e3cb744	0.18429285
243	0xbd932df1	-0.07186497
244	0x3d51f6f7	0.051260915
245	0xbe085cfe	-0.13316724
246	0xbb35bd7e	-0.0027731354
247	0xbe0bb85c	-0.13644546
248	0x3cabb203	0.020958906
249	0x3db955ad	0.090495445
250	0xbd5b4a14	-0.053537443
251	0x3dbbe995	0.091754116
252	0x3d82bad2	0.063832894
253	0x3cc026f0	0.023456067
254	0xbd8254c5	-0.06363825
255	0x3df207e2	0.1181791

model.2.bias f4 [64]
0	0xbdf6eedf	-0.1205728
1	0xbcd01b7d	-0.025403732
2	0x3d694f40	0.056960344
3	0xbdb8f7ac	-0.09031615
4	0x3c142841	0.0090428
5	0x3cce9292	0.025216375
6	0xbdd5e1bf	-0.10443448
7	0xbe1ef374	-0.15522557
8	0xbe221200	-0.15827179
9	0xbe72cda7	-0.23711263
10	0xbdfcb396	-0.12338941
11	0xbdc73cdb	-0.09728404
12	0xbe23ab04	-0.15983206
13	0x3c7a4fc1	0.015277804
14	0xbd2fb4b5	-0.042896945
15	0x3e02a543	0.12758355
16	0xbd7c147e	-0.06154298
17	0xbe20362f	-0.1564567
18	0xbe0c1182	-0.13678554
19	0xbe3cc289	-0.18433584
20	0xbdb45a40	-0.08806276
21	0xbc146868	-0.0090580955
22	0xbe3427cc	-0.17593306
23	0xbc9afef3	-0.018920397
24	0xbe6c01a3	-0.230475
25	0xbe1e3a0b	-0.15451829
26	0xbe0e7083	-0.13910107
27	0xbe0a4e14	-0.13506347
28	0xbdccc219	-0.09997959
29	0xbd8b905d	-0.068146445
30	0xbd8b0194	-0.067874104
31	0xbe1ea779	-0.15493573
32	0xba01607a	-0.00049353356
33	0xbdf3a7ff	-0.11897277
34	0xbd864d39	-0.06557698
35	0xbd3a8daf	-0.045545276
36	0xbca698c1	-0.02033651
37	0xbc891bdd	-0.016736919
38	0xbdea1b56	-0.11430995
39	0x3d979e58	0.074032485
40	0xbdbf439e	-0.09339069
41	0xbd02e4d2	-0.0319565
42	0x3e0563d1	0.13026358
43	0xbcbf749a	-0.02337103
44	0x3d824bb7	0.06362098
45	0xbd0af353	-0.03392346
46	0x3d794244	0.06085421
47	0x3dbe12d2	0.092809334
48	0x3bbdd592	0.005793282
49	0xbc878068	-0.016540721
50	0xbd6ef395	-0.058337767
51	0xbd36312d	-0.04448049
52	0xbe0f22af	-0.13978074
53	0xbe77fa18	-0.24216497
54	0x3d2e5343	0.042559873
55	0x3eb19f28	0.3469174
56	0xbd487d53	-0.048947643
57	0xbdc812f1	-0.09769238
58	0x3d8f795e	0.07005571
59	0x3d03079e	0.031989686
60	0x3bafb623	0.0053622886
61	0xbd90ac4f	-0.07064115
62	0xbe0db892	-0.13839939
63	0xbd5b06e8	-0.053473383

model.4.weight f4 [1, 64]
0	0xbc95e732	-0.01829872
1	0x3e08da76	0.13364586
2	0x3e1a8270	0.1508882
3	0x3bf1ce2a	0.007379313
4	0x3d0e4707	0.034735706
5	0xbcc9dace	-0.024640467
6	0xbc63b77c	-0.013898727
7	0xbd91a0ca	-0.07110746
8	0xbd9a0591	-0.07520593
9	0x3d6722ce	0.056429677
10	0xbd4cb5fd	-0.049978245
11	0x3c8a3021	0.016868653
12	0x3cac0895	0.021000186
13	0xbe1a4119	-0.15063895
14	0xbdccdceb	-0.10003074
15	0x3d737796	0.059440218
16	0xbd8a9245	-0.0676618
17	0x3e9c372b	0.3051084
18	0xbd07a566	-0.03311672
19	0xbd54783d	-0.05187248
20	0x3c2e52f3	0.010639894
21	0xbb032de7	-0.0020016374
22	0xbce2b5ed	-0.02767464
23	0x3cf033e6	0.029321622
24	0xbd6e72c0	-0.058214903
25	0xbd397bef	-0.045284208
26	0xbd6577e5	-0.056022543
27	0x3ce4ab6f	0.027913777
28	0x3e18b83c	0.1491403
29	0xbddf98ec	-0.109178394
30	0xbd3a6915	-0.04551037
31	0x3c131cc1	0.008979023
32	0xbd392739	-0.04520342
33	0x3c9ef970	0.01940605
34	0xbd60234d	-0.054721165
35	0x3d593771	0.05303139
36	0x3d33cf94	0.043899134
37	0x3c85085b	0.016239336
38	0x3c9b8d65	0.01898832
39	0x3d501953	0.0508054
40	0x3da12cff	0.078699104
41	0x3d28fbf9	0.041255925
42	0xbe3fe3bc	-0.18739218
43	0x3cf295d4	0.02961246
44	0xbc33c797	-0.010972879
45	0xbd8606bb	-0.065442525
46	0xbcebfecf	-0.028808026
47	0x3db2f36e	0.08737837
48	0x3ce6ee81	0.0281899
49	0xbd47de78	-0.048796147
50	0x3d60644a	0.054783143
51	0xbd73cc35	-0.05952092
52	0x3dd32af1	0.10310925
53	0xbc5dc263	-0.013535115
54	0x3cc33d72	0.02383301
55	0xbdbf847a	-0.0935144
56	0x3bd26ec1	0.0064218943
57	0xbc815dea	-0.015791852
58	0x3d19be5b	0.037535053
59	0x3d8f953e	0.070108876
60	0xbcf27186	-0.029595148
61	0xbcd4743b	-0.02593433
62	0x3cda8ef4	0.026679493
63	0x3d1e8dac	0.038709328
