app/models/disc_K3_deg1_-7_6.pth (torch, 20460 bytes, 5 tensors)

model.0.weight f4 [64, 2]
0	0xbf7f7e3f	-0.9980201
1	0x3efe8ce9	0.4971688
2	0x3c88435a	0.016633678
3	0xbf9412c6	-1.1568229
4	0xbeef32a8	-0.46718335
5	0xbfbef9d2	-1.4919989
6	0x3f0eb739	0.55748326
7	0x3ee1c436	0.4409501
8	0x3f22609e	0.63428676
9	0xbecf94a1	-0.40543082
10	0x3f1728b2	0.5904647
11	0x3f38e6af	0.72226995
12	0xbec7a5f5	-0.38993803
13	0x3f188c83	0.59589404
14	0xbf68fd44	-0.9101145
15	0x3f4d4c85	0.80194885
16	0xbc59751a	-0.013272548
17	0x3f090b55	0.53532916
18	0xbf8f82e2	-1.1211817
19	0x3ea17b5b	0.31539425
20	0x3e83e154	0.2575785
21	0xbf24a1e0	-0.643095
22	0xbf321624	-0.69565034
23	0x3f11f0d5	0.57008106
24	0xbf3576a5	-0.7088416
25	0x3f30226a	0.6880251
26	0xbf22dcbf	-0.6361808
27	0x3f20ada6	0.62764966
28	0xbdf9567f	-0.12174701
29	0x3c8c429c	0.017121606
30	0x3e45ca14	0.19315368
31	0xbf2263d5	-0.6343358
32	0xbcd1bc53	-0.025602495
33	0xbf845fb9	-1.0341712
34	0xbea89e05	-0.3293306
35	0xbfefe15a	-1.8740647
36	0x3bba2799	0.00568099
37	0x3ed80148	0.42188478
38	0x3ef71e91	0.48265508
39	0x3d7b9038	0.061416835
40	0x3dd2684f	0.102738015
41	0x3ec8debf	0.39232442
42	0x3f65761e	0.8963336
43	0xbe23bff7	-0.15991198
44	0x3eb25069	0.34826973
45	0x3ec500bf	0.38477132
46	0xbcbf1bf7	-0.023328764
47	0xbf257e65	-0.6464599
48	0x3f33f0ed	0.702895
49	0xbef1fe8b	-0.47264513
50	0xbf33f91c	-0.70301986
51	0x3f07bb12	0.5301982
52	0x3db70e06	0.08938222
53	0x3ed05956	0.40693158
54	0xbfde7c92	-1.7381766
55	0x3ee2f23c	0.44325435
56	0x3f80b6d1	1.0055791
57	0xbf19d427	-0.60089344
58	0x3f3c6921	0.73597914
59	0xbeb3745d	-0.35049716
60	0x3f7b85fc	0.9825132
61	0xbec64462	-0.38724047
62	0xbe745d3e	-0.23863694
63	0x3f0a32a8	0.53983545
64	0xbd3050f1	-0.04304594
65	0x3f1413d7	0.57842773
66	0xbfd7ed98	-1.6869383
67	0xbebfe4bb	-0.37479195
68	0xbd80f61a	-0.0629694
69	0xbf74e9e3	-0.9566938
70	0xbd003b6a	-0.03130666
71	0x3d2f028c	0.04272704
72	0xbf9f3838	-1.2439032
73	0x3f0ba783	0.5455248
74	0xbdd55c60	-0.1041801
75	0xbf22e823	-0.6363546
76	0xbf141374	-0.57842183
77	0x3f22e3dd	0.6362894
78	0x3f6542b8	0.8955493
79	0x3ec59f00	0.3859787
80	0xbe52cadf	-0.20585202
81	0xbf9862db	-1.1905168
82	0x3f33fcc1	0.70307547
83	0x3f0da3a9	0.5532785
84	0x3f1d0ef5	0.6135095
85	0xbf13beb6	-0.57712877
86	0xbf7490b7	-0.9553332
87	0x3efd32fb	0.49452958
88	0xbfd36db1	-1.651785
89	0x3e72219f	0.23645638
90	0x3f1222a0	0.57084084
91	0xbf60b40a	-0.8777472
92	0xbce8bcb8	-0.0284103
93	0xbf535572	-0.82552254
94	0xbf3809eb	-0.71890134
95	0x3f210a87	0.6290669
96	0x3fcaa271	1.5830823
97	0xbf12e1b1	-0.5737563
98	0xbf9de2e4	-1.2334867
99	0x3ec39082	0.38196188
100	0x3f410a87	0.7540669
101	0x3ebb40d7	0.36572906
102	0x3ee26e19	0.44224623
103	0x3ec289f6	0.3799588
104	0x3d87566f	0.06608283
105	0x3e7c20f2	0.24621943
106	0x3e860e0e	0.26182598
107	0xbf1b0566	-0.6055511
108	0xbf884a59	-1.0647689
109	0x3f1de44b	0.6167647
110	0x3e589fb9	0.2115468
111	0xbf0024ae	-0.5005597
112	0x3f0010ba	0.5002552
113	0x3f04fb5d	0.5194605
114	0xbe976416	-0.29568547
115	0xbf268579	-0.65047413
116	0x3faae314	1.3350549
117	0xbe0948b6	-0.13406643
118	0xbf249018	-0.6428237
119	0x3ea3f93a	0.32026082
120	0x3ea802ae	0.32814544
121	0x3e92cc07	0.28671286
122	0xbfacadf9	-1.3490592
123	0x3f0fe149	0.5620313
124	0xbfa39f47	-1.2782983
125	0x3e48102f	0.19537424
126	0xbe374946	-0.17899045
127	0xbf411f5a	-0.75438464

model.0.bias f4 [64]
0	0x3f8c5fdb	1.0966753
1	0x3f77f176	0.96852815
2	0x3fe3317f	1.774948
3	0x3fb64fbc	1.4243083
4	0x3f911b5d	1.1336476
5	0x3fc7cef3	1.5610031
6	0xbfb5dedc	-1.4208636
7	0xc035ac22	-2.8386312
8	0x3dc94be8	0.09828931
9	0x3f8951a6	1.0728042
10	0x3f62e675	0.886329
11	0xbfc54120	-1.54105
12	0x3f44a06d	0.7680729
13	0xbfde71ea	-1.7378514
14	0x3fcf8dfa	1.6215203
15	0x3eb62a83	0.3557931
16	0x3ef3bd2f	0.47605273
17	0xbd4058e6	-0.04695978
18	0x3d6c10d0	0.05763322
19	0x3fbea9b6	1.4895542
20	0x3fd689ef	1.6760844
21	0x3ecc3bb0	0.39889288
22	0x3f0ba347	0.54546016
23	0xbe0632a2	-0.13105252
24	0x3fc2b5e3	1.5211757
25	0x3f8ba9df	1.0911216
26	0xbd7f332b	-0.062304657
27	0xc02d77f5	-2.7104466
28	0x401aa71a	2.416449
29	0x3f33f9cb	0.7030303
30	0x3fd63942	1.6736224
31	0xbf1397d5	-0.5765355
32	0x3e76bd72	0.24095705
33	0xbf735889	-0.9505697
34	0x40062560	2.0960312
35	0x3ffd5195	1.9790522
36	0xc01bcc02	-2.4343266
37	0xbe8cc907	-0.27497122
38	0x3e95f598	0.29288936
39	0x3fb832c2	1.439049
40	0x3ed8b65f	0.42326638
41	0xbe6e0a8b	-0.2324621
42	0x3fddb6b0	1.7321377
43	0x3fad9f49	1.3564235
44	0xbfe87938	-1.8161993
45	0x403f4829	2.9887793
46	0x3e6ca94a	0.23111454
47	0xc004e91c	-2.0767279
48	0x4045534d	3.0832093
49	0xbfd46216	-1.6592433
50	0xbf77febd	-0.96873075
51	0x3fab16bd	1.3366314
52	0x3fc7b38d	1.560167
53	0x3ebea14b	0.37232432
54	0xc01d9f4c	-2.4628477
55	0xbe9aa8b2	-0.3020683
56	0x3faf0df9	1.3676139
57	0xbf826366	-1.0186584
58	0x3fa15847	1.2605065
59	0x3f932f08	1.1498728
60	0x3ec027f6	0.37530488
61	0xc02b4daa	-2.6766152
62	0xbf8d13e8	-1.10217
63	0xbe204b0d	-0.1565363

model.2.weight f4 [64, 64]
0	0x3d3dea54	0.04636605
1	0xbe04f34e	-0.12983438
2	0x3eec2c16	0.46127385
3	0xbddaa0d0	-0.10675204
4	0xbda0f13b	-0.07858511
5	0x3ca35222	0.019936625
6	0xbe0970a4	-0.13421875
7	0xbf05540e	-0.5208138
8	0xbde63a90	-0.11241639
9	0x3e1bacab	0.15202586
10	0xbe270986	-0.16312227
11	0xbdfc9440	-0.12332964
12	0x3e1da54f	0.15395091
13	0xbe635065	-0.22198637
14	0x3d84524c	0.064610094
15	0xbe89aed0	-0.26891184
16	0x3c16a3e5	0.009194349
17	0x3d62d195	0.055375654
18	0xbe028450	-0.12745786
19	0xbd8a50eb	-0.06753715
20	0x3d176750	0.03696376
21	0xbbf5bb14	-0.007499108
22	0xbc2fca3c	-0.010729369
23	0xbe1593ec	-0.14607209
24	0xbe0764c0	-0.13222027
25	0x3ced50cb	0.02896919
26	0xbe345b32	-0.17612913
27	0xbe741e72	-0.23839739
28	0xbd538be1	-0.05164707
29	0xbe2e6096	-0.17029032
30	0xbb983b89	-0.004645769
31	0xbe56dc41	-0.20982458
32	0xbdb5d8ac	-0.088792175
33	0x3dcf86cf	0.101331346
34	0x3eefc4f6	0.46829957
35	0xbd17694f	-0.036965664
36	0xbe737457	-0.23774849
37	0xbe751bab	-0.23936336
38	0x3c8af4e4	0.016962476
39	0xbcb0d0a4	-0.021583863
40	0xbe182f59	-0.14861812
41	0xbe315452	-0.17317322
42	0x3da32133	0.079653166
43	0x3e2660d7	0.16247879
44	0x3dd965d5	0.10615126
45	0xbdc06453	-0.09394135
46	0xbdb3c481	-0.087777145
47	0xbde5e3a8	-0.112250626
48	0x3ca4c75e	0.020114597
49	0xbe2520e9	-0.16125835
50	0x3c6e4877	0.014543644
51	0xbdd48d32	-0.10378493
52	0xbcde09a6	-0.02710421
53	0xbe3769c9	-0.17911448
54	0xbeac2521	-0.33622077
55	0xbe778ffd	-0.24176021
56	0xbe177863	-0.14792018
57	0xbdd2c1bb	-0.102908574
58	0xbd723266	-0.059130095
59	0x3e2b71f8	0.16742694
60	0x3c12c6db	0.008958544
61	0x3ca6cf0d	0.020362401
62	0x3d930c2a	0.071800545
63	0xbd55690b	-0.05210213
64	0x3ea71a70	0.32637358
65	0xbf4ee98d	-0.8082512
66	0xbf328ac8	-0.69743013
67	0x3d722ccc	0.059124753
68	0xbf408e3a	-0.7521702
69	0xbe12f8f5	-0.14352782
70	0xbf2fdae9	-0.68693405
71	0xbfa04bea	-1.2523167
72	0xbe80cff2	-0.2515865
73	0x3ed49059	0.4151638
74	0xbf4ff853	-0.8123829
75	0xbf564a7c	-0.83707404
76	0x3d096fc3	0.03355385
77	0xbf8967b8	-1.0734777
78	0x3f5fb169	0.8738008
79	0xbf85fd9d	-1.0468022
80	0xbf3d010a	-0.7382971
81	0x3efcffd2	0.49413925
82	0xbe1df38e	-0.1542494
83	0xbe09a8f4	-0.13443357
84	0x3e0ec543	0.13942437
85	0xbf6a63da	-0.9155861
86	0xbe3393d8	-0.17536867
87	0xbf50268c	-0.8130882
88	0xbf722524	-0.9458792
89	0x3e86fa44	0.26362813
90	0xbea671e8	-0.3250878
91	0xbf737d68	-0.9511323
92	0xbf41b962	-0.75673497
93	0xbf5adb19	-0.85490566
94	0xbf361401	-0.71124274
95	0xbe6c806b	-0.23095863
96	0xbe00d551	-0.12581374
97	0x3e8483a8	0.25881696
98	0xbf238c22	-0.638857
99	0x3f165b50	0.5873308
100	0xbf41be63	-0.7568113
101	0xbf31e41f	-0.6948871
102	0xbc28363e	-0.010266839
103	0xbdc0e2a3	-0.094182275
104	0xbf6a1e90	-0.91452885
105	0xbed6f94a	-0.41987067
106	0xbf7e637e	-0.99370563
107	0x3ea58052	0.32324463
108	0xbefef2d7	-0.49794647
109	0xbfa1ebed	-1.2650124
110	0xbf5f7744	-0.8729136
111	0xbed910fa	-0.42395765
112	0xbf4d349d	-0.80158406
113	0xbf25bdc9	-0.64742714
114	0xbf0a9410	-0.54132175
115	0x3ca03694	0.019557275
116	0x3e625643	0.22103219
117	0xbf88fddd	-1.0702473
118	0xbf5f2264	-0.8716185
119	0xbf6075ed	-0.8767994
120	0xbcf0ac03	-0.029378897
121	0xbf3f91bf	-0.74831766
122	0xbf11b6a0	-0.5691929
123	0x3e8fe2e5	0.28102794
124	0xbe1e4f96	-0.15460047
125	0xbf439c07	-0.76409954
126	0xbe855c30	-0.26046896
127	0xbf5a71c9	-0.8532987
128	0x3e8b1eea	0.27172023
129	0xbead2ac1	-0.3382168
130	0xbf61e45b	-0.8823907
131	0xbe223621	-0.15840961
132	0xc0056213	-2.084111
133	0xbe25c16b	-0.16187064
134	0xbe490abe	-0.19633004
135	0xbf860bbf	-1.0472335
136	0xbdc02e18	-0.09383792
137	0x3ea3c53b	0.31986412
138	0xbed2d25b	-0.41176113
139	0xbe7f6e9f	-0.24944542
140	0x3e7ba64f	0.2457516
141	0xbe3bab14	-0.1832698
142	0xbe23d8b1	-0.1600063
143	0xbe4e1275	-0.20124228
144	0xbe911e3d	-0.28343382
145	0x3f18a65e	0.59628856
146	0xbce7d166	-0.028298091
147	0xbe6bc4fd	-0.23024364
148	0xbe379017	-0.1792606
149	0xbfb81ca8	-1.4383745
150	0xbe2e34df	-0.17012356
151	0x3d89a4ca	0.06720884
152	0xc01ff111	-2.4990885
153	0x3c972767	0.018451406
154	0x3e0f8b69	0.14018025
155	0xbfdc999e	-1.723438
156	0xc04514e1	-3.0793993
157	0xbfcc26c9	-1.5949336
158	0xc0205c02	-2.5056157
159	0x3de5dd62	0.11223866
160	0xbc01104a	-0.007877419
161	0x3fc03d0c	1.501863
162	0xc01ba3f0	-2.431881
163	0xbeb44517	-0.3520896
164	0xbfb76a41	-1.4329301
165	0x3e496ecd	0.19671173
166	0x3e2bc5da	0.16774693
167	0xbdb16636	-0.08662073
168	0xbe82a468	-0.25516057
169	0x3e574ed9	0.21026172
170	0xc0197949	-2.3980277
171	0x3df3df5d	0.119078375
172	0xbf6cd058	-0.9250541
173	0xc01d5a22	-2.4586263
174	0x3cbea5dc	0.023272447
175	0xbed4ae8c	-0.4153942
176	0xc044d185	-3.075288
177	0xbf12e3bc	-0.57378745
178	0x3e580028	0.2109381
179	0xbe6ef139	-0.23334207
180	0xbe10d197	-0.14142452
181	0xbe073509	-0.13203825
182	0xbfb175d2	-1.3864081
183	0xbe677bfc	-0.2260589
184	0xbdf2391b	-0.11827298
185	0x3ee0eb0b	0.43929324
186	0xbfe1f1ce	-1.7651918
187	0x3e431158	0.19049585
188	0xbdc831db	-0.09775134
189	0xbfdab13e	-1.708534
190	0xbe60eb2c	-0.21964711
191	0x3e17a507	0.14809047
192	0xbd9ece35	-0.077541746
193	0x3d91349f	0.07090115
194	0xbd680550	-0.05664569
195	0xba8777de	-0.0010335406
196	0xbcc3f4c9	-0.023920434
197	0xbd7884c5	-0.060673494
198	0x3c457acd	0.012053204
199	0x3dfa71b4	0.122287184
200	0xbd6de6d4	-0.058081463
201	0x3d0ecefd	0.03486537
202	0x3cd5c910	0.02609685
203	0xbdca2a5a	-0.09871359
204	0xbdf7ee41	-0.1210599
205	0xbbbb5a25	-0.005717533
206	0x3d8d1d48	0.068903506
207	0xbd372749	-0.0447152
208	0x3defd562	0.117106214
209	0x3dce71eb	0.10080322
210	0x3c00eeec	0.007869463
211	0xbde59487	-0.1120997
212	0xbc2f29a4	-0.01069108
213	0xbdc81fe6	-0.09771709
214	0xbcc114ab	-0.023569426
215	0x3d1a878b	0.03772692
216	0xbd9c0b3b	-0.076193295
217	0xbda7dea6	-0.08196764
218	0xbded7efb	-0.11596485
219	0xbe8d6868	-0.27618718
220	0xbde5dab8	-0.11223358
221	0x3d9552f6	0.07291214
222	0xbd39da18	-0.045374006
223	0xbe25ccb4	-0.1619137
224	0xbde14eae	-0.11001335
225	0xbe85345e	-0.26016515
226	0x3c6d1efc	0.014472719
227	0x3d65be6d	0.056089807
228	0xbe30baa0	-0.17258692
229	0xbcee65cf	-0.02910128
230	0xbc3beefa	-0.011470551
231	0x3b02ac6f	0.0019939204
232	0xbde58d15	-0.1120855
233	0xbcc4ec6f	-0.024038522
234	0x3c9152f6	0.017739754
235	0xbe0d5a2f	-0.13803934
236	0xbe6ffc14	-0.23436004
237	0x3d9fd157	0.078036
238	0x3c0bc0a5	0.008529817
239	0xbb40588e	-0.0029349658
240	0xbda6d6b0	-0.08146417
241	0xbd102cf2	-0.035199113
242	0x3c723b80	0.014784694
243	0xbd11880c	-0.035530135
244	0xbe28850d	-0.16457005
245	0x3c34f082	0.01104367
246	0xbc3fdfc3	-0.011711064
247	0x3a9f3da8	0.0012149112
248	0xbda608ca	-0.08107145
249	0xbc8f9159	-0.017525362
250	0xbdb32def	-0.087489955
251	0x3cd38d78	0.025824293
252	0xbdd0537e	-0.10172175
253	0xbe41fd38	-0.18944252
254	0xbdcd3cf2	-0.1002139
255	0x3df619cc	0.12016639

model.2.bias f4 [64]
0	0x3c3d375d	0.011548844
1	0x3f42a4e4	0.76032853
2	0xbeb882ee	-0.3603739
3	0xbe1ac03a	-0.15112391
4	0x3ef6c3c2	0.48196226
5	0xbce384fd	-0.027773375
6	0x3e2adf6c	0.16686791
7	0x3edcc4ac	0.431188
8	0x3edcfe5b	0.43162808
9	0x3e901e32	0.28148037
10	0x3f17c870	0.5929022
11	0xbd2d4b08	-0.042307884
12	0x3e90bcc1	0.28269008
13	0xbd82dd99	-0.06389923
14	0x3f14aa82	0.58072674
15	0xbceeb835	-0.029140571
16	0xbdf5bebf	-0.119992726
17	0x3e2bfe84	0.16796309
18	0x3f36c8d4	0.7140019
19	0x3ebbac9a	0.36655122
20	0x3ec282cf	0.37990424
21	0xbd7d88fc	-0.061898217
22	0x3f13fb12	0.5780498
23	0x3e92af89	0.28649548
24	0x3b741e16	0.0037249378
25	0xbf0de8a1	-0.5543309
26	0x3eb104cf	0.3457398
27	0x3f295ba4	0.6615546
28	0x3ec790c0	0.38977623
29	0xbde53cf8	-0.111932695
30	0x3e68b7f6	0.22726426
31	0x3e32989e	0.17441031
32	0xbe897724	-0.2684871
33	0x3e06d9ca	0.13169017
34	0x3e3c484c	0.18386954
35	0x3f02336e	0.50859725
36	0xbec5918b	-0.38587603
37	0x3f24a6cc	0.6431701
38	0x3e49f383	0.19721799
39	0x3eca090b	0.39460024
40	0x3ea8a696	0.32939595
41	0x3f07f4c0	0.53107834
42	0x3e019d79	0.12657727
43	0xbcc1dcd0	-0.023664862
44	0x3e553f19	0.20824851
45	0xbdd27520	-0.10276246
46	0x3ec7410b	0.3891681
47	0xbe3026a9	-0.17202248
48	0x3f0157a8	0.5052438
49	0xbcaf056e	-0.021364894
50	0x3e3c511e	0.18390319
51	0x3ed855ab	0.4225286
52	0x3f2d3e58	0.67673254
53	0x3ebae91c	0.36505973
54	0x3e880950	0.26569605
55	0xbe01bbd0	-0.12669301
56	0x3ebf9a2d	0.37422314
57	0xbb85316f	-0.004064731
58	0xbdcf1a12	-0.101123944
59	0x3ef0f7bd	0.4706401
60	0x3e7b0808	0.24514782
61	0x3e445e62	0.19176629
62	0x3e6542e0	0.22388792
63	0xbd7f156d	-0.062276293

model.4.weight f4 [1, 64]
0	0x3dbe7723	0.09300067
1	0x3f690382	0.9102098
2	0xbfe5c368	-1.7950258
3	0xbe25c2ba	-0.16187564
4	0x3e4877f1	0.19577004
5	0x3e3ddb34	0.1854065
6	0xbf1258a3	-0.571665
7	0x3f358826	0.7091087
8	0x3e6a6f94	0.22894126
9	0xbf734785	-0.95031005
10	0x3ef69af0	0.48165083
11	0xbe3ad6ba	-0.18245974
12	0x3e8b3763	0.27190694
13	0xbca415c9	-0.02002992
14	0x3f507793	0.81432456
15	0xbdab734d	-0.08371601
16	0xbe6f6094	-0.23376685
17	0xbec92cec	-0.39292085
18	0x3f2f6d7b	0.6852643
19	0xbf6b550f	-0.91926664
20	0xbf81465a	-1.0099595
21	0xbfbc27e3	-1.4699672
22	0x3ee15909	0.4401324
23	0xbf00bd85	-0.50289184
24	0xbb8a6249	-0.0042231423
25	0xbfdc0424	-1.7188764
26	0xbea346e4	-0.31890023
27	0x3f67e29f	0.9058017
28	0x3edc70d3	0.43054828
29	0xbd0f92e0	-0.03505218
30	0xbf47432d	-0.7783688
31	0xbf833f3a	-1.025367
32	0xbe525222	-0.20539144
33	0xbeb8bc4c	-0.3608116
34	0x3e8d55f6	0.27604645
35	0x3eaef57d	0.34171668
36	0xbe9a912e	-0.30188888
37	0x3f33ca66	0.7023071
38	0xbf3af898	-0.73035574
39	0x3ebd9ab6	0.37032098
40	0x3e7277e8	0.23678553
41	0x3e53bb57	0.20676933
42	0xbf84d5d0	-1.037775
43	0xbdee9093	-0.11648669
44	0x3e9360fd	0.28784934
45	0xbd0f7276	-0.035021268
46	0x3e9a3b7a	0.30123502
47	0xbf9ae1f5	-1.2100207
48	0x3ed38aa8	0.41316724
49	0x3e862780	0.2620201
50	0xbea05436	-0.31314248
51	0xbf8a3b25	-1.07993
52	0x3f87330a	1.0562451
53	0xbf91cb91	-1.1390249
54	0xbf1c9b3a	-0.61174357
55	0xbe4c3fd2	-0.1994622
56	0xbe53fa55	-0.20700963
57	0xbe183fff	-0.14868163
58	0xbe431b73	-0.1905344
59	0x3e9f0ace	0.3106293
60	0xbf8842ce	-1.0645387
61	0xbe3026a6	-0.17202243
62	0x3e7ac1ea	0.24488035
63	0xbe4c8039	-0.19970788
