app/models/disc_K3_deg1_-8_2.pth (torch, 20460 bytes, 5 tensors)

model.0.weight f4 [64, 2]
000000 2a 87 cd 3e ea 66 01 be 2a a9 63 bf 8f f9 b9 3e
       0.40142184 -0.12636915 -0.8893 0.3632321
000010 61 1d 81 3f 0d f6 f2 3e 5c 62 00 3e 1e ae 19 bf
       1.0087091 0.47453347 0.12537521 -0.60031307
000020 2a f1 a3 3e 13 81 b9 3e 9e 6a aa 3e 6a 12 3c 3f
       0.3201993 0.36231288 0.33284467 0.734656
000030 5c dc 36 bf 54 ac 1a 3e 5b 3e 3a bf 80 a1 1d bf
       -0.7142999 0.151048 -0.72751397 -0.61574554
000040 fa 86 39 3f d9 f4 3d 3f 3b 9d 2f bf 5f e1 26 3f
       0.7247158 0.7420173 -0.6859929 0.6518764
000050 28 2a b8 bf 24 be 24 3e bf f4 94 3e cd 52 4d bf
       -1.4387865 0.16088158 0.29092976 -0.8020447
000060 95 7a af be 56 81 20 3f 9f 08 46 bf 81 85 04 3f
       -0.3427321 0.6269735 -0.77356905 0.5176621
000070 93 58 ca be da e7 11 3f 3f f4 8e bf fc 1d 1b 3f
       -0.39520702 0.569944 -1.1168288 0.6059263
000080 ae 9e 9c bf 71 42 2f 3e 0a 81 69 3f 04 91 d1 be
       -1.2235925 0.17115189 0.91212523 -0.4093095
000090 c5 cf 91 3e 16 a4 85 bf 46 41 00 3f da f4 1a 3f
       0.28478828 -1.04407 0.500996 0.60529864
0000a0 22 27 d7 be 5f 40 d6 3e c7 ad 3b 3f 4e 8d 14 3e
       -0.42022043 0.41845986 0.7331204 0.14507028
0000b0 8b 29 c9 3e 9a cc 90 3e 20 69 82 3e a1 7e a2 3e
       0.39289507 0.282811 0.2547083 0.31737235
0000c0 58 4d 67 bf e5 cc a9 3e 5e f2 05 bf 46 31 0d 3f
       -0.9035239 0.33164135 -0.5232295 0.5515331
0000d0 1f a2 f3 3d 8a e6 9c bf 13 9c dd bf 8b 9e f6 3e
       0.118961565 -1.2257855 -1.7313255 0.48167834
0000e0 f3 49 3d 3f 50 b0 a1 be c5 ff 6d be e6 f7 e2 be
       0.7394096 -0.31579828 -0.232421 -0.44329756
0000f0 7c 62 33 bf 35 ab 32 3f 79 82 ff bb 84 63 80 3e
       -0.7007215 0.6979249 -0.007797536 0.25075924
000100 da 8e 5b bf 3f f6 a0 be ec e7 41 3e a4 0c f5 3e
       -0.8576485 -0.3143787 0.18936127 0.47861207
000110 d4 7d 0e 3f 08 65 97 3e 02 e3 0a bf 21 a7 25 3f
       0.5566075 0.29569268 -0.54252636 0.64708143
000120 f9 42 55 bf d8 98 87 be cc 6e 0d 3f 72 6b c5 be
       -0.8330532 -0.26483798 0.5524719 -0.38558537
000130 28 48 58 bf 21 fd 23 3f 63 e8 19 3f 01 2e a1 3e
       -0.844851 0.6405812 0.6012022 0.3148041
000140 09 08 78 3f a9 9b 40 be 52 02 4f bf 88 8b 03 bf
       0.9688726 -0.1880938 -0.80862916 -0.5138478
000150 7f c8 4a bf 71 c2 08 3f d9 d4 02 3f 76 e7 1f 3f
       -0.7921218 0.53421694 0.5110603 0.62462556
000160 53 d3 85 3e e3 75 db be 2e ff 9d 3f 3b 76 0c bd
       0.2613779 -0.42863378 1.23435 -0.03429244
000170 30 c9 87 3f 12 46 fd be 8a b0 2d 3e 85 50 70 bf
       1.0608273 -0.49467522 0.16961876 -0.93872863
000180 72 a3 4e 3f 6d 73 40 be da c1 4d 3f ec f8 44 bf
       0.8071815 -0.18794031 0.8037392 -0.76942325
000190 81 29 c4 bd e5 74 ea 3e bf 4e 08 3f 4d 75 56 be
       -0.09578229 0.45792308 0.53245157 -0.20943184
0001a0 db 21 95 be ad e2 4d bf d4 83 7d 3f e5 e6 1f bf
       -0.29127392 -0.80424005 0.9902928 -0.6246169
0001b0 68 e5 19 bf 45 66 f8 3e 5b 8a 03 3f 40 8e 61 bf
       -0.6011567 0.48515525 0.5138299 -0.8810768
0001c0 8c 96 32 be 39 ed dd be 9d 72 76 3f 42 71 d3 be
       -0.17440242 -0.4334505 0.96268636 -0.41297346
0001d0 31 bd 88 bf 81 15 21 3e e8 f2 16 3f fd 7c cd bd
       -1.0682737 0.1573086 0.58964396 -0.10033605
0001e0 07 e3 84 3f b8 12 81 3e 7b 2f 09 3f 62 e7 8f be
       1.0381783 0.25209594 0.53588074 -0.2810622
0001f0 67 47 97 bf 60 55 17 3e 61 a0 58 bf e4 c6 04 3f
       -1.1818665 0.14778662 -0.8461972 0.51865983

model.0.bias f4 [64]
000000 22 3a d6 3f c7 0d ce bf 3c df 9b 3d 99 c3 05 3e
       1.6736491 -1.6097955 0.07610938 0.13062896
000010 32 d3 47 bf fa 1a 9e 3f 84 94 21 bf 5a a3 e1 bd
       -0.78056633 1.2351983 -0.6311724 -0.11017485
000020 42 fa 9d 3f 0e 79 5d 3e 44 11 b4 bf d7 44 47 3c
       1.2341998 0.2162821 -1.4067769 0.012162409
000030 03 fc dc bf b0 c9 02 c0 09 cd 7e bf 7d cf cf 3f
       -1.7264408 -2.04356 -0.9953161 1.6235195
000040 84 8f 1f bc 07 d3 c5 3f 78 ed c6 be 38 bb 8e 3f
       -0.009738807 1.5455025 -0.3885305 1.1150885
000050 6e 4b e1 3d e1 64 32 bf e9 9a 1e 3f b3 18 95 bf
       0.11000715 -0.6968518 0.61955124 -1.1648163
000060 53 31 bf bf bc a5 e2 bf e3 2e ae 3f 9e a1 51 c0
       -1.4936928 -1.7706828 1.3608059 -3.2754893
000070 04 bd ea 3f 37 ee 0c bf 6a a8 9f 3f d8 c0 2e bf
       1.8338933 -0.55050987 1.2473271 -0.68263006
000080 9e 67 18 bf 2a b4 82 bf f5 fd 9d 3f 65 6a 0d c0
       -0.5953311 -1.0211232 1.2343127 -2.2096188
000090 d5 48 d8 bd ea fe 05 40 c6 3a c2 3f 51 2c a6 3f
       -0.105607666 2.0936837 1.5174186 1.2982274
0000a0 37 f7 43 3f 22 d8 ad 3f 02 06 09 c0 91 df 0a 3d
       0.76549095 1.3581583 -2.1409917 0.033904616
0000b0 48 9a 27 bf 80 45 03 40 ad 47 08 40 67 90 48 3f
       -0.6546979 2.051117 2.1293747 0.7834534
0000c0 d7 c6 9e 3f 02 24 33 40 38 10 57 be 96 1c a8 3f
       1.2404431 2.7990727 -0.2100228 1.3133724
0000d0 c6 82 e7 3e 22 11 2c 40 3c f6 d3 bf 41 99 29 40
       0.4521696 2.6885457 -1.655952 2.6499789
0000e0 92 91 11 bf b1 9d cc 3f 09 5c a6 bf ed 9d 15 bf
       -0.5686275 1.5985624 -1.2996837 -0.584441
0000f0 db d2 70 3f fb 00 c9 3f ac db e2 3d 2f 20 c8 3f
       0.9407174 1.5703424 0.11077055 1.5634822

model.2.weight f4 [64, 64]
000000 62 97 6d 3e 62 81 46 bf c4 8d 33 3c 70 17 21 bf
       0.23202279 -0.7754117 0.0109590925 -0.6292639
000010 ac 90 e7 bb 7a 6e 81 3d cd ea 7f be ca 43 19 bf
       -0.007066807 0.063199 -0.24991913 -0.5986906
000020 c6 dd 44 3e 58 f7 06 3d de 49 ec be 33 f5 4c bf
       0.19225225 0.03295073 -0.46150106 -0.80061644
000030 72 3d 50 be 25 b9 2c bf 7d 84 9b bd 04 d1 bc 3e
       -0.2033594 -0.6747001 -0.075936295 0.36878216
000040 4c 01 df bc a1 3f 28 be a1 40 17 bf a4 fd 50 3e
       -0.027222298 -0.16430523 -0.5908299 0.20409256
000050 7a 6f 81 3b 30 18 51 be 38 5e 9c 3d 07 8a 9f be
       0.0039500566 -0.20419383 0.07635158 -0.31159994
000060 4b 83 bf be ed 80 19 bf 75 16 08 bf 8d 00 cb bf
       -0.37404856 -0.5996235 -0.53159267 -1.5859543
000070 a3 2b 14 bb d2 7b 4b bf 0e 3e ae 3d 26 2a 29 be
       -0.0022609017 -0.7948581 0.0850793 -0.16519985
000080 7e 3d 56 bf 71 2b 39 bc 79 3e 95 3c 56 1b 41 bf
       -0.8368758 -0.011301861 0.018218266 -0.75432336
000090 51 48 99 be 9b ce 05 3e 4a b9 a0 3e 7c b4 b2 3d
       -0.29937986 0.13067095 0.31391364 0.08725831
0000a0 57 e5 17 bd 4d 50 7a bd 45 27 48 bf c0 ab 35 bd
       -0.03708395 -0.061111737 -0.7818492 -0.044353247
0000b0 44 e6 29 bf b3 a0 95 3a 95 28 f1 be 62 97 16 bf
       -0.6636698 0.001141569 -0.47101274 -0.5882474
0000c0 3b ae c4 bd d6 0e 42 bf 17 af 40 3b 18 eb 85 3c
       -0.09603544 -0.7580389 0.0029401237 0.016347453
0000d0 70 6c 36 bf b0 84 99 be 83 d4 be be 26 4b 73 bf
       -0.7125921 -0.29984045 -0.3727151 -0.9503654
0000e0 84 b6 7b bf 31 bf 0e be 1b 76 2f bf b5 c2 8b bd
       -0.9832537 -0.13940121 -0.6853959 -0.06824247
0000f0 6c cd d9 3d 1f 01 cc 3d 27 95 b6 3d cc bc 76 3e
       0.10634884 0.09961151 0.08915167 0.24095458
000100 6a 4d 90 bf 62 45 af bd 3c 06 27 3e f8 59 ae be
       -1.1273625 -0.085581556 0.16310972 -0.34053016
000110 64 54 4f be 0d c0 00 3e cb 9f f1 3a 66 7a 66 3b
       -0.20247036 0.12573262 0.0018434463 0.003516817
000120 3a 8f 0a 3e e9 48 5d bd ad b6 03 3c eb 88 10 bf
       0.13531199 -0.05402461 0.008039159 -0.5645892
000130 68 c9 b5 bd 96 9f fa bd de ae 62 bb e4 79 1a 3e
       -0.08876306 -0.1223747 -0.0034589092 0.1508556
000140 8d dd 23 3e 36 52 4b be eb 28 1a bf 20 65 c7 3d
       0.16002484 -0.1985558 -0.60218686 0.09736085
000150 e2 dd b9 bc 99 1d b1 be f4 11 15 3e 11 c7 f6 be
       -0.02268881 -0.34592894 0.1455763 -0.4819875
000160 2c 2e c0 bd c8 0f 82 be ba 22 32 bf 64 71 c2 3d
       -0.093838066 -0.25402665 -0.6958424 0.09494284
000170 1f 12 c2 bf a3 2a a1 be 5d 13 80 3d dd a0 d9 be
       -1.516178 -0.31477842 0.06253693 -0.4250554
000180 38 0a 1e be 8e ef 01 bf 71 18 a5 be e2 02 2a be
       -0.15433586 -0.50756156 -0.3224521 -0.16602662
000190 bd 15 6c 3e de 7b c3 bf 8d 50 4c 3d a6 4f 3a bd
       0.23055167 -1.5272176 0.049881507 -0.045486115
0001a0 96 e0 31 3e 6f d9 2f 3e 93 ad a1 bd 53 af 9d bd
       0.17370829 0.17172788 -0.07894435 -0.07699456
0001b0 83 4f 12 bf c0 c4 b8 bf ae 9e 2f bf 27 f9 a9 be
       -0.57152575 -1.4435043 -0.686015 -0.331979
0001c0 01 3f 76 bf 76 a3 65 bf ac c4 ad bd c0 71 78 bf
       -0.96189886 -0.89702547 -0.08484778 -0.9704857
0001d0 54 10 3e be 0b 8b 6d bf 2e d9 ce bd ff dd bf bf
       -0.18560916 -0.9279029 -0.101000175 -1.4989623
0001e0 95 13 f8 be ec e2 99 be a0 bd 17 3e 53 e0 d7 be
       -0.4845244 -0.3005594 0.1481843 -0.42163333
0001f0 2d 50 a5 be f7 6a 89 bf 92 1c a3 bb 9f 37 22 3d
       -0.32287732 -1.0735768 -0.004977771 0.039603826
000200 c4 70 50 3e f7 72 c1 bc 1d ad 99 be 3e 7b 90 3e
       0.20355517 -0.02361439 -0.30014887 0.28219026
000210 86 12 fe be 91 33 00 3e 95 8b a1 3d 2b d1 50 3d
       -0.49623507 0.12519671 0.07887951 0.050980728
000220 a1 f0 42 be 73 25 06 bc 54 ef 03 3e d4 cd fb bd
       -0.19037105 -0.0081876395 0.12884265 -0.12295118
000230 bd 35 ad 3d 0f b3 41 3d 82 a6 bb bd 83 39 10 3e
       0.084575154 0.047289904 -0.09162618 0.14084439
000240 ba 46 b0 3d a6 3a 25 bf 13 08 b0 be b2 6c 29 bd
       0.0860724 -0.64542615 -0.3438116 -0.041363426
000250 ba 70 01 bc ba 6a 14 bf b1 0a 03 be c1 14 3d be
       -0.007900411 -0.5797535 -0.12797047 -0.18464948
000260 66 da fd bb 46 b4 39 bd 79 d9 a5 be 9e f1 12 3e
       -0.0077469824 -0.045337938 -0.3239248 0.14349982
000270 d5 db 1e 3f 7b 1c 15 3e 17 be cd 3d c4 f1 1e 3e
       0.6205419 0.14561646 0.100460224 0.15521914
000280 29 2c a0 bd 00 8e 2e be 9c db 12 be e1 ba 01 3e
       -0.07820923 -0.17046356 -0.14341587 0.12668945
000290 1d 4f f2 3d 8d f1 1a 3f b6 c3 47 3e 9b 55 d9 bc
       0.11831496 0.6052483 0.19508252 -0.026530078
0002a0 94 d2 13 bf a3 fd 24 be 65 97 05 be 58 6e 64 be
       -0.5774319 -0.1611238 -0.13046034 -0.22307718
0002b0 e9 50 45 be a4 e2 8d bd 07 da 79 be 1a cc d8 bd
       -0.19269146 -0.06927994 -0.24399577 -0.10585804
0002c0 51 ba 8a 3e 5a fd be be e1 48 6e bd fc 7a 82 3e
       0.27095273 -0.37302667 -0.05817497 0.25484455
0002d0 48 c4 84 bd 83 f8 cc be 97 e8 a1 3c 05 cc 24 bd
       -0.0648275 -0.4003335 0.019764228 -0.04023363
0002e0 94 a9 f4 3d 01 c0 18 bf c3 bd ac 3d 51 c2 bc be
       0.11946407 -0.59667975 0.08434632 -0.36867002
0002f0 73 10 77 be 6a fd 80 3e 7e 4b 00 3e 9f 15 f2 3d
       -0.24127369 0.2519334 0.12528798 0.1182053
000300 13 e2 98 3d bd 98 c2 bd 89 ea 22 3e a9 b6 2b be
       0.07464995 -0.09501789 0.1590978 -0.16768898
000310 35 9f 9a 3d ef ca 2f 3d dd 12 b4 3c 53 48 0b bd
       0.075498976 0.042918142 0.021981651 -0.03400452
000320 4d 64 36 3e f4 b9 3c 3d c8 dc bc bd fd cf 97 bd
       0.17811699 0.046075776 -0.09221798 -0.074127175
000330 3b 17 57 bc 94 a2 a1 bd 26 6f db 3d ce 35 95 3d
       -0.013128097 -0.078923374 0.10714559 0.07285653
000340 cf 02 ce bb a2 27 a2 3c 02 3f 24 be e2 19 c3 3c
       -0.006286956 0.019794289 -0.1603966 0.023816053
000350 09 70 92 3d 20 00 29 3d cf 10 1d 3e ff 21 ef 3c
       0.07150275 0.041259885 0.15338443 0.029191015
000360 37 ac 38 bd 71 f0 e2 3d 05 cf fd bd 27 dd c5 bd
       -0.045086112 0.11081017 -0.123930015 -0.09661322
000370 f2 c1 08 3e 86 d4 80 be 57 86 0c 3e 1e 56 0c 3d
       0.13355234 -0.25162143 0.13723122 0.034261815
000380 84 49 68 be 60 8a 06 3c 4f a0 36 bd f8 e1 d3 ba
       -0.22684294 0.008211702 -0.044586476 -0.0016165366
000390 a0 6c ac 3b ca 35 0b 3d db af cd 3d 67 df 3f 3e
       0.0052619725 0.033986844 0.100433074 0.18737565
0003a0 26 d0 40 bc 1f ab f2 bd 58 b9 65 bd f5 fc b8 3d
       -0.011768376 -0.11849045 -0.05608496 0.09032623
0003b0 cf ef ef bd ff 8a 68 3d dd 1f 95 be 74 f2 ec bd
       -0.11715662 0.056773182 -0.29125872 -0.11569682
0003c0 7e 23 69 3c 9e 31 5e be fb ea 11 3d f9 8c 26 3e
       0.014229653 -0.21698615 0.035624485 0.16264714
0003d0 c4 5e 29 be 98 12 4a be c3 c3 88 bd 6e 3d d7 bd
       -0.16540056 -0.19733655 -0.066779636 -0.10509764
0003e0 79 d9 8b be 84 01 c0 3c 38 d4 02 bd 05 1d b6 bd
       -0.27314356 0.023438223 -0.03194067 -0.08892254
0003f0 42 ef df 3d 40 88 67 bc 0e 80 d9 3d 8d 17 c1 3c
       0.10934307 -0.014131606 0.106201276 0.0235708

model.2.bias f4 [64]
000000 63 44 0e 3f db aa e0 3e 2e fc 8e 3e c8 2a 9a 3e
       0.555731 0.43880352 0.27926773 0.30110765
000010 40 7b b5 3e 44 06 1d bd b8 02 3d bd 8b 4f 87 3e
       0.35445595 -0.038336053 -0.04614517 0.26427874
000020 74 7e af bd 81 7a 0c 3f 6c 51 6f 3e f9 86 cc bd
       -0.08569041 0.54874426 0.23370904 -0.099866815
000030 ed c1 09 be 15 04 cf be 4e bb 97 3e f1 9b aa 3e
       -0.13452883 -0.40432802 0.2963509 0.333221
000040 5f c8 ab bd c6 31 be 3d 3e 6a 88 bd 1d 37 29 3f
       -0.08387827 0.09286837 -0.06660889 0.6609972
000050 b6 4f 1a 3e dc 73 54 3e 30 30 8c 3e 92 68 88 3e
       0.1506947 0.20747322 0.27380514 0.2664228
000060 de fd 06 3f 08 f7 fc 3e 24 bf 6a 3e 9b f8 41 be
       0.5273112 0.4940722 0.22924477 -0.18942492
000070 0d 85 ec 3e 2d fe 14 3e 09 35 7f 3e 6c d4 fd 3e
       0.4619526 0.14550085 0.24922575 0.49576128
000080 3d cf ad be ab c2 e3 3e 79 19 c5 be cf cc 09 3e
       -0.33947173 0.44484457 -0.38495997 0.13457035
000090 77 46 9e 3e 91 bf cd 3e 32 33 d8 3d 75 d2 bf 3e
       0.30913135 0.40185216 0.1055664 0.37465253
0000a0 7f a5 04 3e b5 db 0e 3e 48 4d 54 3d 2b 36 ae 3e
       0.12953757 0.13950999 0.051831514 0.34025702
0000b0 99 7e 45 3e b6 fa 02 3d e1 cb 4c 3f 24 50 93 3e
       0.19286574 0.031977378 0.79998595 0.2877208
0000c0 26 f0 95 3e 96 db 0f 3f 38 95 70 3e ec 70 02 3f
       0.2928478 0.56194437 0.23494422 0.50953555
0000d0 fe 22 16 3f e1 33 c3 3e b2 24 d4 3e 2b 20 1a be
       0.58647144 0.38125518 0.41434246 -0.15051334
0000e0 ba ca 4e bd 84 26 06 3f 99 0d 33 be 11 ad 14 3e
       -0.050486304 0.5240252 -0.17485656 0.14519145
0000f0 0d 86 cb bd 5c 14 33 be 52 79 b5 be f0 26 c4 be
       -0.099376775 -0.17488235 -0.35444123 -0.38310957

model.4.weight f4 [1, 64]
000000 4a 6b 9b 3e b2 19 07 bf 0c a3 16 3e 16 97 72 3d
       0.30355293 -0.5277358 0.14710635 0.059226118
000010 84 c4 86 3e 9d 92 0e bf c1 66 29 3c f0 13 8f 3d
       0.26321805 -0.55692464 0.01033944 0.06986225
000020 7b a7 c7 bd b3 cc 84 3f 4a fa 8c 3e 34 ed f3 be
       -0.09748741 1.0374969 0.27534705 -0.4764191
000030 ff c0 3b be 55 27 00 bf 79 10 3f 3e 2e 40 8c bf
       -0.18335341 -0.50060016 0.18658628 -1.0957086
000040 06 3f 70 bd e4 8d 8f 3d 6a 74 ac bd de 72 0f 3f
       -0.058653854 0.07009485 -0.08420642 0.5603465
000050 5c a2 30 3e 82 c2 81 3d 78 35 a1 be 6f 57 82 bf
       0.17249435 0.063359275 -0.31486106 -1.0182933
000060 fd 5e 50 3f c0 c4 a4 3e 90 9f 9d be 22 44 88 bd
       0.8139494 0.32181358 -0.307858 -0.0665362
000070 22 1a b3 bf d5 bc 2e 3c 8b 1f 98 be 6e b7 30 3e
       -1.399235 0.010665138 -0.29711565 0.17257473
000080 ff 6b aa be 7a 05 81 3e 9b 81 ec bf a6 f7 af be
       -0.3328552 0.2519949 -1.8477052 -0.34368628
000090 d8 e7 e3 be 21 bd af 3e 08 95 c4 bf 02 41 17 bf
       -0.4451282 0.3432398 -1.5357981 -0.5908357
0000a0 c9 43 12 bf c0 59 26 3e 9b 22 9e be 2d 73 81 3e
       -0.5713468 0.16245174 -0.30885777 0.25283185
0000b0 f0 b1 cb be 39 a6 71 be 72 da 45 3f 52 bd 01 bf
       -0.39784193 -0.23598565 0.77286446 -0.50679505
0000c0 eb f3 7f 3e a9 35 47 3e af 37 04 3e 77 f9 a4 3e
       0.24995391 0.19454063 0.12911867 0.32221577
0000d0 33 63 a7 3f 42 71 45 3e 8d b9 c9 bf 2d 62 86 be
       1.3077148 0.19281486 -1.5759751 -0.26246777
0000e0 31 a9 02 be 8e 72 f7 3e e2 c5 56 bd 9c d9 0b 3e
       -0.12759854 0.48329586 -0.05243481 0.1365723
0000f0 d0 16 92 3d 3c 03 d8 bf 63 58 14 c0 c0 2f e7 be
       0.071332574 -1.6875987 -2.3178947 -0.45153618
