app/models/disc_K3_deg1_-14_-1.pth (torch, 20480 bytes, 5 tensors)

model.0.weight f4 [64, 2]
0	0xbf737f90	-0.9511652
1	0x3dd165f5	0.10224525
2	0x3f9c162a	1.2194264
3	0xbf3be364	-0.73393846
4	0xbf506b0b	-0.81413335
5	0xbef25547	-0.47330686
6	0x3f9be34c	1.217874
7	0xbf3b74b2	-0.7322494
8	0xbf299251	-0.66238886
9	0xbdafea67	-0.085896306
10	0x3fb66108	1.4248362
11	0xbf340f25	-0.7033561
12	0xbf278b8b	-0.654473
13	0x3df03189	0.11728198
14	0x3fb05140	1.3774796
15	0xbf0ddee4	-0.5541823
16	0xbfaf285b	-1.368419
17	0x3f0a24d6	0.5396246
18	0x3fde7c12	1.7381613
19	0x3efd6f84	0.49499142
20	0xbf8dbd5c	-1.1073413
21	0x3ee22d26	0.4417507
22	0xbfa099f6	-1.2546985
23	0x3c91025b	0.017701318
24	0x3f563862	0.83679783
25	0x3e774a48	0.2414943
26	0xbf77d30c	-0.96806407
27	0x3edd360a	0.4320529
28	0xbf23ec68	-0.640326
29	0xbeadd2f6	-0.33950013
30	0xbf9069f9	-1.128234
31	0x3ecee418	0.40408397
32	0x3fbf5bd5	1.49499
33	0xbf0ead07	-0.5573277
34	0x3f72108c	0.945565
35	0xbf076180	-0.5288315
36	0xbd46898d	-0.048471022
37	0x3f43fd46	0.7655834
38	0xbb2dbb4d	-0.0026509345
39	0x3f2b68d5	0.66956836
40	0xbf61fd60	-0.88277245
41	0x3eba2460	0.36355877
42	0x3fc562c0	1.5420761
43	0xbf0f7e9a	-0.56052554
44	0x3f14c253	0.58109015
45	0x3cafa2c9	0.021439927
46	0xbd93dcda	-0.072198585
47	0x3f445187	0.766869
48	0x3fbc8f62	1.4731257
49	0xbf28cd07	-0.65937847
50	0x3fa42324	1.2823224
51	0xbf2fe03f	-0.6870155
52	0xbfb143f5	-1.3848864
53	0x3ed493cc	0.4151901
54	0xbf52035a	-0.82036364
55	0x3da43c50	0.08019316
56	0x3f9fe5bf	1.2491988
57	0xbf30cdd6	-0.6906408
58	0x3ead08c3	0.33795747
59	0xbee2a35e	-0.44265264
60	0xbf42330d	-0.7585915
61	0xbe5e5fc5	-0.2171622
62	0x3fc417c1	1.5319749
63	0xbf32bbaf	-0.6981763
64	0x3fa507b8	1.289298
65	0xbf0ab6cc	-0.54185176
66	0x3fefb82f	1.8728083
67	0xbe001e2c	-0.1251151
68	0xbec9a1f9	-0.39381388
69	0x3f1d7e42	0.6152078
70	0x3faf5a1c	1.3699374
71	0xbeff73d1	-0.49893048
72	0x3fa25a25	1.268376
73	0x3f19667a	0.5992199
74	0x3fa6a3f9	1.301879
75	0xbf240fc3	-0.6408655
76	0xbf81cf4c	-1.0141387
77	0xbeb25189	-0.3482783
78	0xbf6219e4	-0.88320756
79	0x3e2ddeb3	0.16979484
80	0x3f8e7558	1.112956
81	0xbf1b7fdd	-0.6074198
82	0x404f8995	3.2427723
83	0x3ee6fc2b	0.45114264
84	0xbf6d9ca9	-0.9281717
85	0x3ed2bd49	0.41160038
86	0xbf7bdfc0	-0.9838829
87	0x3ede777f	0.43450543
88	0x3f029f04	0.5102389
89	0x3d5a53b7	0.053302493
90	0xbf91882c	-1.1369681
91	0x3eddbbaa	0.4330724
92	0x3fb4cc6c	1.4124885
93	0xbf2a46cd	-0.66514283
94	0x3fa34209	1.2754527
95	0xbf17f823	-0.59363
96	0xbf4f5c8d	-0.81000596
97	0xbdfe5ef2	-0.12420453
98	0xbf2a4a5a	-0.665197
99	0x3f13747f	0.57599634
100	0xbf10bfd9	-0.56542736
101	0xbf9276dc	-1.1442523
102	0x3f626289	0.884316
103	0x3f02cfbd	0.51098233
104	0x3e35efb9	0.17767228
105	0xbe9c4ec6	-0.3052885
106	0x3f92de4a	1.1474087
107	0x3ee31288	0.44350076
108	0x3f2b6380	0.669487
109	0xbe551a21	-0.20810749
110	0x3f995914	1.198031
111	0xbf40c03d	-0.7529333
112	0x40952a2c	4.661398
113	0x3fcf587d	1.619888
114	0xbf2d05bc	-0.67586875
115	0x3f08b053	0.5339405
116	0x3fb32dbe	1.3998334
117	0xbf224b71	-0.63396364
118	0xbf6e8b56	-0.9318136
119	0x3ebacafb	0.36482987
120	0x3f2df2c1	0.6794854
121	0xbeb3273d	-0.34990874
122	0x3f0e43cb	0.55572194
123	0x3df2a9cf	0.11848795
124	0x3fb0ead3	1.3821663
125	0xbf0fb2ed	-0.56132394
126	0xbf149e2c	-0.5805385
127	0xbeaf9c14	-0.34298766

model.0.bias f4 [64]
0	0xbf308956	-0.6895956
1	0x40c00d5a	6.00163
2	0xbdba97a7	-0.09110957
3	0x40bf62ce	5.980811
4	0x4040023a	3.000136
5	0x40cdad45	6.427401
6	0x3fa41eca	1.2821896
7	0x40a64261	5.195603
8	0xc0916949	-4.544102
9	0x3e6c256a	0.23061147
10	0xc0523632	-3.2845578
11	0xbfb0a878	-1.3801413
12	0x3ffc3d76	1.9706256
13	0xc03776ef	-2.8666341
14	0x40b1998b	5.549993
15	0xc046648b	-3.0998867
16	0x40afa08f	5.4883494
17	0x406d3d01	3.7068484
18	0xbff06118	-1.8779631
19	0xbfb85c31	-1.4403135
20	0xc00b824b	-2.1798275
21	0x40b225c6	5.567111
22	0x405f2dc5	3.4871686
23	0xc0055198	-2.083105
24	0x40c835bb	6.256559
25	0x40bd35c5	5.9128137
26	0xc075340a	-3.8313012
27	0x40ad5a04	5.417238
28	0x40bb38ef	5.8507
29	0x40bec302	5.9613047
30	0x40c2fcc1	6.0933537
31	0x40d4d695	6.651194
32	0x409d89c4	4.923067
33	0x40437d45	3.0545208
34	0xc0133dd8	-2.3006496
35	0x40965fe9	4.699208
36	0x4022a847	2.5415208
37	0x40b72f9e	5.7245626
38	0x3f2fb464	0.6863463
39	0x4030fa2b	2.765269
40	0x409ac86c	4.8369656
41	0x4004fcf5	2.0779393
42	0xc027664a	-2.6156182
43	0xc03a8acb	-2.9147213
44	0x40383ebd	2.8788292
45	0xc053c365	-3.308801
46	0x40c4d032	6.1504145
47	0x40a87d42	5.2652903
48	0x40be9925	5.9561944
49	0xc0378324	-2.8673792
50	0x4021d8da	2.5288606
51	0x4010b7ce	2.2612185
52	0x409e8e3c	4.9548626
53	0x4022ff74	2.5468416
54	0x40a50690	5.157051
55	0x40c2a61b	6.0827765
56	0xbfe8145d	-1.8131214
57	0xc02988e4	-2.6489801
58	0x40bd265c	5.9109325
59	0xc0152825	-2.3305752
60	0x40bf6cb0	5.9820175
61	0x40200d10	2.5007973
62	0x40a9b603	5.303468
63	0x4101dc85	8.116338

model.2.weight f4 [64, 64]
0	0x3eb2e1f1	0.34938005
1	0x3f3ec301	0.745163
2	0xbe3fc7d9	-0.1872858
3	0x3f3007df	0.6876201
4	0x3e7b3e91	0.24535586
5	0x3f24959d	0.6429079
6	0xbb333a7b	-0.002734809
7	0x3f049f92	0.51805985
8	0x3f17d2d5	0.5930608
9	0xbe865b23	-0.26241407
10	0x3f946b0a	1.1595166
11	0xbe3f82cc	-0.18702239
12	0xbeca94e5	-0.39566723
13	0x3f0cd3d4	0.55010724
14	0xbf2af025	-0.6677268
15	0x3f8137fe	1.0095212
16	0x3f3606c6	0.71104085
17	0x3e99d60c	0.30046117
18	0x3d2ab657	0.0416778
19	0x3e12499a	0.1428589
20	0x3f2c3b2f	0.67277807
21	0x3ece34a4	0.40274537
22	0xbe7ccfe7	-0.24688683
23	0x3ea58d22	0.32334238
24	0x3f3777b0	0.71667004
25	0x3f5ac5a8	0.8545785
26	0x3f7fc492	0.9990932
27	0xbe9472ce	-0.2899384
28	0x3f30f981	0.6913071
29	0xbee88130	-0.45411062
30	0xbeb8bcd6	-0.3608157
31	0x3f0a593a	0.540424
32	0x3db53678	0.0884828
33	0x3edaa424	0.42703354
34	0x3f190ecc	0.59788203
35	0x3ef50eae	0.47862762
36	0xbe88c306	-0.2671129
37	0x3f116b85	0.56804687
38	0xbe66c288	-0.22535145
39	0xbd5041ec	-0.050844118
40	0x3f1c529c	0.6106355
41	0xbe58fbec	-0.2118985
42	0x3f599355	0.84990436
43	0x3ed6264c	0.41826093
44	0xbee77a2d	-0.452104
45	0x3f75d1f2	0.96023476
46	0x3f2940f6	0.6611475
47	0x3f3633a3	0.7117254
48	0xbecb3af4	-0.39693415
49	0x3f7026c1	0.93809134
50	0x3e90c030	0.28271627
51	0xbef4e2b8	-0.47829223
52	0xbe8b6379	-0.2722433
53	0x3d6675f5	0.056264836
54	0xbe448bae	-0.19193909
55	0x3f28f61e	0.66000545
56	0x39c77fe6	0.0003805153
57	0x3f5fe5c7	0.8745999
58	0x3e99ef07	0.30065176
59	0x3f04e804	0.5191653
60	0x3dab5197	0.083651714
61	0xbf064d14	-0.5246136
62	0x3f07411c	0.52833724
63	0xbd8aa539	-0.06769795
64	0xbe144390	-0.14478898
65	0xbf4aa91f	-0.7916431
66	0x3dc6e660	0.09711909
67	0xbf7a2a2c	-0.977206
68	0x3e1167e0	0.14199781
69	0xbd540472	-0.051762052
70	0x3e800c61	0.25009444
71	0xbfd80e6e	-1.6879404
72	0xc0463073	-3.096707
73	0x3f8e3e2c	1.1112723
74	0xc0273741	-2.6127474
75	0xbd41ac6a	-0.047283567
76	0x3ec51cd6	0.38498563
77	0xc0069ab0	-2.1031914
78	0x3f29265f	0.66074175
79	0xbfb5e735	-1.4211184
80	0xc04ad17a	-3.1690354
81	0xc002cf9a	-2.043921
82	0xbe4f96b2	-0.2027233
83	0xbe9295f9	-0.28630045
84	0xbf464f80	-0.7746506
85	0xc025a51c	-2.5882025
86	0x3ec48545	0.38382927
87	0xbe8a8c71	-0.27060273
88	0xbe81fcf7	-0.2538831
89	0xbf4baebf	-0.79563516
90	0xc035b091	-2.8389018
91	0x3ea2b0e7	0.3177559
92	0xbf622ad1	-0.8834658
93	0x3f071edf	0.5278148
94	0x3f039a79	0.5140758
95	0xbd3f1994	-0.046655253
96	0xbf649cd4	-0.893018
97	0xbf3b4f77	-0.7316813
98	0xbf37d2ec	-0.71806216
99	0xbfc780ae	-1.5586145
100	0x3d842e50	0.06454146
101	0xbf0848bb	-0.5323598
102	0x3e35989c	0.17733997
103	0x3db012e4	0.08597353
104	0xc0b4da94	-5.651682
105	0xbfd21a45	-1.6414267
106	0xbf6eb56b	-0.9324557
107	0xc007e47d	-2.1233208
108	0x3ebfb36f	0.37441584
109	0xc0273517	-2.6126153
110	0xbeca0ecb	-0.3946441
111	0xc08f0e83	-4.4705215
112	0x3eb6c566	0.35697478
113	0xbfed5f57	-1.854472
114	0xbf6fb7f4	-0.93640065
115	0x3e19b10d	0.15008946
116	0x3efac823	0.48980817
117	0x3eaafd58	0.3339641
118	0x3ed17c7d	0.4091529
119	0xbed3d3c2	-0.41372496
120	0xbf308c0e	-0.68963706
121	0xbfc82708	-1.5636911
122	0xbf4c3146	-0.79762685
123	0xbef0852a	-0.46976596
124	0x3ec552e8	0.38539815
125	0x3e7ed21f	0.24884842
126	0xc0976eb8	-4.7322655
127	0x3e8f5f5c	0.2800244
128	0x3dbddab2	0.092702284
129	0xbe8c5c4a	-0.2741416
130	0xbeb3ceb0	-0.35118628
131	0xbe9e4bd6	-0.30917233
132	0x3ea931a7	0.33045694
133	0xbbab1e07	-0.0052220854
134	0x3ed9b5ec	0.42521608
135	0xbe2dad0f	-0.16960548
136	0xbffcdbf4	-1.9754624
137	0x3e078b66	0.1323677
138	0xbfdb6c00	-1.7142334
139	0xbf847c7c	-1.035049
140	0x3e9f8cde	0.3116216
141	0xbfdfbb42	-1.7479022
142	0x3f66a501	0.90095526
143	0xbfced754	-1.6159463
144	0x3e24780c	0.16061419
145	0x3ea71848	0.32635713
146	0xbd2dbe6c	-0.04241793
147	0x3da90d25	0.0825446
148	0xbf21c041	-0.6318398
149	0x3d755dfa	0.059904076
150	0x3ea94851	0.33062986
151	0x3d9219e2	0.07133843
152	0xbe28b1db	-0.16474096
153	0x3d99038b	0.07471379
154	0xc006a2e5	-2.1036923
155	0x3f06ef42	0.5270883
156	0xbe97451b	-0.2954491
157	0x3f1931a9	0.598414
158	0x3f951437	1.1646794
159	0xbe1071b1	-0.1410587
160	0xbe3c64d1	-0.18397833
161	0xbe3d0177	-0.1845759
162	0xbead9e3e	-0.33909792
163	0xbde8f8bc	-0.11375567
164	0x3e426d2c	0.18986958
165	0x3e1a3425	0.15058954
166	0x3ae76b95	0.0017655963
167	0x3f05c9d2	0.5226108
168	0x3d819c03	0.06328585
169	0x3e3e23da	0.18568364
170	0xbf8057bf	-1.0026778
171	0xbfd87b9a	-1.691272
172	0x3e3e4b7b	0.18583481
173	0xbffa0bdb	-1.9534868
174	0xbe219e7a	-0.1578311
175	0x3d82257a	0.06354804
176	0x3f07fff4	0.5312493
177	0xbf55bff4	-0.8349602
178	0xc01f82d4	-2.49236
179	0x3e8842ed	0.2661356
180	0x3f1163de	0.5679301
181	0x3e6e4b3a	0.23270884
182	0x3eb01f46	0.3439886
183	0xbe97e52d	-0.29667035
184	0x3db7c01e	0.0897219
185	0xbf66369e	-0.8992709
186	0xbdf5ce6d	-0.12002263
187	0xbf1eb3af	-0.61992925
188	0x3e52f4f5	0.20601256
189	0x3e917a66	0.28413695
190	0x3e2d2684	0.16909224
191	0x3eb23611	0.34806874
192	0xbe9a869b	-0.3018082
193	0xc050b073	-3.2607696
194	0x3e7372c9	0.23774256
195	0xc03de0f7	-2.9668558
196	0x3e8ea24f	0.27858207
197	0xc05c7c5c	-3.4450903
198	0x3ddcb420	0.107765436
199	0xc02e17c8	-2.7202015
200	0xc01fa794	-2.4946032
201	0x3ec5403b	0.38525566
202	0xc010aead	-2.2606614
203	0xbfc351c0	-1.5259323
204	0x3ec96341	0.39333537
205	0xbfe325eb	-1.7745947
206	0x3f6d804a	0.9277388
207	0xc005181d	-2.0795968
208	0xc06454b8	-3.5676708
209	0xbfd1db86	-1.6395118
210	0xbebed549	-0.372721
211	0xbec726bc	-0.3889674
212	0xbf94f15a	-1.1636155
213	0xc07ee1e2	-3.9825368
214	0x3f2cc9d5	0.6749547
215	0xbeec1d2a	-0.46116
216	0xc05560c3	-3.3340309
217	0xc02ae829	-2.67042
218	0xc031285f	-2.768089
219	0x3eea8f99	0.4581268
220	0xc022fdaa	-2.5467324
221	0x3f999121	1.1997415
222	0x3f263b58	0.649343
223	0xc06ec635	-3.7308476
224	0xc0029c30	-2.040783
225	0xc024a35f	-2.5724714
226	0xbf23aa7d	-0.6393202
227	0xc008bc2d	-2.1364853
228	0x3e0c48f6	0.13699707
229	0xc04c6539	-3.1936781
230	0x3db684cb	0.08912047
231	0x3ea654ab	0.32486472
232	0xc0096fd2	-2.14745
233	0xbf942f41	-1.1576921
234	0xbfd32d2b	-1.6498159
235	0xbfdbbb78	-1.7166586
236	0x3f1fc9a9	0.62417084
237	0xc019a92e	-2.400951
238	0xc02e5444	-2.7238932
239	0xc02cb8b0	-2.6987724
240	0x3ed7edb2	0.42173535
241	0xbfb267ff	-1.3937987
242	0xc11c659c	-9.774807
243	0x3e15fb6b	0.1464669
244	0x3f640582	0.89070904
245	0x3e53c258	0.20679605
246	0x3f3c6cdb	0.736036
247	0xc043c395	-3.0588124
248	0x3ea4d52d	0.3219389
249	0xbfa2aac0	-1.2708359
250	0xc03d8635	-2.9613163
251	0xbf811a54	-1.008616
252	0x3f350ef2	0.7072593
253	0x3f02dd87	0.51119274
254	0xc0388c4b	-2.8835628
255	0x3efda695	0.49541155

model.2.bias f4 [64]
0	0xbf16c169	-0.5888887
1	0x3ea6d979	0.32587793
2	0x3f1784f6	0.5918726
3	0x3f7f8d21	0.9982472
4	0xbf8a805f	-1.0820426
5	0x3f924eaa	1.1430256
6	0x3f976b8d	1.1829697
7	0x3f8df04e	1.108896
8	0x3ef7bf6e	0.48388237
9	0x3eb560bf	0.35425374
10	0xbe85dac6	-0.26143473
11	0x3e15d2ae	0.14631149
12	0x3f823385	1.0171973
13	0x3eb2bf75	0.34911695
14	0x3f99d310	1.2017536
15	0x3f578869	0.8419252
16	0x3fa3e7a1	1.2805063
17	0x3f0cbdef	0.54977316
18	0x3efa69c2	0.48908812
19	0xbf19f896	-0.6014494
20	0x3f3c5e87	0.7358174
21	0xbefee212	-0.49781853
22	0x3f9ed15e	1.2407644
23	0x3f107141	0.5642281
24	0x3f940005	1.1562506
25	0x3f62d22a	0.88601935
26	0x3eda2b25	0.42611042
27	0x3f073a57	0.52823395
28	0x3f83d420	1.029911
29	0x3f18b0fa	0.59645045
30	0x3f92dc9c	1.1473575
31	0x3f7beb54	0.9840596
32	0x3f457b5f	0.77141374
33	0x3f750663	0.9571287
34	0xbf9b77ad	-1.2145897
35	0x3f8fbe07	1.1229867
36	0x3f6767b3	0.9039261
37	0x3eb902e6	0.36135024
38	0x3e484f1e	0.19561431
39	0x3f7e55c2	0.99349606
40	0x3f745d7b	0.9545514
41	0x3ec46a54	0.38362372
42	0x3f13276d	0.57482034
43	0xbd77d7c5	-0.06050851
44	0x3f53ad3d	0.82686216
45	0x3efa9022	0.4893809
46	0x3f0a3330	0.53984356
47	0xbd26d1cf	-0.040727433
48	0x3f5b5fe4	0.8569319
49	0x3e874a18	0.26423717
50	0x3f3264cd	0.6968506
51	0x3f802397	1.0010861
52	0x3e3a55fd	0.18196864
53	0xbeb7b7be	-0.35882372
54	0x3da94fac	0.08267149
55	0xbf2f024e	-0.6836289
56	0x3f342ab8	0.70377684
57	0x3f7ba681	0.9830094
58	0x3f018279	0.5058971
59	0x3e632915	0.2218364
60	0x3f74a13d	0.9555853
61	0x3ec0ef22	0.37682444
62	0x3f2d0326	0.6758293
63	0x3d0034cf	0.031300362

model.4.weight f4 [1, 64]
0	0xbf009b8b	-0.5023734
1	0xc0a1282f	-5.036155
2	0x3f1c9ac3	0.6117365
3	0x40841f8f	4.1288524
4	0x3faf77cf	1.3708438
5	0xc0c71ff5	-6.222651
6	0x408e6fcc	4.451147
7	0xc0d81ca6	-6.753497
8	0x3f924c99	1.1429626
9	0x3f18bb54	0.5966084
10	0xc0e7b94b	-7.241369
11	0xc006ce1f	-2.1063306
12	0xc028249c	-2.6272345
13	0x3f619a31	0.881259
14	0x408fba3b	4.491483
15	0x408079b1	4.014855
16	0x40909da3	4.519243
17	0x3f35d0f3	0.71021956
18	0x3f4782ea	0.77934134
19	0x3f1a0749	0.60167366
20	0x40139604	2.3060312
21	0xbdcc92be	-0.09988926
22	0x40a3a3e2	5.113755
23	0xbf072028	-0.5278344
24	0x4098cad0	4.7747574
25	0x404fd5d4	3.247426
26	0xc02db9a9	-2.7144568
27	0x3f411ac3	0.7543146
28	0xc0e745d9	-7.2272763
29	0xc01d092b	-2.4536846
30	0x40973b7c	4.7260113
31	0xc0c60529	-6.18813
32	0x406def57	3.7177331
33	0xc0c8d77f	-6.2763057
34	0xbff8542a	-1.9400685
35	0xc0e9016e	-7.2814245
36	0xc06e70ef	-3.725643
37	0x3e9408db	0.28913006
38	0x3f24968b	0.6429221
39	0x4056cf8e	3.3564181
40	0x40498eb2	3.1493344
41	0x3f28ff2b	0.66014355
42	0x3f2a23a3	0.6646063
43	0xc18c6baa	-17.55257
44	0x407e5116	3.973699
45	0xbf30edad	-0.69112664
46	0x4001e4c5	2.029588
47	0xbdd15904	-0.102220565
48	0x40aba594	5.363962
49	0x3ed575d3	0.41691455
50	0x3fbc4ed9	1.4711562
51	0xc0a60e8c	-5.1892757
52	0xc183050a	-16.37746
53	0xc19d7cbb	-19.685904
54	0x3f24a263	0.6431028
55	0x403a5774	2.9115877
56	0xc100f14c	-8.05891
57	0xc0e6eb0f	-7.2161937
58	0x3fb6950a	1.4264233
59	0x3e88cca1	0.2671862
60	0xc0d161ad	-6.5431733
61	0xc12957a9	-10.583901
62	0xbf24b99e	-0.6434573
63	0x3eed2196	0.46314687
