app/models/disc_K3_deg1_-7_3.pth (torch, 20460 bytes, 5 tensors)

model.0.weight f4 [64, 2]
000000 36 c5 37 3f 34 62 43 3c f8 5a 8f be 4e 43 d2 be
       0.71785295 0.011925269 -0.2799909 -0.41066974
000010 ce 70 d9 3e 6a 0a 4f bf 1c 6a 76 bf d8 5c 02 3f
       0.42468876 -0.80875266 -0.9625566 0.5092292
000020 84 ba 7d bf f0 d2 4e 3e 83 d2 07 3f 8e a0 0d bf
       -0.99112725 0.20197654 0.5305559 -0.5532311
000030 2f 44 77 3f a6 cf e1 be 4c 9d 68 3f 6d d4 bd 3d
       0.96588415 -0.44103736 0.90865016 0.092690326
000040 55 c0 a3 3e 72 89 04 bf 9e 8f 81 3f cb ea 93 be
       0.31982675 -0.51772225 1.0121953 -0.2889007
000050 d9 20 52 bf a1 18 f2 3e f2 ca 92 be e2 b2 10 3f
       -0.8208137 0.47284415 -0.2867046 0.56522954
000060 22 c3 eb be 2a 0f f0 3e 2d 9f 86 3d 6d b6 3f bf
       -0.46047312 0.4688657 0.06573329 -0.74887735
000070 93 dc 71 3f a1 8f 68 be be 11 9c 3d f0 d2 98 bf
       0.94477195 -0.2271104 0.076205716 -1.1939373
000080 3e 2b a4 3f e2 05 cf be 98 20 bd bd 7a 7a 01 3f
       1.2825696 -0.40434176 -0.092347324 0.5057751
000090 5a 07 87 be 8c 14 b8 bf 5a 0f 7b 3f f0 55 bb be
       -0.26372796 -1.438127 0.980703 -0.36589003
0000a0 2b 8c 00 3f ba f7 a8 3e d6 0e f4 3e 90 c4 28 bf
       0.5021388 0.330015 0.4766757 -0.6592493
0000b0 27 71 66 3f b7 3a 19 bf 64 65 ec 3e a5 b8 ac 3e
       0.90016407 -0.59855217 0.46171105 0.33734623
0000c0 8f 15 ba 3e 1a 1b 50 3e a1 11 a9 be 91 a9 d7 3e
       0.36344573 0.20322838 -0.33021262 0.42121556
0000d0 4c fa 77 be 58 2d 44 3f a1 e0 c9 3e 47 dc 9c 3e
       -0.24216574 0.7663169 0.3942919 0.30636808
0000e0 cc c9 a9 3f 7e 3c e7 be 39 43 00 3f 17 ca 51 3e
       1.3264709 -0.4516334 0.50102574 0.20487247
0000f0 32 4a 0f 3f 8a f7 98 be 5c 78 18 bf ab 2e a8 3e
       0.5597259 -0.29876357 -0.59558654 0.32848105
000100 20 43 2b 3f bf 9e d7 3e 49 1e 83 3f ff 12 fc be
       0.668993 0.421133 1.0243617 -0.49233243
000110 8b 72 75 bf 62 1d 25 3d a0 8f 92 3f e9 ee 2f be
       -0.95877904 0.040311225 1.1450081 -0.1718098
000120 84 de 22 bf 3b ab 81 bd 4f 85 06 bf bb 35 ce 3e
       -0.6362078 -0.06331488 -0.5254716 0.40275368
000130 b2 9f 11 3f de 9c b3 bd 38 bd d6 3d ea 9b 6a bf
       0.568843 -0.087701544 0.10485309 -0.91644156
000140 20 65 5c 3f 0a 64 86 3e 3d 38 75 3f f6 0e 94 be
       0.86091805 0.262482 0.9578894 -0.28917664
000150 a6 30 96 be 5c e8 a1 bf e0 6c 3f bf a0 39 ac 3e
       -0.2933399 -1.2649035 -0.74775505 0.33637714
000160 60 2d 43 3f dd 21 2f bf d8 02 5d bf 82 87 19 3e
       0.7624111 -0.68411046 -0.86332464 0.14993098
000170 56 90 56 3f 52 75 cf be 6d 9d b1 3d 64 4e 07 bf
       0.8381399 -0.40519196 0.08672605 -0.5285399
000180 0a 18 9f bf 7c b7 0f 3e 60 34 11 bf 71 26 0e 3f
       -1.2429211 0.14034837 -0.5672054 0.55527407
000190 85 36 94 3f b0 d3 96 be 60 78 a6 bf c8 a1 9f be
       1.1579138 -0.2945838 -1.3005486 -0.31178117
0001a0 51 ea 7e 3f d0 91 07 be 16 e1 42 bf 8b fc 16 3f
       0.9957629 -0.13239217 -0.76124704 0.589791
0001b0 de a9 19 bf 98 ac b0 3e a0 bb a5 be 4a 91 f5 3d
       -0.6002482 0.3450668 -0.3236971 0.11990602
0001c0 36 6d 49 bf ae e8 e6 3e b7 50 63 bf 8f de 3e 3f
       -0.7868227 0.45099396 -0.88795036 0.7455835
0001d0 9b ea 53 3f e0 55 05 bf fa 6d 9c 3e 9a f8 aa bf
       0.82779855 -0.5208416 0.30552655 -1.3357117
0001e0 fc ea 31 3f 77 36 f5 be 40 1e d4 3f 6b 5b 65 be
       0.6949918 -0.47893116 1.6571732 -0.22398154
0001f0 2e 13 ae 3f e3 38 0d be 72 84 9e 3f d6 ed 12 bf
       1.3599603 -0.13791232 1.2384169 -0.5739416

model.0.bias f4 [64]
000000 c8 af 2a bd d9 eb 8a bf 60 0c fe 3f c0 79 00 c0
       -0.041671544 -1.0853225 1.9847527 -2.007431
000010 87 7f 5e bf b1 f1 c6 bd 05 a8 58 3f d3 34 ac 3f
       -0.8691334 -0.09714068 0.8463138 1.3453621
000020 ac 5c 42 3c 85 4a 14 3f 22 94 dd bf 73 82 a9 bf
       0.011862915 0.5792621 -1.7310832 -1.3242935
000030 5a 09 82 bf f2 8c 66 3e 4f 1d bb 3e c3 a3 9f 3f
       -1.0159104 0.22514704 0.36545798 1.2471851
000040 79 af d7 3f d1 24 98 bf f4 ee 2d 3f 37 ca 47 3f
       1.6850425 -1.1886235 0.6794274 0.7804293
000050 9d e0 24 3f 85 c0 c6 3f 5c f6 ee 3f 32 b1 c0 bd
       0.6440523 1.5527502 1.8668933 -0.09408797
000060 c2 00 75 3f 4f b0 95 3d 13 83 28 3f 14 c6 f6 be
       0.9570428 0.07309019 0.65825003 -0.48197997
000070 f5 4f 02 40 34 41 d3 3f cd 67 83 3d 3b c5 68 bf
       2.0361302 1.6504273 0.06416283 -0.9092595
000080 ba 3c b5 be b2 4b f8 3f 1c 00 e5 be ab 30 26 3f
       -0.35397893 1.93981 -0.44726646 0.6491801
000090 05 83 b6 be 56 17 85 bf f3 8c a2 3f a5 ea d9 3f
       -0.35646835 -1.0397747 1.2699264 1.7024733
0000a0 3f 42 c4 3e fa 83 91 3f f1 7f 9e 3f de fe 8b bf
       0.38331792 1.1368401 1.2382795 -1.0937154
0000b0 42 d8 0f 40 76 2e 0c bf 8b d2 11 3f 60 48 ba be
       2.2475743 -0.54758394 0.5696189 -0.36383343
0000c0 e9 ff 90 bf 71 0d e2 bf fe bf 82 3f b3 2b 19 bf
       -1.1328098 -1.7660352 1.0214841 -0.59832305
0000d0 83 ca ef 3d 5d 4b 01 c0 d6 11 ab bf 90 76 93 3f
       0.11708548 -2.0202248 -1.3364818 1.1520557
0000e0 74 10 d2 bf 9e 36 a1 3f 99 65 91 3f f4 78 92 be
       -1.6411271 1.2594793 1.135913 -0.28607905
0000f0 57 e1 ab 3f 26 a9 bf 3f 50 94 e5 3e a7 f4 1c 40
       1.3428143 1.4973495 0.44839716 2.4524324

model.2.weight f4 [64, 64]
000000 7d 8d d2 bd b2 bd 11 bf 12 fd cf 39 16 72 13 bf
       -0.10280893 -0.5693008 0.0003967067 -0.57595956
000010 ed 7a 2d be 00 4b 0e bf 2f 86 52 bc cb a6 47 3e
       -0.16941424 -0.5558319 -0.012849375 0.1949722
000020 8f c1 06 bf 9c 4e 49 3d 84 4e 00 bd 2e 38 50 bc
       -0.52639097 0.049147233 -0.03132488 -0.012708707
000030 59 4f a3 3c 32 07 89 be e2 ff 5e be f9 70 dc be
       0.019935297 -0.26763302 -0.21777299 -0.4305494
000040 79 06 82 3c 8d 16 a9 be 45 aa 76 3e 54 97 04 be
       0.015872227 -0.33025017 0.2408839 -0.12948352
000050 a8 59 31 3e 27 d3 81 be 8c d5 5d be 51 44 b9 3d
       0.17319357 -0.2535641 -0.21663493 0.090462334
000060 51 9d 2a 3e c8 4e 06 3e bf 62 3c 3e 0f 54 f4 3d
       0.16661574 0.1311599 0.18397044 0.119300954
000070 f7 94 a5 3d 9e 2f 95 3e 3f df 7c be b9 c1 7b be
       0.080850534 0.29137892 -0.24694537 -0.24585618
000080 d6 6e 05 3d 95 76 42 bd 6a c6 9e bd 81 dd 19 bd
       0.032576405 -0.04747637 -0.07752688 -0.03756476
000090 3e 00 60 bd 84 c7 9a ba 1f c1 f5 3d ec b1 06 be
       -0.05468773 -0.0011808728 0.119997256 -0.1315381
0000a0 74 f0 25 3e 80 ec 1d be 5b d5 0f 3f 94 36 24 be
       0.16205007 -0.15422249 0.5618493 -0.16036445
0000b0 90 eb 09 3d 20 38 23 3d ed ac d6 bd 26 ce fc be
       0.033671916 0.039848447 -0.10482202 -0.4937603
0000c0 1d 90 72 be 1a f9 05 bf cb 20 06 bd 08 a1 f9 be
       -0.23687787 -0.52333224 -0.032746118 -0.4875567
0000d0 0e 7d 75 be bc 81 04 be 12 a1 20 bf 75 df e6 3e
       -0.23973486 -0.12940115 -0.62745774 0.4509236
0000e0 d3 65 11 bf 2a 21 26 3e d2 8f 7f be 12 ba 59 bd
       -0.56795996 0.16223589 -0.24957207 -0.053155966
0000f0 ff f2 3d bd 7b 4f 54 bd 7b 04 6d bd 05 19 8b bd
       -0.046374317 -0.05183361 -0.0578656 -0.067918815
000100 54 17 17 3c ae 3f 14 bf d1 af 72 bf a3 5c c5 bf
       0.00922187 -0.5790967 -0.94799525 -1.5418895
000110 a4 ad cd be c8 9d 2f bf 6f 0b 06 bf 86 a9 44 3e
       -0.4017154 -0.6860013 -0.52361196 0.19205293
000120 bd 81 6a bf 81 19 b8 be a8 04 2a bf 37 ed a5 be
       -0.91604215 -0.35956958 -0.66413355 -0.32407543
000130 41 ab d1 be 13 b0 82 bf 6e 9c 69 be ce dd 42 bf
       -0.4095097 -1.0209984 -0.2281358 -0.761197
000140 3c 13 c8 be 1c 95 af be ec 90 74 bf 7e 54 b3 be
       -0.39077175 -0.3429345 -0.95533633 -0.350254
000150 b6 5c 3a 3e e0 20 90 bf 18 ea 1f bf ca 6e dd bc
       0.18199429 -1.1260033 -0.62466574 -0.027030367
000160 7e 04 9c 3d 61 ba a2 bc 81 21 69 3e b3 de fa 3d
       0.07618044 -0.019864263 0.22766687 0.12249508
000170 dc 44 a3 be 5f 21 59 3e 64 dc c0 be 5f 01 65 bf
       -0.31888473 0.21204136 -0.37668145 -0.8945522
000180 b0 0e 82 bc 9c 22 ef be 99 ae cf 3a c4 9f 06 be
       -0.015876144 -0.46706092 0.0015844881 -0.13146883
000190 87 e7 90 bd 2c bd 33 bf bf ac bd 3c 41 4e 60 bf
       -0.0707541 -0.7021053 0.02315366 -0.87619406
0001a0 84 b5 58 3d c1 54 97 bd 27 53 68 bf 37 68 3c bf
       0.05290748 -0.073892124 -0.9075188 -0.7359652
0001b0 83 cf 63 bf fa cf 7e be d9 24 d0 be e0 cc 61 bf
       -0.8898851 -0.24884024 -0.40653113 -0.8820324
0001c0 29 d0 05 bf 39 d9 b6 bf fa bd 58 be 52 3b ce bd
       -0.5227075 -1.4285041 -0.2116622 -0.10069908
0001d0 28 5a 7b be 91 0d 8f bf 45 d2 bb bf 25 42 cf 3e
       -0.2454611 -1.1176015 -1.4673544 0.40480152
0001e0 29 21 c6 bf 3c e3 94 3e 4d 60 6e bf d9 a7 99 bd
       -1.547887 0.29079616 -0.93115693 -0.075027175
0001f0 e8 df 2f bf c3 ac c6 be d5 2a 5f be 01 42 09 bf
       -0.6870103 -0.38803682 -0.21793683 -0.5361634
000200 04 49 0b be c4 6d f4 3d 75 80 f9 be 94 c0 71 be
       -0.13602072 0.11934999 -0.48730817 -0.23608619
000210 96 65 8b bd 3f ae 21 3d ea c2 c2 be f6 73 1b 3c
       -0.06806485 0.039472815 -0.38039333 0.009488096
000220 5b 99 c4 bd cb a5 48 bd 6e 4c ad bd 92 dd 3f 3e
       -0.09599563 -0.048986237 -0.084618434 0.18736866
000230 45 c9 19 be 36 21 bf 3c 79 66 85 be c8 fa d2 3c
       -0.15018184 0.023331266 -0.26054743 0.025754347
000240 e4 b3 46 be 8a 94 52 3e 7a d3 4a bc c7 da 2f be
       -0.1940456 0.20564476 -0.0123795215 -0.171733
000250 55 3e eb 3d 77 34 ea be 90 6e ad be e0 ac bf 3d
       0.11486498 -0.45743152 -0.33873415 0.09359145
000260 74 f2 fa 3c e0 cd 31 be e0 e6 8d bb 50 3b 3f 3e
       0.030633189 -0.17363691 -0.004330501 0.1867497
000270 82 e2 c7 be 26 11 c3 3d 88 d9 69 be 80 b0 3d bd
       -0.3904 0.09524755 -0.22836888 -0.0463109
000280 ae bb 51 3e 5c f2 97 be a5 f8 84 be bd f5 c9 bd
       0.2048175 -0.29677093 -0.2597095 -0.09861324
000290 64 68 32 be c1 91 6c bd 3a e8 5d bd 4f 84 6c be
       -0.17422634 -0.05775619 -0.054176547 -0.23097347
0002a0 86 7e d2 3d a8 29 1f be 57 eb c0 3d 18 22 03 be
       0.10278039 -0.15543234 0.094198875 -0.12805974
0002b0 39 15 09 bf ac a0 87 be bd 4b ab be e4 37 1c be
       -0.5354801 -0.2648977 -0.3345622 -0.15255696
0002c0 76 e7 cc be 29 3e 94 be 1f fc b2 bd 86 60 90 be
       -0.4002034 -0.28953674 -0.087394945 -0.28198642
0002d0 64 d0 47 bc 76 40 0a bd 26 ce bb be 25 6b 47 be
       -0.01219568 -0.03375288 -0.36680716 -0.19474466
0002e0 14 25 58 be ec 51 a2 bd 4e 9b b6 be 15 c8 e0 bd
       -0.21107894 -0.079257816 -0.35665363 -0.109756626
0002f0 a2 f0 fa bd 76 d5 10 be 99 5d 7b bd 1d 1d b0 be
       -0.12252928 -0.14143929 -0.06136856 -0.34397212
000300 6c 1d 38 be f7 d8 8a 3c 9f 85 b3 be 40 b7 13 be
       -0.17979974 0.01694916 -0.35062882 -0.14425373
000310 d1 bc 3e bd 0d aa 53 3e 8f 21 9a 3d 89 d3 86 bd
       -0.046566788 0.20670338 0.07525932 -0.06583316
000320 ba 79 1b be f7 14 84 be f5 4c 65 bc e8 b0 bf bd
       -0.15183154 -0.25797245 -0.013995399 -0.09359914
000330 c4 05 04 be 46 31 9a bd 04 a4 93 bc aa 82 13 3e
       -0.12892824 -0.075289294 -0.018022545 0.14405313
000340 cf 2b 9d be 29 22 22 bc a6 94 86 be 46 0c b4 3d
       -0.30697486 -0.00989584 -0.26285285 0.087914035
000350 7f e1 2d be d8 d0 36 be 16 1d fe bd bf ff 0a be
       -0.16980551 -0.17853105 -0.124078915 -0.13574122
000360 10 5c 25 3a 2e 1a 85 bc 6f 9a d4 bd 7d 80 41 bd
       0.0006307969 -0.016247835 -0.10381018 -0.047241677
000370 13 36 9f be eb 17 20 be 81 66 ce 3d 24 41 76 be
       -0.31095943 -0.15634124 0.10078145 -0.24048287
000380 e7 da 67 3d 26 3d 9c be cb 0f a6 be 98 de 19 be
       0.056605246 -0.30515403 -0.32433924 -0.15026319
000390 66 02 33 be 27 c3 4e be 02 3b 57 be 3d ed 93 be
       -0.17481384 -0.20191632 -0.21018603 -0.28891936
0003a0 39 f8 f7 bc 58 2c 64 be 2d 5e 82 be ee e0 35 bd
       -0.030269729 -0.22282541 -0.25462475 -0.044403963
0003b0 ca d2 98 be 02 0b 04 be 08 a4 2f bd 07 76 02 be
       -0.2984832 -0.12894824 -0.04288104 -0.12740336
0003c0 ef 0d a6 be b0 cf 09 bc 85 27 83 bd 6b c0 a7 bd
       -0.32432505 -0.008411333 -0.06404022 -0.08190998
0003d0 ed 9e 01 be fe 7f 39 be e5 f9 3f be 43 5d de bd
       -0.12658282 -0.18115231 -0.18747671 -0.10857632
0003e0 a8 d3 52 bd 8f 12 b4 bd 7d 04 c1 3d d8 70 cf 3d
       -0.051471382 -0.08792602 0.09424684 0.10128945
0003f0 60 a7 d6 bd 43 46 8b be 94 bf 7a be c4 cb ab be
       -0.10481143 -0.27202043 -0.24487144 -0.33553898

model.2.bias f4 [64]
000000 fc 08 f8 3e ad bd f5 3e 2d 84 db bd ab 57 d5 bd
       0.48444355 0.47996274 -0.1071857 -0.10417112
000010 14 61 25 be c4 68 10 be a1 1a ce 3d 6c b8 72 be
       -0.16150314 -0.14102465 0.10063673 -0.23703164
000020 29 01 82 bd 0e 8f cb 3e 9a 8b 0a 3f 43 9c 9c 3e
       -0.063478775 0.3975758 0.54119265 0.30587968
000030 fa 91 7e 3e 1e 8b f8 bd d9 8c 36 be 2c de 4e 3e
       0.24860373 -0.121359095 -0.17827167 0.2020194
000040 a5 2a 20 bd 2d a4 cb 3e 54 01 ea 3e 16 b2 d4 3e
       -0.03910317 0.39773694 0.45704138 0.4154212
000050 d1 b2 19 3f c8 e2 2b be 2f a4 25 3e 88 61 e3 be
       0.6003848 -0.16785729 0.16175912 -0.44410348
000060 23 3c 07 3e 3e f2 09 3c 59 5e 62 be 68 a7 a1 be
       0.13206534 0.008419571 -0.22106303 -0.31573033
000070 58 bf 8a 3e 64 6e 5f be 01 44 23 be 70 58 07 be
       0.2709911 -0.21819454 -0.1594391 -0.1321733
000080 ca 4c 40 3c a9 66 4b be b2 b1 85 be 1d fa 33 be
       0.011737058 -0.1986338 -0.26112133 -0.1757588
000090 61 ec c2 bd 9b 64 11 bd d6 64 b1 3e a1 2b b3 be
       -0.09517742 -0.035496335 0.34647244 -0.34994224
0000a0 27 ea 56 3d 5a fe 36 be 6d 1e d2 3e a5 c4 32 3f
       0.0524694 -0.17870465 0.41038838 0.69831306
0000b0 86 68 ba 3e d7 d8 ca 3e 2f 6b fb 3e 98 d6 2a bd
       0.3640787 0.3961856 0.49105212 -0.04170856
0000c0 6c 8e d0 3e 28 bd 96 3e d6 72 f7 3e 9e 85 ed be
       0.4073366 0.2944119 0.483298 -0.46391004
0000d0 14 e2 12 3f 35 b3 78 3e 6b 84 0b 3c 02 9d 2b 3f
       0.5737622 0.24287112 0.008515458 0.6703645
0000e0 25 0f 8c 3e da f4 0a be be 7e 1a be 47 f7 87 3e
       0.27355304 -0.13569966 -0.15087411 0.26555845
0000f0 f2 39 24 3e d5 ee 1b 3e 59 3f c9 3e 06 d3 04 be
       0.1603773 0.15227826 0.39306143 -0.12971124

model.4.weight f4 [1, 64]
000000 95 c6 83 3e a2 d9 7b bf 9f 09 6c be 1a 7b dd be
       0.25737444 -0.98378956 -0.23050545 -0.43257982
000010 d3 4e f4 bd 15 6c 22 bd 8a 39 ff bd b5 4a 24 be
       -0.11929097 -0.039653856 -0.124621466 -0.16044123
000020 ec 38 b3 3e a2 60 ba 3e b7 65 7e 3f a8 ff 5c 3e
       0.35004365 0.3640185 0.99373955 0.215819
000030 20 d3 21 bf 1d f3 16 3d bf 03 14 be f5 d2 2d be
       -0.63212776 0.036852945 -0.14454554 -0.16975005
000040 61 aa 2b be cc ce 0c 3f b9 dc 4e 3e d7 b9 24 bf
       -0.16764213 0.55003047 0.20201387 -0.6434607
000050 8e b3 ef 3e 85 e5 b0 be 02 db 09 3e dc ed 71 bf
       0.46816677 -0.3455011 0.13462451 -0.9450357
000060 d7 32 33 3d d4 f9 0b be cf 31 29 bd db f6 cd be
       0.043749657 -0.1366952 -0.041307267 -0.40227398
000070 b5 09 88 bf c4 71 cd bc 2c b1 44 be fe c0 84 be
       -1.0627962 -0.025078662 -0.1920821 -0.2592849
000080 93 6a 25 3e 45 48 8d bf 1b 08 53 be 43 34 1d be
       0.16153936 -1.103768 -0.2060856 -0.15351968
000090 e6 76 78 be d1 6e 65 3e bc e8 a2 3e 1b 96 11 bf
       -0.24264106 0.22405554 0.31818187 -0.5686967
0000a0 72 e9 3d be c0 84 2c be 48 71 5b 3e 25 b4 77 3f
       -0.18546084 -0.16847515 0.21429932 0.96759254
0000b0 cf b5 45 3f d9 77 59 bf 1f df 9c 3e c3 43 8a be
       0.7723054 -0.849485 0.30638978 -0.27004823
0000c0 69 5d 05 bf 25 e7 74 3e 87 9e 24 3f 72 07 c4 bf
       -0.5209566 0.239163 0.64304394 -1.5314772
0000d0 20 83 72 3f 78 61 3c 3e 59 6c c0 be 15 e8 86 3f
       0.9473133 0.18396556 -0.37582663 1.0539576
0000e0 17 31 10 3e 3b 4d 21 3e cf dd f9 3d 5c 84 94 bf
       0.14081226 0.15752117 0.1220051 -1.1602893
0000f0 8e 7d 12 3e 12 82 93 bf 29 a9 90 bf 42 c2 9f 3e
       0.14305708 -1.1524069 -1.1301624 0.31202894
