app/models/disc_K3_deg1_-14_-2.pth (torch, 20480 bytes, 5 tensors)

model.0.weight f4 [64, 2]
0	0x3f8b51a2	1.0884287
1	0xbf3178bb	-0.69324845
2	0x3f9c8f30	1.2231197
3	0xbed7dc15	-0.42160097
4	0xbf3d2b78	-0.73894453
5	0x3eedccbb	0.4644526
6	0x3f9a55c8	1.2057428
7	0xbed9b0ff	-0.4251785
8	0xbe90487f	-0.2818031
9	0x3f36313e	0.7116889
10	0xbf47a5a9	-0.7798715
11	0x3ebfaf7a	0.37438565
12	0x3edacf63	0.42736349
13	0xbe636bd8	-0.22209108
14	0x3f93e043	1.1552814
15	0xbec92b86	-0.39291018
16	0x3f7f4bce	0.99725044
17	0xbf0ce654	-0.5503895
18	0x3f8ffa90	1.1248341
19	0xbf2acce9	-0.6671892
20	0xbf37953f	-0.71712106
21	0xbe2855a1	-0.16438915
22	0x3f8256a7	1.0182694
23	0xbef193f5	-0.47183195
24	0xbf049dc5	-0.5180324
25	0x3ea8dbd7	0.32980224
26	0x3fbae2ea	1.4600499
27	0xbf089871	-0.5335761
28	0xbf654f1e	-0.8957385
29	0x3e99f723	0.30071363
30	0xbf8bfcae	-1.0936487
31	0x3ee8b7ec	0.4545282
32	0xbf390796	-0.722772
33	0xbe1522b3	-0.14564018
34	0xbf59f238	-0.8513522
35	0x3ec14488	0.37747598
36	0x3f777cbc	0.96674705
37	0xbef93ec9	-0.48680714
38	0x3f9c9e00	1.2235718
39	0xbf06329a	-0.5242096
40	0x3faef2f5	1.3667895
41	0xbecc9cfe	-0.39963526
42	0xbf62d110	-0.88600254
43	0x3ebd86a5	0.37016788
44	0xbf79142f	-0.9729642
45	0x3e984f3f	0.2974796
46	0x3f91d58b	1.1393293
47	0xbe949fed	-0.29028264
48	0x3f87666d	1.0578133
49	0xbecf8136	-0.40528268
50	0x3f7420ea	0.9536272
51	0xbf1ae7b4	-0.605098
52	0xbebada6e	-0.36494774
53	0xbe29573b	-0.16537182
54	0x3f959df3	1.1688827
55	0xbe2c1255	-0.16803868
56	0xbf4efd51	-0.8085528
57	0xbe3be89f	-0.18350457
58	0xbf9ca76b	-1.2238592
59	0x3ec60c19	0.38681105
60	0x3f3ee63d	0.74570066
61	0x3e128e01	0.14311983
62	0xbf47a229	-0.7798181
63	0xbe95051d	-0.29105464
64	0xbf6bc5b9	-0.92098576
65	0x3ec57d0e	0.38571972
66	0xbf80dadd	-1.0066792
67	0x3e31a0c1	0.17346479
68	0x401f8d90	2.4930153
69	0x3e9e3a5f	0.3090391
70	0xbe0ce3f3	-0.1375883
71	0x3dfeee2c	0.124477714
72	0xbfce82c5	-1.6133658
73	0xbf94f9d6	-1.1638744
74	0xbf0d74df	-0.55256456
75	0x3f10b7fe	0.5653075
76	0x3fee703a	1.8627999
77	0x3ef139e7	0.47114488
78	0xbf3be054	-0.7338917
79	0x3ef3c4cb	0.4761108
80	0xbf3fe7ee	-0.7496327
81	0xbe812587	-0.25223944
82	0x3fb4b556	1.4117839
83	0xbf5e17ac	-0.8675487
84	0xbf69a5be	-0.9126853
85	0x3e0da11b	0.13830988
86	0x3fa00c5e	1.2503774
87	0xbefb8d99	-0.49131468
88	0x3f93f206	1.1558235
89	0x3d46946b	0.048481386
90	0xbf2c81ed	-0.6738575
91	0xbf732400	-0.94976807
92	0x3f96cb5f	1.1780814
93	0xbf14fd89	-0.58199364
94	0x3fdcf5e5	1.7262541
95	0x3e7f6017	0.24938999
96	0x3f3eb8e9	0.745009
97	0xbf30e62b	-0.6910121
98	0x3f989d0f	1.192293
99	0xbef176bf	-0.4716091
100	0x3ffeeab8	1.991538
101	0x3f031236	0.5119966
102	0x3e363219	0.17792548
103	0xbcbaa08a	-0.02278163
104	0xbfacfccb	-1.3514646
105	0x3efef3fb	0.49795517
106	0x3e7d67d2	0.24746636
107	0x3f23b81e	0.63952816
108	0xbf5da5d5	-0.86581165
109	0x3eddc402	0.43313605
110	0x3f99bd32	1.2010863
111	0xbf26c0bd	-0.65137845
112	0x3fb732c2	1.4312365
113	0x3edef33d	0.4354495
114	0xbf5e5856	-0.8685354
115	0x3ec6c82b	0.3882459
116	0x3fba64ae	1.4561975
117	0xbf03b8a5	-0.5145362
118	0x3f92e2e7	1.1475495
119	0xbf1384c3	-0.57624453
120	0x3fbf3723	1.4938701
121	0xbf470278	-0.7773814
122	0xbf583e24	-0.8446982
123	0x3ed1690b	0.40900454
124	0x3f8c230d	1.0948197
125	0xbf1e6b2a	-0.6188227
126	0x400d947b	2.2121875
127	0x3f031f63	0.5121977

model.0.bias f4 [64]
0	0x40b028e8	5.5049934
1	0x408a1c8e	4.3159857
2	0xc01c3dea	-2.441279
3	0x40845b3f	4.1361384
4	0xc013241c	-2.299079
5	0xc0009a4a	-2.009417
6	0x409d5419	4.916516
7	0x407be1de	3.9356608
8	0x408ee388	4.465275
9	0x40afaa75	5.4895577
10	0x4081416e	4.039237
11	0x4082dd89	4.089543
12	0x3f8576a8	1.0426836
13	0x40ae59be	5.448455
14	0xbff15cb3	-1.8856415
15	0xc059b6f1	-3.4017909
16	0x40812596	4.035838
17	0xc00f9daf	-2.2439992
18	0x4081a3d9	4.051251
19	0x409c72bf	4.889007
20	0x408a3068	4.318409
21	0xc011952f	-2.2747304
22	0xc002e813	-2.0454147
23	0x403af970	2.9214745
24	0x40712055	3.7675984
25	0x40960a77	4.6887774
26	0x40eba6e1	7.364121
27	0x40cd237a	6.4105806
28	0x4028f1fa	2.639769
29	0xc0571188	-3.360445
30	0x40fde5f7	7.934322
31	0x3fb3ac0c	1.403688
32	0xc01ed823	-2.481942
33	0xbfaf2963	-1.3684505
34	0x3fad8ee9	1.3559238
35	0x40cb81d1	6.3595967
36	0xbe51ae35	-0.20476611
37	0xc01c7a3a	-2.44496
38	0x3e8975d0	0.26847696
39	0xc01edc91	-2.4822123
40	0x3f2a001b	0.6640641
41	0x41316855	11.087972
42	0xbf64a771	-0.89317995
43	0x4096ef51	4.7167134
44	0x40b12fd3	5.537088
45	0x4137faaa	11.498697
46	0x40a4ba39	5.1477323
47	0x40e22f55	7.068278
48	0x40880d54	4.251627
49	0x407dcd5e	3.9656596
50	0x3e9905a0	0.29887104
51	0x40ec5f1a	7.386609
52	0xc08d74cc	-4.4205074
53	0xbf31d81c	-0.6947038
54	0xc025dc7b	-2.591582
55	0x40b49b57	5.6439624
56	0x4031ebf5	2.7800267
57	0xc0175f65	-2.3651974
58	0x41163169	9.387063
59	0x40a11d00	5.03479
60	0x412c77a6	10.779211
61	0xc01bfde6	-2.4373717
62	0x40a51066	5.158252
63	0x3e8f208c	0.2795452

model.2.weight f4 [64, 64]
0	0xbf63f3ae	-0.890437
1	0xbe3905f3	-0.18068676
2	0x3e37613b	0.17908184
3	0xbece1332	-0.4024902
4	0x3e403665	0.1877075
5	0x3e0284de	0.12745997
6	0x3e34bb4c	0.17649573
7	0xbe4e7e32	-0.20165327
8	0xbdd249f1	-0.102680095
9	0xbef287cd	-0.47369233
10	0x3d3e2188	0.046418697
11	0xbe362436	-0.17787251
12	0x3c0b7e3f	0.008513986
13	0xbf939b03	-1.1531681
14	0x3d8629a0	0.06550908
15	0xbe326885	-0.17422684
16	0x3e1b87c0	0.15188503
17	0xbd2a9ebb	-0.041655283
18	0x3d4ead98	0.05045852
19	0xbe73b03d	-0.23797698
20	0xbf462ac0	-0.7740898
21	0x3d30b1b7	0.043138232
22	0x3e41d4c9	0.18928827
23	0xbf25d0a7	-0.64771503
24	0x3cd09bf1	0.025464984
25	0x3e097577	0.13423716
26	0x3d1e53d0	0.03865415
27	0x3d56a3b8	0.052402228
28	0xbc9eb29f	-0.019372283
29	0xbe33caab	-0.1755778
30	0x3e073387	0.1320325
31	0xbe717d02	-0.23582843
32	0xbd802ff9	-0.0625915
33	0x3ba14e09	0.0049226326
34	0xbeb672e3	-0.35634527
35	0x3e3d3bfe	0.18479916
36	0x3d7216e7	0.059103873
37	0x3e1cadc9	0.15300669
38	0x3e15ecc0	0.14641094
39	0x3de183cd	0.11011467
40	0x3d8a4440	0.06751299
41	0x3e5b7bec	0.21433991
42	0x3da51aa2	0.080617204
43	0xbf3fad17	-0.7487349
44	0xbd903eee	-0.07043253
45	0x3e86bdf6	0.26316804
46	0xbef5d1fa	-0.48011762
47	0xbde0473f	-0.10951089
48	0xbfe42d3b	-1.7826303
49	0xbf040912	-0.5157634
50	0x3e38f77a	0.18063155
51	0x3dbbaa75	0.091633715
52	0xbe536a84	-0.20646101
53	0x3ad4a4f2	0.0016223474
54	0xbe5314b1	-0.20613362
55	0xbe1bfe34	-0.1523369
56	0x3e057cd1	0.13035895
57	0xbe19307b	-0.149599
58	0x3c31da33	0.010855245
59	0xbec49b65	-0.38399807
60	0x3e2cb985	0.16867645
61	0x3dbf6496	0.09345357
62	0xbe92ea2c	-0.28694284
63	0x3e21ccd7	0.15800796
64	0xc02ffc21	-2.7497637
65	0xc003ca12	-2.0592084
66	0xbfcaad4c	-1.5834136
67	0xbfed108a	-1.8520672
68	0xbf0356c1	-0.5130425
69	0xbfa34029	-1.2753955
70	0x3f6a9f8c	0.916497
71	0xbfedb152	-1.8569739
72	0xc019dc0c	-2.4040556
73	0xc0438779	-3.0551436
74	0x3f600f58	0.8752341
75	0xc0113681	-2.2689517
76	0x3d11874a	0.035529412
77	0xc0946bb1	-4.638146
78	0xbfb8320b	-1.4390272
79	0xc01a4c69	-2.4109137
80	0x3f1ef842	0.6209756
81	0xbfe95093	-1.8227714
82	0xc0121b8e	-2.2829318
83	0xbfd187c6	-1.636956
84	0xc06cafe6	-3.698236
85	0xbf8e52ac	-1.111898
86	0xbf886f34	-1.0658937
87	0xc01ecbc6	-2.4811873
88	0xbfee9f92	-1.8642447
89	0xc04b14e8	-3.173151
90	0x3eb7c8be	0.35895342
91	0x3f41abaf	0.75652593
92	0x3f425d25	0.7592338
93	0xc01f7183	-2.4913032
94	0x3e560324	0.20899636
95	0x3f3e8ba0	0.744318
96	0xbffaa80b	-1.9582533
97	0xbf5e1047	-0.8674359
98	0xbf18c453	-0.59674567
99	0x3e74a890	0.23892426
100	0xc080b74a	-4.022374
101	0xbf9d8354	-1.2305703
102	0x3e315eea	0.17321363
103	0xbfc59209	-1.5435191
104	0xbb343d7c	-0.0027502468
105	0x3f24cfbb	0.6437947
106	0xbedb817b	-0.42872223
107	0xc05e93b1	-3.4777644
108	0x3ef9f983	0.48823175
109	0x3f38d449	0.7219892
110	0xc061ea2c	-3.5299177
111	0x3ea8abef	0.32943675
112	0xc0336f68	-2.8036747
113	0xc00d5a70	-2.2086449
114	0x3e5d1529	0.21590103
115	0x3eb9df26	0.3630306
116	0xc03ff63e	-2.9994044
117	0xbea53410	-0.32266283
118	0xc004e9ca	-2.0767694
119	0xc0543940	-3.3159943
120	0x3ebbd7a9	0.36687973
121	0xc0078f32	-2.118115
122	0x3f2749fd	0.6534727
123	0xc05e7b3b	-3.4762714
124	0x3f8cdeef	1.1005534
125	0xc00393de	-2.0559
126	0xc050e94e	-3.2642398
127	0x3df94d3a	0.12172933
128	0xc097ee1c	-4.747816
129	0xc0a0b95d	-5.0226274
130	0xbf38dd75	-0.72212917
131	0xc063fa28	-3.5621433
132	0xbecfe225	-0.40602222
133	0xbf2aaf38	-0.6667361
134	0xbdb5de7a	-0.08880325
135	0xc0998a95	-4.7981668
136	0xc0a08c16	-5.0171003
137	0xc0a88adf	-5.266952
138	0xbe18b666	-0.1491333
139	0xc0b4972b	-5.643453
140	0xbdb9a102	-0.09063913
141	0xc0ae7ae9	-5.4525037
142	0xbef51d37	-0.47873852
143	0xbf9adef2	-1.2099288
144	0xbd446c2d	-0.047954727
145	0xbf2c1746	-0.6722301
146	0xc0b3bc90	-5.616768
147	0xc0584290	-3.3790627
148	0xc09317e5	-4.596667
149	0xbf066507	-0.52497905
150	0xbf173b0c	-0.59074473
151	0xc0388a1f	-2.8834302
152	0xc09a6db1	-4.82589
153	0xc0cfec05	-6.497561
154	0xbe00bfa6	-0.12573108
155	0xbeb0f62f	-0.34562823
156	0xbdce3b38	-0.10069889
157	0xbfb1d787	-1.3893899
158	0x3d2ebc13	0.04265983
159	0x3d9b100a	0.075714186
160	0xbf2f8392	-0.68560135
161	0xbec9c66a	-0.3940919
162	0xbff7bd3c	-1.9354625
163	0x3d2c5206	0.04207041
164	0xbf61b806	-0.8817142
165	0xbf1cb5ec	-0.6121509
166	0x3ead1d4f	0.33811423
167	0xbf37e6fc	-0.7183683
168	0x3f42f1de	0.7615031
169	0x3e98a066	0.29809874
170	0xbe752bf3	-0.23942547
171	0xc0a76a73	-5.2317443
172	0x3c34749d	0.011014131
173	0xbd292487	-0.0412946
174	0xc0c43108	-6.1309853
175	0x3d83f3d0	0.06442988
176	0xc05c9b7c	-3.44699
177	0xbfc56b81	-1.5423433
178	0x3eeaf2a6	0.4588825
179	0xbd94217f	-0.072329514
180	0xc006d6ee	-2.1068683
181	0xbe8c2c69	-0.27377632
182	0xbf2962b4	-0.66166234
183	0xc0afeea0	-5.497879
184	0xbea8afbf	-0.32946584
185	0xbf5bf2ef	-0.8591756
186	0x3e086388	0.13319218
187	0xc0c88978	-6.266781
188	0x3e84a83a	0.25909597
189	0xbf51ec57	-0.8200125
190	0xc0bf9497	-5.9868884
191	0x3f12eeaa	0.5739542
192	0xc0230e7a	-2.5477586
193	0xbfedfaa2	-1.8592112
194	0xbfd6dac6	-1.6785514
195	0xbfda9aff	-1.7078551
196	0xbf28c147	-0.6591992
197	0xbfb831c0	-1.4390182
198	0x3f8e90d5	1.1137949
199	0xbfd63a5d	-1.6736561
200	0xc003e4a2	-2.0608296
201	0xc0381edf	-2.8768842
202	0x3f83281b	1.0246614
203	0xbfee3813	-1.8610862
204	0x3db58c07	0.08864599
205	0xc0a81570	-5.252617
206	0xbfaf4873	-1.3693985
207	0xc012ef49	-2.2958548
208	0x3f340975	0.7032693
209	0xc002ca46	-2.0435958
210	0xbfeb0588	-1.8361063
211	0xbfa9efde	-1.3276327
212	0xc074a394	-3.822484
213	0xbf9db9b9	-1.2322303
214	0xbf79a78d	-0.9752129
215	0xc018917f	-2.3838804
216	0xbfbc1eb9	-1.4696876
217	0xc02c8c4d	-2.6960633
218	0x3e80275a	0.25030023
219	0x3f393c25	0.723574
220	0x3f296bf2	0.66180336
221	0xc00f092b	-2.2349346
222	0x3e665e95	0.22497018
223	0x3f63417a	0.88771784
224	0xc0051e99	-2.0799925
225	0xbf7488b9	-0.9552112
226	0xbf3b0ad4	-0.730634
227	0x3eb154e4	0.3463508
228	0xc02e2431	-2.720959
229	0xbf8e3dde	-1.111263
230	0xbd07d193	-0.03315885
231	0xbfdcc029	-1.7246143
232	0x3cd21870	0.025646418
233	0x3f018869	0.5059877
234	0xbf1bc8a6	-0.6085304
235	0xc066759a	-3.6009278
236	0x3f00584a	0.5013472
237	0x3f33492a	0.70033514
238	0xc0550eb0	-3.3290215
239	0x3eb71f31	0.35765985
240	0xc01b2ca7	-2.4246004
241	0xc00a4844	-2.1606607
242	0x3d48065c	0.04883419
243	0x3ebbf50f	0.36710402
244	0xc03950f1	-2.8955653
245	0xbe411ae2	-0.18857911
246	0xbff83148	-1.939004
247	0xc02ab413	-2.6672409
248	0x3e9d1e2e	0.30687088
249	0xc00637af	-2.0971487
250	0x3f314b25	0.69255286
251	0xc058f108	-3.3897114
252	0x3f9afa57	1.2107648
253	0xc002dda6	-2.0447783
254	0xc03b62c2	-2.9279027
255	0xbdc1e12c	-0.09466776

model.2.bias f4 [64]
0	0x3e086f22	0.13323644
1	0x3f5b1e68	0.8559327
2	0xbd334e74	-0.04377599
3	0x3f68291a	0.90687716
4	0x3f54f7f2	0.83190835
5	0x3ec6a2c6	0.3879606
6	0x3e916781	0.2839928
7	0x3f9c5f42	1.221657
8	0x3f6ffe67	0.9374756
9	0x3f6b667b	0.9195325
10	0x3f59ce7d	0.850807
11	0x3f2b034b	0.668019
12	0x3f3aa1a1	0.72902876
13	0xbe4c75b4	-0.19966775
14	0x3dc34b81	0.095358856
15	0x3f2cc641	0.6749001
16	0x3d656395	0.056003172
17	0x3f527780	0.8221359
18	0x3f300254	0.6875355
19	0x3ef99d76	0.48752946
20	0x3daf0bc4	0.08547166
21	0x3ec451cd	0.3834366
22	0xbe8c4947	-0.27399656
23	0x3d554c8c	0.052074954
24	0x3f231ff2	0.6372062
25	0xbe9b35be	-0.3031444
26	0x3f2aea52	0.66763794
27	0x3e30bf7d	0.17260547
28	0xbee083d1	-0.43850568
29	0xbeb5bc0d	-0.35495034
30	0x3fa613fb	1.2974848
31	0x3f7198b4	0.9437363
32	0xbeb80bc3	-0.35946473
33	0x3f2e3ef8	0.6806483
34	0x3f7c8c1d	0.98651296
35	0x3f8295be	1.0201948
36	0x3e417ce1	0.18895294
37	0xbcc7d241	-0.024392249
38	0x3f78ecfc	0.9723661
39	0x3f8e38ac	1.1111045
40	0x3ef41a2f	0.47676226
41	0xbea752a6	-0.32680243
42	0x3e1c51e3	0.15265612
43	0x3e10006e	0.14062664
44	0xbf721bdd	-0.94573766
45	0x3f84c767	1.0373353
46	0x3f99a9bd	1.2004925
47	0x3e2a40d2	0.1662629
48	0x3f1f8f06	0.6232761
49	0x3d96e853	0.07368531
50	0x3f8860de	1.0654562
51	0x3f557ed1	0.8339663
52	0xbf08639c	-0.5327699
53	0x3f8bf3d8	1.093379
54	0x3ebe4e73	0.37169227
55	0x3f09f4dc	0.5388925
56	0x3f354874	0.7081368
57	0x3f6833f9	0.90704304
58	0x3dfca254	0.12335649
59	0x3f5cd86f	0.8626775
60	0x3f70f983	0.94130725
61	0x3f5965b2	0.849208
62	0x3e2c2df4	0.16814405
63	0x3f6006e3	0.8751051

model.4.weight f4 [1, 64]
0	0x3e0b3ceb	0.13597457
1	0xc07a7b38	-3.9137707
2	0xc1885af0	-17.044403
3	0xc067c431	-3.6213496
4	0xc085bc85	-4.1792626
5	0xbf252a1d	-0.64517385
6	0x3fbaf9ab	1.4607443
7	0x40a4fc15	5.1557717
8	0x3ffcabb5	1.9739901
9	0xbff052cf	-1.8775271
10	0xc044dfb6	-3.0761542
11	0xc08e461e	-4.446059
12	0xc0741736	-3.8139167
13	0xc18396d1	-16.44864
14	0x3ed7c751	0.42144254
15	0xc082416b	-4.0704856
16	0x3e86d163	0.26331624
17	0xc037a412	-2.869389
18	0x3fd345bd	1.6505657
19	0xbf816ec1	-1.0111924
20	0xc007d404	-2.1223154
21	0x401530c4	2.3311014
22	0xc1843fc4	-16.531136
23	0xc12ec947	-10.92414
24	0x3f873244	1.0562215
25	0xc1354c00	-11.331055
26	0x3fac5d90	1.3466053
27	0x3eb19b66	0.34688872
28	0xc171eaeb	-15.119853
29	0x3fe9cfcd	1.8266541
30	0x408f266e	4.473441
31	0x400d1998	2.204687
32	0xbe4ba216	-0.1988605
33	0xc06cb378	-3.698454
34	0xc0875e97	-4.2302966
35	0x40649e73	3.572171
36	0x3ddb8e4a	0.10720499
37	0xbef467d8	-0.47735476
38	0xc071674c	-3.7719297
39	0x4050253a	3.2522721
40	0xc0a56caf	-5.169517
41	0xbe507f91	-0.20361163
42	0x3ebb0f82	0.3653527
43	0xc0baf933	-5.84292
44	0xbfe918e9	-1.8210727
45	0xbfefb8ea	-1.8728306
46	0x408355f2	4.1042414
47	0xc0117736	-2.272901
48	0xc0960fbd	-4.689421
49	0x3eaa2943	0.33234605
50	0x406bda51	3.6852
51	0xbfee2e9b	-1.8607973
52	0x3f97f7b2	1.1872466
53	0x406a3206	3.6593032
54	0xbff7c8e0	-1.9358177
55	0x3f8c2468	1.094861
56	0xbfc0b836	-1.5056217
57	0xbffaffe9	-1.9609348
58	0xc0c2c766	-6.0868406
59	0x4042873a	3.0395036
60	0x406ddc18	3.7165585
61	0x3f9681ee	1.1758401
62	0x3e6cef8a	0.23138252
63	0x3fae3bf1	1.3612043
