app/models/disc_K3_deg1_-2_-13.pth (torch, 20480 bytes, 5 tensors)

model.0.weight f4 [64, 2]
000000 08 2a d2 bf 46 fa da 3e 0f 72 f2 3e a1 92 fc be
       -1.6419077 0.42769068 0.47352645 -0.4933062
000010 5c 8b 97 bf d3 21 f9 3e b6 b0 83 bf 3a 47 2f 3f
       -1.1839404 0.48658618 -1.0288303 0.6846806
000020 2a 43 ae be d6 4f 23 3f 1e 15 25 3f f2 be 22 bf
       -0.34035617 0.63793695 0.6448535 -0.6357261
000030 00 47 f2 3e 85 e9 a6 be e4 e6 23 bf 70 92 53 3f
       0.47319794 -0.32600036 -0.64024186 0.8264532
000040 5b 25 ad 3e 58 9b 66 3e 08 49 99 bf e0 61 8d 3f
       0.33817562 0.22520196 -1.1975412 1.1045494
000050 f6 93 33 bf 6d e8 68 3f 43 9c 93 3f 52 94 59 bf
       -0.70147645 0.90979654 1.1532062 -0.84991944
000060 0b 51 a8 3f 70 d5 29 bf 94 c5 a4 be fe fc 00 3f
       1.3149732 -0.66341305 -0.3218199 0.50386035
000070 82 73 b7 be ce 04 d5 3e b7 c2 82 3e 82 f2 0b 3f
       -0.35830313 0.41605228 0.2553918 0.5466691
000080 8d 64 00 c0 37 bb ae 3f 3c b0 b1 bf 04 f8 38 c0
       -2.0061371 1.3650883 -1.3881907 -2.8901377
000090 3d 01 d9 be 90 af 3f 3f 9f 7e c9 bd 12 6b f0 bd
       -0.42383757 0.7487726 -0.09838604 -0.11739172
0000a0 55 f6 49 3f 47 c0 3b 3e 94 63 17 3f d1 0b 84 be
       0.788915 0.18335067 0.5913632 -0.25790265
0000b0 15 56 bc 3f 80 5a 99 bf cb 9a 81 bf 7e 35 33 3f
       1.471377 -1.1980743 -1.0125364 0.700035
0000c0 43 73 a8 be 8b 36 1a 3f 38 77 4a 3f 80 32 2d 3e
       -0.32900438 0.60239476 0.79088163 0.16913795
0000d0 b4 b6 02 3f 4c 3d 01 3f 2b 79 9d bf 9d 8d 6c bf
       0.5106003 0.50484157 -1.2302603 -0.92403585
0000e0 41 f0 22 3f df 9b b0 be 17 b0 b7 be 82 6c 30 c0
       0.6364785 -0.3449392 -0.35876533 -2.7566228
0000f0 3f ce 0d bf ae f5 3f c0 39 18 63 3f b3 20 bd bf
       -0.5539283 -2.99937 0.88708836 -1.4775604
000100 e4 99 d1 bd b1 41 58 3d 6a 71 1d c0 17 f7 81 3f
       -0.102344304 0.052797023 -2.4600472 1.0153531
000110 78 8b 0e 3f 7f ad 0b bf b4 a2 78 3b 00 29 02 3f
       0.5568156 -0.5456161 0.0037938775 0.5084381
000120 03 cf b3 bf 1f bc 82 c1 04 87 7d bf ae 38 a7 c0
       -1.404755 -16.341856 -0.9903414 -5.225669
000130 90 f2 16 3f 0b 50 e7 be 1b 61 4f 3f b4 27 57 3d
       0.5896387 -0.45178255 0.81007546 0.0525281
000140 41 f0 37 be be e1 e5 3e d3 79 42 3f c1 48 b3 3c
       -0.17962743 0.4489879 0.7596714 0.021885278
000150 47 a8 0f 3f 95 8b f4 3e be 0b 85 3f 13 31 38 bf
       0.56116146 0.47762743 1.0394208 -0.7194988
000160 96 07 b9 be 1d b3 20 3f 9b d5 cf 3e b9 9e a1 3e
       -0.361386 0.62773305 0.40592656 0.31566408
000170 38 7d 95 be bb 31 33 c1 2e 3e bc 3e 48 47 a8 3e
       -0.29197097 -11.199641 0.3676619 0.32866883
000180 39 ea cc 3e a0 59 9e be e0 ae 12 3f 12 40 f2 be
       0.40022448 -0.30927753 0.5729809 -0.47314507
000190 37 cf 0d be 46 0a b9 be cc 6f 39 3f 5f bd 1a bf
       -0.13848577 -0.3614065 0.72436213 -0.6044521
0001a0 63 da b5 be 34 27 70 3d 83 dd 0b bf 52 e0 65 3f
       -0.35518178 0.058631137 -0.54634875 0.8979541
0001b0 70 8c 42 bf 4a 44 1d 3f 77 42 74 bf 49 d7 9e bd
       -0.7599554 0.61432326 -0.9541392 -0.07755906
0001c0 69 9b a1 3f 6f 51 7e c0 78 6a d4 3e a8 a4 df bf
       1.2625552 -3.9737203 0.4148748 -1.7472124
0001d0 24 1f 63 3f 65 9f b7 bf 67 ac 42 bf 88 19 6d 3f
       0.8871939 -1.4345518 -0.76044315 0.9261708
0001e0 d2 e9 85 3f ed f9 ec 3d 28 9a ff be ad 54 32 3f
       1.0461981 0.11571107 -0.499223 0.69660455
0001f0 25 b8 2c 3f 9f 62 29 bd 5f af 6b bf 9f c4 63 3f
       0.6746848 -0.041353818 -0.9206447 0.88971895

model.0.bias f4 [64]
000000 fc ab 89 c0 36 28 be 3e 55 89 6b bf 72 65 12 c0
       -4.302244 0.37140054 -0.9200643 -2.2874417
000010 cf f9 9d 3e 1e ee 29 3f 34 08 98 be 17 a7 9c bf
       0.3085465 0.66378963 -0.29693758 -1.2238492
000020 69 ab 66 bf 1c b6 58 c0 4d d2 ad bf fd 31 03 40
       -0.901053 -3.386115 -1.3579804 2.049926
000030 a5 44 68 40 24 da a5 3e 0b 31 83 bf 28 bc b2 be
       3.6291897 0.3239299 -1.0249342 -0.34909177
000040 e3 ce ca c0 e2 1b e4 3f 75 22 e0 be c0 fd af 3f
       -6.3377547 1.7821009 -0.4377629 1.3749313
000050 2d ef 8f 3f df 56 c5 bd e6 01 81 40 56 c3 fd bf
       1.1244866 -0.0963571 4.0314817 -1.9825237
000060 59 9f 10 3f 2d 91 2d 3f 48 1c 34 3e 5b 36 f3 3d
       0.56493145 0.67799646 0.17588913 0.11875602
000070 f8 2a 0d 3f 61 df 00 40 ab 62 e3 3f b3 10 89 40
       0.5514369 2.013634 1.7764486 4.2832885
000080 c9 3e 31 3f 0a 35 00 c1 05 b8 07 3f 1e e7 d8 3d
       0.6923643 -8.012949 0.53015167 0.10590957
000090 44 d6 bc 40 0f 9e ee 3f d3 a6 c9 3e a7 cc 39 3e
       5.9011555 1.8641986 0.3938509 0.18144475
0000a0 42 ad af 3e 05 3f 83 3f 3f bc 8b 3f 16 a6 e5 3f
       0.34311873 1.0253607 1.0916823 1.794131
0000b0 47 54 11 bf 9a 87 33 3f 6f 01 b6 40 7a c1 9d 3e
       -0.5676922 0.70128787 5.687675 0.30811673
0000c0 27 80 a9 be 07 70 3a 3e c4 2f cf 3f 45 28 7a 3f
       -0.33105585 0.18206798 1.6186452 0.97717696
0000d0 e6 c6 26 3f 44 2d a5 bc d8 91 5c bf 6b 47 33 3f
       0.65147245 -0.020163186 -0.8616004 0.7003085
0000e0 a2 45 7f 40 01 a1 42 3e a9 d9 f3 3f 04 8f c8 bf
       3.988625 0.1900673 1.90508 -1.5668645
0000f0 fb a3 03 3f 7b ee 1c bf 3e 99 3a 3e a0 f6 f3 bf
       0.5142209 -0.6130139 0.1822252 -1.9059639

model.2.weight f4 [64, 64]
000000 ce 64 55 bf e8 fe 80 be 83 a3 c1 be 9c 34 b8 bf
       -0.8335694 -0.25194478 -0.37820062 -1.4391055
000010 46 cc bf be cc f5 b3 bf 49 97 9f be 5a 75 1f bf
       -0.37460536 -1.4059386 -0.3117011 -0.6228844
000020 57 76 d7 3e 39 e5 4e c0 45 21 19 bf 12 78 f6 3c
       0.42082474 -3.2327406 -0.5981639 0.03008655
000030 3e 38 84 bf ec 10 9b be ba f2 03 bf bf 62 ec 3d
       -1.0329664 -0.30286348 -0.51542246 0.11542272
000040 33 7f c9 bf ac 92 55 3f 93 5d c1 be 80 a1 9f 3e
       -1.5741943 0.8342693 -0.37766704 0.31177902
000050 68 6b 56 3e bd bf d9 3d ba ed e0 be b0 b5 22 bf
       0.2093941 0.10632274 -0.4393137 -0.63558483
000060 9b 84 8a be aa cd 86 3e 06 ac d3 bd a1 31 ce 3e
       -0.27054295 0.26328784 -0.10335545 0.4027224
000070 81 ff 27 3e 8d e2 76 3f 77 bf a4 3f b5 9a 9f be
       0.16406061 0.9643944 1.287093 -0.3117272
000080 47 b7 44 bd f5 01 ba bf 92 44 00 c0 e6 4a 5d be
       -0.04802635 -1.4531847 -2.0041852 -0.21610603
000090 df 28 35 40 0b d4 93 3f 40 ce 37 bf ea b1 b7 3e
       2.8306196 1.1549085 -0.7179909 0.35877925
0000a0 4a a0 0f be 2e 63 56 bd 17 e3 7c be 56 87 96 be
       -0.14025989 -0.05234068 -0.24696003 -0.29400128
0000b0 17 eb f8 be 23 34 85 3c 14 d4 09 40 61 e8 29 bd
       -0.4861686 0.016260212 2.1535692 -0.04148138
0000c0 1a 77 1f bf cd 85 3c be e0 13 31 3f c2 eb a8 be
       -0.6229111 -0.18410416 0.6917095 -0.3299237
0000d0 e0 10 1a be 54 cf 8b be ea 3e 09 bf de 97 52 3e
       -0.150455 -0.27306616 -0.53611624 0.20565745
0000e0 ae 81 de c0 d3 3a 03 c0 82 19 59 c0 92 c5 2a bf
       -6.95333 -2.0504653 -3.3921819 -0.6670772
0000f0 67 cc 74 3f 66 88 e5 be 1b 6f e7 3e 92 d1 52 bf
       0.95624393 -0.44830626 0.45201954 -0.8235103
000100 89 5b 3e be 6e b1 6c be db 32 10 be 27 d0 8c bd
       -0.18589605 -0.23114559 -0.140819 -0.068756394
000110 02 f9 2f bd 1c 43 83 be cf 1e 8e be 79 42 bf 3d
       -0.04296208 -0.25637138 -0.2775788 0.093388505
000120 09 09 8b be 84 cf 55 be f7 5a 42 bc 77 5a 89 be
       -0.2715533 -0.20879942 -0.011862508 -0.26826832
000130 33 28 76 be 05 48 9a 3d 35 25 52 3d 26 71 d5 3d
       -0.24038772 0.07533268 0.051305015 0.10421972
000140 89 89 72 be 07 cf d0 3e 53 7b 15 3d f6 c2 3d 3e
       -0.23685278 0.4078295 0.036494564 0.18531403
000150 26 42 03 3e a5 dc 1a be 75 2d 47 be 4a 2e 46 3c
       0.12818202 -0.15123232 -0.19450934 0.012095997
000160 93 43 1b 3e 96 4d 10 3e 14 e6 45 3d c4 a9 25 3e
       0.15162496 0.14092097 0.048315123 0.16178042
000170 a7 04 17 be c3 9d 0f 3d 6d d5 32 3e be a1 e9 ba
       -0.14747868 0.035062563 0.17464228 -0.0017824692
000180 bd e6 e1 3d b9 ff ab bd 20 24 e0 be f5 05 27 3d
       0.11030338 -0.083983846 -0.4377756 0.040777165
000190 eb 72 50 3e 29 64 01 3f 9b 18 a5 be d8 31 d5 bc
       0.20356338 0.5054346 -0.32245335 -0.026024744
0001a0 40 68 0b 3e fa 34 51 bd 22 cc 1d 3e 19 03 f5 bd
       0.13613987 -0.051075913 0.15409902 -0.119634815
0001b0 9d 24 00 3e 35 57 b0 3d 8f d8 95 3e 8f b1 22 3e
       0.12513967 0.086103834 0.29266784 0.15888046
0001c0 2f f4 a7 be c7 69 bc be 28 27 1a 3e 23 19 71 be
       -0.32803485 -0.36799452 0.15054 -0.23544745
0001d0 52 bd 05 bd e7 0a b1 3d ec 40 8e 3d 75 9d 9a 3d
       -0.032651253 0.086446576 0.069459766 0.07549564
0001e0 b6 3c 75 3c ce ac 85 be b5 05 89 bd 85 19 91 bc
       0.014968088 -0.26108402 -0.06690542 -0.017712364
0001f0 0a 36 ed be d0 7a 07 3e 6d b9 c2 be c0 fd 15 bd
       -0.4633029 0.13230443 -0.38032094 -0.036618948
000200 64 15 52 bd 60 71 a8 bd 81 e3 c7 3c 0e 61 10 be
       -0.05128993 -0.082247496 0.024400475 -0.14099523
000210 a6 66 1b 3d 3c 2f c6 be cc c0 ac be 5a 3c 61 3d
       0.03793969 -0.38707912 -0.33740842 0.054989196
000220 0a a1 25 be 7b be 9d bd 72 f7 8f bd f7 3f eb bd
       -0.16174713 -0.07702347 -0.07029618 -0.1148681
000230 cd e0 22 be 20 36 0e 3e 3a d7 b8 3d 67 5d 82 3d
       -0.15906067 0.13887835 0.09025426 0.06365471
000240 8a a4 37 bd 29 20 03 3d 06 cb aa 3d 42 ea 82 3e
       -0.04483465 0.032013092 0.08339505 0.2556935
000250 7d 06 c2 bc 02 dd a2 3c 07 ac 1f be 90 a1 1c 3d
       -0.023684734 0.019880775 -0.15592967 0.038240016
000260 de d1 5d 3d e9 13 a0 3d 71 44 68 3d e8 5d 41 3e
       0.054155223 0.078162976 0.056705896 0.18883479
000270 a2 80 29 bd a1 62 fe 3d 89 d6 2b 3e 79 60 30 3d
       -0.04138244 0.12421156 0.16781057 0.043060753
000280 d5 2b 85 3d c6 51 53 3c d2 d4 8f be c9 c9 05 bd
       0.06502501 0.012897914 -0.28092057 -0.03266314
000290 46 6a d8 bc 0d 15 d7 3d fd 8b b1 be ef 57 07 bc
       -0.026417863 0.10502062 -0.34677115 -0.008260711
0002a0 51 1d 75 3d 43 27 8a 3d f1 85 81 bd 83 0e ad bd
       0.05984241 0.0674577 -0.063243754 -0.084500335
0002b0 c3 2a 88 3d 03 5b 3e bd 02 4f 0a 3e 8a db af 3b
       0.06648781 -0.046473514 0.13506702 0.0053667473
0002c0 1d e5 51 be af e6 2f be 0e 50 75 3e b3 81 57 bd
       -0.20497556 -0.17177843 0.2395632 -0.052613925
0002d0 f7 4a 2b 3e c4 42 17 3e ba c4 8a bd 22 9c 3a 3e
       0.16727816 0.14771563 -0.06775804 0.18223622
0002e0 7d 52 ae bd 0e 5d 8a be 6f f1 b4 be 28 1f 11 be
       -0.08511827 -0.2702412 -0.3534045 -0.14172041
0002f0 fa 89 5f be 39 7d 6b bb 18 f4 bd bd af bf ca 3d
       -0.21829978 -0.0035932793 -0.09275073 0.09899842
000300 6c 27 ad bf cd 34 a2 be 97 00 e8 be 90 f6 94 bf
       -1.3527656 -0.3168091 -0.4531295 -1.1637745
000310 cd a3 a6 3d 8c 2c 2e bf 74 69 4e bf 82 11 b6 be
       0.08136711 -0.68036723 -0.8062966 -0.35560232
000320 75 95 f0 bd 0a 14 3a bf ef fe a0 be bf f3 b3 bf
       -0.11747257 -0.7268683 -0.314445 -1.405876
000330 91 0e a3 bf e4 44 19 be fe 78 46 bd 08 1f a3 3d
       -1.273882 -0.14967686 -0.04845523 0.07964903
000340 62 32 ba bf 78 47 18 3f fb 32 39 be 9a 70 9d 3e
       -1.4546626 0.5948405 -0.18085854 0.3074997
000350 3c 52 47 3d 86 22 8d be cc 2e d4 bf a1 e3 4e bf
       0.04866241 -0.27565402 -1.6576781 -0.80816084
000360 4b 7f f5 bc 94 56 95 3d 4f ee a7 3e 23 d4 53 bf
       -0.029967925 0.07291904 0.32799003 -0.8274557
000370 73 a3 ff be 97 9a f0 3e 56 ec 09 3f 0c df 6b 3f
       -0.4992939 0.46992943 0.53876245 0.9213722
000380 70 26 6e 3e fd c6 a6 bf b6 22 dd be e3 85 15 3d
       0.2325685 -1.3029476 -0.43190545 0.036504637
000390 e7 50 34 40 b9 44 69 3f 12 b7 38 bf 3a ae 54 be
       2.817438 0.9112049 -0.72154343 -0.20769587
0003a0 68 26 da 3d 18 64 2f bd e5 56 b1 3e 9b 21 47 bf
       0.10651857 -0.042820066 0.34636608 -0.7778565
0003b0 f0 3f 84 bd 7a ec b4 3e af ff 30 40 79 74 9e 3e
       -0.064575076 0.35336667 2.7656057 0.30948237
0003c0 61 26 18 bf b1 fa 38 bf 0a 89 e5 3e 54 0b 06 bf
       -0.5943356 -0.72257525 0.44831115 -0.52361035
0003d0 60 6e 39 be 53 cc c9 bd 34 c3 e7 be 9f f4 4c bf
       -0.18108511 -0.09853425 -0.45266116 -0.8006076
0003e0 a2 cd e2 c0 05 62 84 bf d8 cf 5a bf a1 4a 41 be
       -7.0876017 -1.0342413 -0.85473394 -0.18876125
0003f0 e7 2f c7 be c2 80 ef bd 84 0c ca be b0 a9 d5 be
       -0.38903734 -0.116944805 -0.39462674 -0.41731024

model.2.bias f4 [64]
000000 87 2a 84 3e 83 93 d5 3d 9b 37 8a 3e 25 13 db 3e
       0.25813696 0.10428526 0.2699555 0.42788044
000010 d3 a5 f6 be 73 8a 13 3f 10 46 ab 3e 51 ec 18 be
       -0.4817339 0.5763313 0.3345189 -0.14933898
000020 9e 49 8e bd b3 a6 f4 3e 91 06 7a bd cf 96 11 3e
       -0.06947635 0.4778343 -0.06104142 0.14217685
000030 2c d8 b9 bd 4b 40 cd 3e e2 fa 8d bd 62 df 8d 3d
       -0.09074435 0.40088114 -0.06932618 0.069273725
000040 b5 cf 8e 3e b4 5f 9d 3d 90 44 4e 3e 9c 51 0f 3e
       0.27892843 0.076842695 0.20143342 0.13995975
000050 39 62 84 3e c7 5c 0e be d1 2d 88 3d 5c 0a b1 3e
       0.25856188 -0.13902579 0.06649364 0.34578216
000060 59 e9 b5 be b1 ab 1c be b0 02 ac 3e 02 9e 03 be
       -0.35529593 -0.1529987 0.335958 -0.12853244
000070 53 5d d9 bd 41 5e bf 3e 1f 9b 39 be 32 f1 fb bd
       -0.10613503 0.37376598 -0.1812558 -0.12301864
000080 5c 85 51 3e 6c 3d 9c bd 6a 5d 2a 3e 39 9c c3 3d
       0.20461029 -0.07628903 0.16637197 0.095512815
000090 df c2 87 be 29 92 e3 3e 1b 9f 38 bd 75 1a bb 3e
       -0.26515862 0.4444745 -0.04507361 0.36543623
0000a0 7d bb 42 3e 44 fa 27 bd 36 7a 91 be ad 17 55 3d
       0.19016834 -0.041010156 -0.28413552 0.052024532
0000b0 1e 17 a0 bd a6 c8 97 3e b5 5b 93 bc a2 77 33 3e
       -0.07816909 0.2964527 -0.017988065 0.17526105
0000c0 0d f9 0b 3f f4 3a 4d be 9c 60 6f 3e b5 7c a5 3e
       0.54676896 -0.2004202 0.23376697 0.32321706
0000d0 6b d7 d3 3e 5f 8d 75 3e 10 90 09 bb 6d ba 07 3f
       0.41375288 0.2397971 -0.002099041 0.5301884
0000e0 13 43 09 3e b3 90 c9 3d c8 31 e9 bd df 70 e9 bc
       0.13404493 0.09842052 -0.11386448 -0.028496204
0000f0 51 f3 b3 3e 7f f9 be 3d 10 41 91 3e 10 a2 4a 3e
       0.35146573 0.09324931 0.2836995 0.19788384

model.4.weight f4 [1, 64]
000000 1d ac 19 c0 7d 03 2e 3e 44 6f 7a 3d 66 94 1e 40
       -2.40113 0.16993518 0.061141267 2.4778075
000010 e9 ac 94 be a1 7d 17 bf fb bc 0f 3e 32 06 41 bf
       -0.2903817 -0.5917607 0.14036934 -0.7540008
000020 1d d5 9f bd 1c 80 01 40 0a 3a 44 bf 99 b4 87 bd
       -0.0780432 2.0234442 -0.7665106 -0.06626243
000030 3e 41 a8 be 28 97 ff 3f b6 55 15 bf ac 67 9c be
       -0.32862276 1.9968004 -0.5833391 -0.30547845
000040 e9 fc d9 bf bb 8a c9 be 79 94 22 c0 ad 06 1a 3e
       -1.7030307 -0.39363655 -2.540312 0.15041609
000050 3f d8 10 3e 95 78 15 be 96 f4 2a bf 50 25 6f 3d
       0.14144991 -0.1459678 -0.6677946 0.058385193
000060 cd 85 a6 bd 12 d7 05 be fa 61 d8 3e c6 f8 54 bf
       -0.08130989 -0.13070324 0.4226225 -0.831921
000070 c2 0f 06 bf 29 66 0f 3e 6d ed 50 3e 7a 38 09 be
       -0.52367795 0.14003815 0.20403071 -0.1340045
000080 ad 3f 11 be a9 1d 04 bf c0 a1 01 3f f0 69 6a bf
       -0.14184447 -0.5160776 0.50637436 -0.915679
000090 f5 6c 84 be 5d da c7 3e cc 52 2f bd 06 24 89 3e
       -0.25864378 0.39033785 -0.04280357 0.26785296
0000a0 da c3 88 bf f0 86 b1 bd 0d cd d7 bf e7 ec 44 bf
       -1.0684769 -0.086683154 -1.6859452 -0.76923984
0000b0 9a 69 11 be dc 40 13 bf 3a c4 bc be 9c a4 08 3e
       -0.1420044 -0.5752084 -0.3686846 0.13344043
0000c0 bd 4f 16 40 34 e1 86 bf fb 7a a0 3e 9b e6 93 bf
       2.3486168 -1.0537477 0.31343827 -1.155475
0000d0 3b a8 36 3f d4 8c 57 3e 6c 5f f2 3d f1 34 37 bf
       0.7135045 0.21049815 0.118346065 -0.7156516
0000e0 59 58 25 3e e5 80 cd 3e 43 08 79 be 4e b3 c9 be
       0.16146983 0.401374 -0.24319558 -0.3939461
0000f0 04 77 01 3e d6 7a e9 3d a2 ae 72 3e b8 b7 04 bf
       0.12643057 0.11400382 0.2369943 -0.5184283
