app/models/disc_K3_deg1_-9_2.pth (torch, 20460 bytes, 5 tensors)

model.0.weight f4 [64, 2]
-1.5085766 0.0076506785 1.0815626 0.65003234 -0.5349434 0.45849338 0.9920806 -0.4224619
-0.79307175 0.4955934 0.3941863 0.1727893 0.24046974 -1.0516444 1.5202919 0.65367854
0.52963114 0.7204151 -0.26183814 -0.21855691 1.4892701 -0.12455851 -0.113959394 0.6560598
0.935476 -0.68256164 0.50943667 0.07306677 0.35559592 -12.882716 -0.070226036 0.5884855
-1.0915028 0.24026476 -1.3882784 -0.1879898 0.81424606 -0.39877862 0.4464985 0.3937399
-0.5628576 0.41399097 1.143488 -0.2883001 -0.68791485 0.6561685 -0.33858034 -7.122535
-0.31208745 -0.26497674 1.1277727 -0.23299825 -0.24296336 0.6121988 1.6429807 -0.1040134
1.7916471 0.6624842 -0.890495 0.41195038 0.839331 -0.20912953 0.13209574 0.84217894
-1.1030581 0.2984752 1.0160624 -0.34554568 -0.9235147 0.6232074 -0.40061674 -0.12125632
-1.0312428 0.43776843 -0.733773 0.47181353 -1.1120746 0.3861324 0.7032849 0.5779615
1.1828028 -0.40107176 -0.27585006 0.3214893 0.4390102 0.18660587 -0.9222549 0.62633103
0.9130306 0.6484223 1.2271751 -0.3820133 0.9794785 0.17023759 -1.4219652 0.60868496
1.0191553 -0.39562815 -1.1119269 0.44823423 -0.25433812 -3.3765378 0.061614376 -0.091206305
0.54113233 -1.1011562 -0.18751818 0.47330394 -0.53754616 0.34890282 1.3425102 -0.43276528
-0.9959053 0.3489173 0.5538958 1.9815148 -0.90771914 -0.6449598 0.034086395 0.2226555
0.38773865 1.0364355 -0.2944674 -10.484018 -1.0948554 0.39217356 0.8979742 0.23589507
00000000: 0a19 c1bf 8bb2 fa3b a570 8a3f 8568 263f
00000010: 0df2 08bf a5bf ea3e fff8 7d3f ed4c d8be
00000020: c006 4bbf 6bbe fd3e c9d2 c93e aeef 303e
00000030: b33d 763e 499c 86bf ed98 c23f 7a57 273f
00000040: e895 073f 206d 383f a60f 86be 62cd 5fbe
00000050: 67a0 be3f 8818 ffbd 8b63 e9bd 89f3 273f
00000060: 5b7b 6f3f 5cbc 2ebf 716a 023f 08a4 953d
00000070: ab10 b63e 9b1f 4ec1 abd2 8fbd fca6 163f
00000080: 5db6 8bbf f707 763e 1bb3 b1bf 6680 40be
00000090: 6e72 503f b62c ccbe 749b e43e 4798 c93e
000000a0: 7017 10bf a0f6 d33e d15d 923f 129c 93be
000000b0: 301b 30bf a9fa 273f 675a adbe cfeb e3c0
000000c0: edc9 9fbe 08ab 87be db5a 903f 1897 6ebe
000000d0: 63cb 78be 10b9 1c3f 314d d23f fa04 d5bd
000000e0: b154 e53f 9198 293f 7bf7 63bf 29eb d23e
000000f0: 65de 563f 0d26 56be 1b44 073e 0a99 573f
00000100: 0231 8dbf bed1 983e 550e 823f 5deb b0be
00000110: 766b 6cbf 858a 1f3f a31d cdbe 3c55 f8bd
00000120: c4ff 83bf 2f23 e03e 8cd8 3bbf 8b91 f13e
00000130: 7658 8ebf 25b3 c53e 7b0a 343f 49f5 133f
00000140: 1566 973f 4759 cdbe 383c 8dbe 3f9a a43e
00000150: f2c5 e03e 9c15 3f3e e618 6cbf 3b57 203f
00000160: 60bc 693f 01ff 253f 1314 9d3f 3f97 c3be
00000170: 1abf 7a3f c352 2e3e f502 b6bf c7d2 1b3f
00000180: ae73 823f c68f cabe 9f53 8ebf f57e e53e
00000190: 9b38 82be 3219 58c0 5b5f 7c3d 5fca babd
000001a0: a687 0a3f b0f2 8cbf c404 40be e554 f23e
000001b0: a09c 09bf 64a3 b23e 60d7 ab3f 6993 ddbe
000001c0: a6f3 7ebf 4aa5 b23e 1dcc 0d3f 47a2 fd3f
000001d0: 4860 68bf 161c 25bf 2d9e 0b3d ceff 633e
000001e0: ae85 c63e eba9 843f 6ec4 96be 8abe 27c1
000001f0: 3924 8cbf f9ca c83e a3e1 653f 7a8e 713e

model.0.bias f4 [64]
-1.5408869 -0.5112481 -1.6003469 2.4378757 -2.2774665 2.1630163 2.6430473 0.5744134
-0.012646786 -0.55419475 1.1715864 -1.5423871 3.5161006 1.878276 1.2457112 -1.0795103
0.885415 -1.4002573 0.9527146 -0.85680264 -1.51075 1.4717858 -2.463071 6.4865084
0.2376951 0.9493141 -1.5803218 2.042764 0.0074560377 -2.1217823 0.23880859 0.9337649
-1.9179913 1.5482113 -3.0505686 0.98800135 1.6239009 3.754724 -2.3857388 -0.5491434
2.7458434 -0.18585981 1.270339 -2.902007 -0.59739405 2.5505714 1.517134 2.1600275
2.1975486 1.9546379 5.162196 1.2361127 4.123158 -1.2351675 -0.7192693 2.9445906
-1.9927433 -2.1759987 -0.023262855 3.2105644 0.11160529 6.9256463 -2.3658204 0.77189535
00000000: c83b c5bf 28e1 02bf 2bd8 ccbf 2806 1c40
00000010: 03c2 11c0 dc6e 0a40 b027 2940 c20c 133f
00000020: 7734 4fbc b5df 0dbf 8bf6 953f f16c c5bf
00000030: cb07 6140 596b f03f 7773 9f3f 652d 8abf
00000040: 8faa 623f a23b b3bf 1be5 733f 6b57 5bbf
00000050: 4260 c1bf 7a63 bc3f f5a2 1dc0 7a91 cf40
00000060: 5866 733e 4006 733f fc47 cabf a5bc 0240
00000070: c751 f43b 48cb 07c0 3d8a 743e 370b 6f3f
00000080: bd80 f5bf ca2b c63f 843c 43c0 a8ed 7c3f
00000090: fcdb cf3f 664d 7040 f2af 18c0 a994 0cbf
000000a0: e6bb 2f40 0952 3ebe 789a a23f 7cba 39c0
000000b0: d1ee 18bf 903c 2340 7231 c23f e43d 0a40
000000c0: a3a4 0c40 9331 fa3f b630 a540 f138 9e3f
000000d0: e9f0 8340 f819 9ebf 0822 38bf 2c74 3c40
000000e0: 3612 ffbf 9043 0bc0 be91 bebc e379 4d40
000000f0: 5091 e43d e59e dd40 9a69 17c0 ef9a 453f

model.2.weight f4 [64, 64]
-0.64416444 0.13021949 0.013132484 0.1390907 -0.7739194 0.46148542 -0.2166882 0.24318777
0.17778102 0.07893427 0.15402102 -0.098918535 0.0018075698 0.42863372 -1.2678246 0.11037538
0.003695013 -2.8107955 -0.06545159 -0.010129648 -0.055430535 -0.043270435 -0.70518655 0.70487005
-0.054819573 0.18231529 -0.6016585 0.088717684 0.08933305 -0.6505814 -0.12708466 0.14448373
-0.5010371 0.03892966 -1.2254769 -0.21881369 0.005332608 0.21486825 -0.5359197 -0.018327743
0.067124896 -0.0058652065 0.27506664 -0.78003204 -0.0064755995 0.23109263 0.21364422 0.24045813
0.29139295 0.317919 0.24125287 0.1724132 -0.14556085 -0.22971983 -0.031420633 0.1961777
-0.49606475 -0.044745438 -0.5372568 0.19687207 0.018285565 0.45905808 -0.42679843 0.07725906
0.024293968 -0.07946198 0.21321127 0.012584036 0.37371632 -0.09191958 0.40310577 -0.19115373
-0.03377106 -0.0871016 -0.07957972 0.3099139 0.22272788 -0.1922561 -2.0569181 -0.27465424
0.015268671 -0.36715087 0.20262644 -0.28258914 0.18915857 -0.032137882 0.3567197 2.0782819
-0.13961117 0.08217941 0.79750097 -0.11839029 -0.13809723 0.0768779 0.08435193 -0.30746943
0.021195985 0.053971402 0.189634 -0.59756386 0.10512947 -0.5745265 -0.027610121 -0.026160525
-0.078083426 -0.1049877 0.041491274 -0.0910786 -0.19807023 -0.16511837 0.0071132723 -0.05376169
-0.0059123887 0.011750571 0.9662255 0.056946564 0.95753884 -0.011709333 0.16718748 -0.13290896
-0.046807505 -0.7217045 -0.2984121 -0.00916797 -0.26553053 2.1242886 -0.008082545 -0.16542792
0.20956749 0.094891764 0.0937823 -0.11965754 -0.155958 0.10730127 -0.21136382 0.12761469
0.09241846 0.27535143 0.10291198 0.06582603 -0.18301605 -0.016413383 -2.066506 0.17727177
0.1377727 0.29863617 -0.07393021 0.012322215 0.24976435 -0.020042319 0.025337676 -0.33059543
0.59382206 0.058509503 0.17050043 -0.03594069 0.046447065 0.06726442 -0.22188458 0.095831566
0.13296925 -0.010911689 0.15845294 0.4130381 0.2456453 0.21004733 -0.036950525 0.07932947
-0.04671367 0.09552863 0.22164714 0.14555341 0.1456921 0.09044195 0.10868512 0.26777354
0.032911643 0.10791708 -0.0047962666 -0.10472772 -0.17278142 0.02749258 0.2520861 -0.093083054
0.10171722 0.13128543 0.3635369 0.16837944 0.04696911 -4.0962305 -0.11448634 0.12274017
-0.2660674 0.16840655 -0.07802244 -1.410627 -0.704982 -0.2004465 -2.1216803 0.07011264
0.04188771 -0.0055789207 -0.36828488 -0.018051198 -3.31121 -0.23423797 0.14429727 0.0061943918
0.09112091 0.09011103 -1.1108686 0.0013529365 -0.05972022 -0.55770755 -0.5740385 -1.5338564
-0.11348802 -0.44031382 0.1626115 -0.70774156 0.056795824 -0.8602883 -0.6189161 0.05380157
-0.7043344 -0.491108 -1.2019851 -0.5258935 0.21306624 -0.05425929 -1.3234828 -0.003886169
-1.7453587 0.03622663 0.038869634 -0.7164568 0.058394156 -3.361094 -0.11957459 0.011759707
-2.1067615 0.12265251 -2.6216006 -0.11198022 -3.2685757 -0.03954607 -0.078889444 -3.4735086
-0.52896684 0.031955447 -0.05493763 -0.19641612 0.1099567 -0.813601 -1.3006202 -0.12854655
00000000: f6e7 24bf 4258 053e a129 573c cb6d 0e3e
00000010: 951f 46bf d147 ec3e 83e3 5dbe 3706 793e
00000020: 3a0c 363e 4aa8 a13d b0b7 1d3e cd95 cabd
00000030: faeb ec3a e175 db3e 1448 a2bf 7d0c e23d
00000040: 0828 723b 13e4 33c0 7c0b 86bd d3f6 25bc
00000050: 210b 63bd 573c 31bd 1b87 34bf 5d72 343f
00000060: 7d8a 60bd dcb0 3a3e 4b06 1abf 9eb1 b53d
00000070: 3ff4 b63d 818c 26bf 7b22 02be 8bf3 133e
00000080: f843 00bf b574 1f3d 6ddc 9cbf b210 60be
00000090: 28bd ae3b 6c06 5c3e 0932 09bf 1024 96bc
000000a0: c778 893d eb30 c0bb 89d5 8c3e 2eb0 47bf
000000b0: 4431 d4bb 8ca3 6c3e 8dc5 5a3e a83a 763e
000000c0: 7531 953e 47c6 a23e fe0a 773e 168d 303e
000000d0: e70d 15be ad3b 6bbe ecb2 00bd cfe2 483e
000000e0: 33fc fdbe fe46 37bd a989 09bf d598 493e
000000f0: 9ccb 953c a909 eb3e 5385 dabe 003a 9e3d
00000100: 2504 c73c f6bc a2bd 0e54 5a3e 462d 4e3c
00000110: bf57 bf3e 5540 bcbd e163 ce3e cebd 43be
00000120: 8653 0abd 5362 b2bd b1fa a2bd 09ad 9e3e
00000130: c712 643e c8de 44be 8ca4 03c0 7b9f 8cbe
00000140: 7329 7a3c 33fb bbbe 4e7d 4f3e 86af 90be
00000150: c9b2 413e 03a3 03bd f7a3 b63e 9202 0540
00000160: 3bf6 0ebe ae4d a83d 0629 4c3f 9c76 f2bd
00000170: 5c69 0dbe 2972 9d3d b4c0 ac3d a26c 9dbe
00000180: 34a3 ad3c 1e11 5d3d 6a2f 423e f2f9 18bf
00000190: 1f4e d73d 2b14 13bf 9f2e e2bc 994e d6bc
000001a0: 34ea 9fbd cb03 d7bd c1f2 293d 6b87 babd
000001b0: ecd2 4abe ca14 29be 7416 e93b 3835 5cbd
000001c0: b6bc c1bb 7885 403c 8e5a 773f cd40 693d
000001d0: 4421 753f 81d8 3fbc 3233 2b3e 4919 08be
000001e0: 3ab9 3fbd a0c1 38bf 79c9 98be 4135 16bc
000001f0: 9ef3 87be 58f4 0740 a76c 04bc f065 29be
00000200: dc98 563e 9d56 c23d ef10 c03d 030f f5bd
00000210: 74b3 1fbe c5c0 db3d c26f 58be 6dad 023e
00000220: e445 bd3d ddfa 8c3e 84c3 d23d cccf 863d
00000230: 8f68 3bbe 5c75 86bc a241 04c0 bb86 353e
00000240: 4914 0d3e d7e6 983e b968 97bd 1ee3 493c
00000250: 3ac2 7f3e ca2f a4bc f590 cf3c ce43 a9be
00000260: b904 183f a9a7 6f3d aa97 2e3e 8c36 13bd
00000270: 473f 3e3d eec1 893d b635 63be 5743 c43d
00000280: 1729 083e f1c6 32bc 7d41 223e bb79 d33e
00000290: 718a 7b3e a616 573e 6f59 17bd 7d77 a23d
000002a0: d556 3fbd 84a4 c33d 78f7 623e f40b 153e
000002b0: 4f30 153e a139 b93d 4e96 de3d 9d19 893e
000002c0: 5cce 063d a103 dd3d 002a 9dbb 7d7b d6bd
000002d0: 9ded 30be 1e38 e13c 6e11 813e 54a2 bebd
000002e0: 1e51 d03d b06f 063e 8221 ba3e a96b 2c3e
000002f0: ae62 403d 5214 83c0 d077 eabd 335f fb3d
00000300: fc39 88be c472 2c3e 3bca 9fbd 6d8f b4bf
00000310: b379 34bf d941 4dbe 9cc9 07c0 3797 8f3d
00000320: 7392 2b3d 61cf b6bb d68f bcbe 1be0 93bc
00000330: ddea 53c0 14dc 6fbe aac2 133e 53fa ca3b
00000340: 9a9d ba3d 228c b83d f130 8ebf 0455 b13a
00000350: 309d 74bd ecc5 0ebf 30f4 12bf 6855 c4bf
00000360: 686c e8bd d070 e1be a183 263e 8d2e 35bf
00000370: bda2 683d db3b 5cbf 4971 1ebf 095f 5c3d
00000380: 424f 34bf 8272 fbbe a6da 99bf f5a0 06bf
00000390: 092e 5a3e fd3e 5ebd e267 a9bf 19af 7ebb
000003a0: ea67 dfbf 6062 143d c435 1f3d b669 37bf
000003b0: b62e 6f3d 2a1c 57c0 86e3 f4bd c9ab 403c
000003c0: 2ed5 06c0 3d31 fb3d 4ec8 27c0 e355 e5bd
000003d0: 5830 51c0 0ffb 21bd ca90 a1bd f74d 5ec0
000003e0: 5f6a 07bf b7e3 023d 4806 61bd 4f21 49be
000003f0: fa30 e13d 2848 50bf b97a a6bf b5a1 03be

model.2.bias f4 [64]
0.59001017 0.00405316 0.2337054 -0.20643774 0.09928044 -0.4201067 -0.054322332 -0.13973822
0.11829702 0.3645209 0.63333833 0.08103618 0.064817935 0.545222 0.072658375 0.54585534
-0.17119952 -0.30082974 -0.0070277257 -0.14901072 0.28891307 0.018338697 0.5500706 0.3923749
-0.26828164 0.022850854 0.52124435 0.3856411 0.9099349 0.6409282 -0.26763585 -0.007729564
0.3544005 0.9153687 -0.20816325 0.7656898 -0.0783659 0.8984081 0.89949507 -0.6294656
0.023332076 0.8470898 0.32251102 -0.122431874 0.4304045 0.0061190445 -0.32145238 0.22238941
-0.44142798 0.6020987 -0.42404887 -0.3631458 0.06453389 1.0851507 0.22400272 0.31310686
0.46587026 -0.37089968 0.62386894 0.15050952 0.4393086 0.31913435 0.32557923 0.07200248
00000000: e80a 173f 5fd0 843b 7850 6f3e 6a64 53be
00000010: 8b53 cb3d 3a18 d7be 1881 5ebd 8917 0fbe
00000020: b545 f23d 7ca2 ba3e 7622 223f 4cf6 a53d
00000030: 44bf 843d ab93 0b3f eacd 943d 2dbd 0b3f
00000040: ed4e 2fbe 5b06 9abe d648 e6bb 4496 18be
00000050: 6aec 933e 093b 963c 6dd1 0c3f 5de5 c83e
00000060: 365c 89be b731 bb3c 4570 053f c072 c53e
00000070: 7ef1 683f df13 243f 9107 89be 4848 fdbb
00000080: fb73 b53e 9a55 6a3f bf28 55be 3f04 443f
00000090: 4d7e a0bd 13fe 653f 4f45 663f a824 21bf
000000a0: e922 bf3c e1da 583f 2a20 a53e 90bd fabd
000000b0: fb5d dc3e 4482 c83b 6895 a4be 0dba 633e
000000c0: d902 e2be 2423 1a3f ef1c d9be 3fee b9be
000000d0: 582a 843d 38e6 8a3f f860 653e 8b4f a03e
000000e0: 8c86 ee3e 90e6 bdbe e0b5 1f3f 2b1f 1a3e
000000f0: 0fed e03e 9465 a33e 52b2 a63e 0976 933d

model.4.weight f4 [1, 64]
0.39304936 -1.0965391 0.19411023 -2.7158856 -1.5719755 -0.11241985 -0.8052914 -0.11809118
-0.70418274 0.557651 0.55298644 -0.83808285 -2.4124906 0.6424736 0.45460674 -2.063082
-3.0835311 -3.6800299 -3.976742 -0.86987656 -2.081709 -1.6018016 0.37536043 0.2992295
-0.9430851 -1.4480189 0.788929 0.6300014 1.3207549 1.0271411 0.5344772 -0.35347202
6.365411 0.94864833 -0.8582022 0.6906746 0.48265156 1.0913422 0.9953469 -1.736836
-1.5474098 1.5635213 -1.1600225 -1.3251127 -1.8717413 -0.98421395 -0.20926233 0.6808975
-2.2434945 0.84771687 0.29205722 -0.19079275 -0.69174886 1.0635297 -1.4638557 -0.6769357
-1.2056369 0.34420243 1.0480565 0.17180549 -1.3129982 -0.7652995 -1.6107491 -0.021064537
00000000: c43d c93e 655b 8cbf d5c4 463e 12d1 2dc0
00000010: 7e36 c9bf 613c e6bd 9427 4ebf cad9 f1bd
00000020: 5245 34bf 37c2 0e3f 8590 0d3f 998c 56bf
00000030: 3f66 1ac0 2679 243f 37c2 e83e 8909 04c0
00000040: 9358 45c0 9c85 6bc0 f182 7ec0 3bb0 5ebf
00000050: b83a 05c0 d607 cdbf 3e2f c03e 9c34 993e
00000060: 066e 71bf af58 b9bf 40f7 493f c647 213f
00000070: 7f0e a93f 5c79 833f 7fd3 083f 49fa b4be
00000080: 72b1 cb40 9eda 723f 24b3 5bbf 0dd0 303f
00000090: 1b1e f73e 1ab1 8b3f 0ecf 7e3f a450 debf
000000a0: 8611 c6bf 7721 c83f 9e7b 94bf 4b9d a9bf
000000b0: 3895 efbf 72f5 7bbf dd48 56be 4c4f 2e3f
000000c0: 6a95 0fc0 f903 593f 8688 953e 2d5f 43be
000000d0: 7416 31bf be21 883f a05f bbbf a84b 2dbf
000000e0: 4f52 9abf 4d3b b03e b726 863f c7ed 2f3e
000000f0: 5310 a8bf abea 43bf 072d cebf 898f acbc
