app/models/disc_K3_deg1_-13_-15.pth (torch, 20490 bytes, 5 tensors)

model.0.weight f4 [64, 2]
000000 5d 6e 06 bf 50 00 11 3e 18 af 29 bf b1 82 43 3e
       -0.5251215 0.14160275 -0.66282797 0.19092824
000010 26 3f ce bf 77 86 83 3f 02 96 5a 3f e7 47 f2 be
       -1.6113021 1.027541 0.85385144 -0.47320482
000020 67 55 d4 be 56 c2 eb 3e 0d 5b 47 3f d6 4e ec be
       -0.41471407 0.46046704 0.7787331 -0.46153897
000030 c1 7b 5b bf c5 a6 03 3f 92 df 1c 3f 98 27 6c 3e
       -0.8573571 0.51426345 0.6127864 0.23061979
000040 1b f2 6c 3f 09 0c 12 bf d0 de 90 3d 19 d8 df 3e
       0.92556924 -0.57049614 0.07073748 0.43719557
000050 97 89 81 bf c5 43 81 3e 83 00 c9 be d8 4d f3 3d
       -1.0120114 0.25247017 -0.39258203 0.11880082
000060 57 86 83 bf d6 2d c1 3d 0b 79 47 bf 22 17 18 3f
       -1.0275372 0.09432571 -0.7791907 0.594103
000070 3e 81 10 bf 8f 2b b8 3e 05 76 32 be a2 63 53 bf
       -0.5644721 0.35970733 -0.17427833 -0.825739
000080 3f 17 41 3f 52 34 c9 be 96 1a 7d 3f 11 80 02 bf
       0.75426096 -0.3929773 0.9886869 -0.50976664
000090 70 45 8b bf 06 0b 31 3e ed 54 51 bf 82 f5 af be
       -1.0880566 0.17289361 -0.8177021 -0.34366995
0000a0 81 12 f1 be de 97 d4 3e 3c 2e 85 3f c1 16 93 be
       -0.4708443 0.41522115 1.0404735 -0.28728297
0000b0 c1 ec 3b bf 22 fe 93 3e 0f a8 40 3f 08 ec b3 be
       -0.7340813 0.28904825 0.7525644 -0.35141015
0000c0 94 26 bb be 41 7f ee 3e dc 49 c6 be 31 7f dc 3e
       -0.3655287 0.46581462 -0.38728225 0.4306579
0000d0 2a f0 c1 3f 16 31 a6 3c 93 3c 6d 3f 69 b4 d6 be
       1.5151417 0.020287078 0.92670554 -0.41934517
0000e0 9b 8c b5 be d5 e9 78 bf f3 33 00 3e d5 6c be 3e
       -0.35458836 -0.972318 0.12519817 0.37192407
0000f0 7c 3d 41 be 82 f1 93 3e 00 34 f1 bd fc b9 fc 3e
       -0.1887111 0.28895193 -0.11777496 0.49360645
000100 2c e1 35 3a 92 19 aa 3e 28 f9 3a bf d4 1e 25 bd
       0.0006938155 0.33222634 -0.7303643 -0.040312603
000110 35 29 f6 be f1 6d ea 3e cb da 32 bf c9 72 b9 3e
       -0.48078313 0.45787004 -0.698651 0.36220387
000120 5c 6e a3 3f db 8c 38 bf 07 96 85 3e d8 2b 31 bf
       1.2768054 -0.7208993 0.26091024 -0.69207525
000130 fb 0c 49 3f bd 0a 1f bf 1f 43 ca 3f 9c 8a e9 3e
       0.7853543 -0.6212576 1.5801734 0.45613563
000140 4a 21 9e 3f d0 4b 82 3e 2c e4 30 bf 0c 3e 10 3f
       1.2353909 0.25448465 -0.6909816 0.56344676
000150 4f af aa bf 2a 32 93 3e 1b 95 87 bf 65 09 c2 3e
       -1.333475 0.2874921 -1.0592378 0.37897792
000160 eb 53 65 3f 9d b8 a7 be 3f 83 a9 3f 29 92 94 bd
       0.89581174 -0.32758036 1.3243178 -0.0725444
000170 49 56 92 3e d7 63 25 3f 18 cc 55 bf e6 46 22 3f
       0.28581455 0.6460547 -0.8351455 0.6338943
000180 38 91 3d 3f d3 d7 cd be 85 ab 1c 3f 2c 98 ea be
       0.7404971 -0.40203723 0.6119922 -0.45819223
000190 fe 42 a4 3f 42 1c dc 3e f4 3b 78 bf 75 2b 74 3e
       1.2832944 0.4299031 -0.9696648 0.23844703
0001a0 b9 9a bf bd 6b 93 06 3f fe 17 70 bf 5d 86 8e 3e
       -0.09355683 0.5256869 -0.9378661 0.27836886
0001b0 b7 e7 0a bf 52 e3 d0 3e 02 50 5b bf 57 21 aa 3e
       -0.5425982 0.40798432 -0.8566896 0.3322856
0001c0 89 6e 79 3d fd 35 5f 3d b3 bf 87 3f 63 2d 21 bf
       0.06089643 0.054494847 1.0605377 -0.6295988
0001d0 50 13 1d 3f 92 50 ec bd 37 b7 a1 bd be 7c 3b bf
       0.61357594 -0.11538805 -0.078962736 -0.73237216
0001e0 23 77 36 3f 0a 6d c0 be 00 e8 1b 3f 61 f4 10 bf
       0.7127554 -0.3758319 0.6090088 -0.5662289
0001f0 f1 67 77 3f de a6 83 be ad c8 b3 3f 45 d4 b2 be
       0.96642977 -0.25713247 1.4045616 -0.34927574

model.0.bias f4 [64]
000000 34 6f af 40 d8 55 72 bf a4 c7 eb c0 f8 0f 1e 40
       5.4823246 -0.9466224 -7.36812 2.4697247
000010 03 46 d2 bf b5 66 46 40 e2 e6 ce 3f f0 27 85 3f
       -1.6427616 3.1000187 1.616421 1.0402813
000020 18 24 41 40 f4 b2 08 bf 1c 25 fd bf 24 7b f7 bd
       3.017828 -0.5339806 -1.977695 -0.12084034
000030 ec 1c 13 40 f6 c5 6c 3f 45 fd c0 bf b6 79 9f 3f
       2.2986403 0.92489564 -1.5077292 1.2459018
000040 d6 39 28 40 f6 f2 3b 40 51 2f 31 40 c1 b4 3d bf
       2.62853 2.9367042 2.768513 -0.74103934
000050 34 7d c0 bf 33 86 35 40 6a 2c ca bf 2c a8 3c 40
       -1.5038209 2.8363159 -1.5794804 2.9477644
000060 21 85 c2 bf d6 28 ba bf 2a 15 7f 3f e0 18 41 40
       -1.5196878 -1.4543712 0.9964167 3.0171432
000070 87 79 34 3f 8b d6 0e 40 bf cc 08 bf b6 c6 8f bf
       0.70497936 2.2318447 -0.5343742 -1.1232517
000080 b9 49 07 bf f8 10 07 40 5f 78 ac 3f 70 26 f6 bf
       -0.52846867 2.1104107 1.3474234 -1.923048
000090 9e 2c 97 40 37 81 07 40 e7 0b 91 3f 9b 5b 1d bf
       4.7241964 2.1172616 1.1331757 -0.61467904
0000a0 1b b2 7f be 47 43 bc 3f be 3b 32 c0 7a 55 2d c0
       -0.24970286 1.4708031 -2.7848964 -2.708342
0000b0 c8 7d 3a 40 f5 d4 e4 3f 84 82 35 bf 7b ea dc 3f
       2.913927 1.7877489 -0.70902276 1.7259058
0000c0 e7 d5 47 40 4c 5a ea 3f 8f 19 8f 3e a5 29 e8 bf
       3.1224306 1.8308806 0.27949187 -1.8137709
0000d0 db d0 80 3f 83 17 fb bf d4 95 e6 bf 29 07 06 c0
       1.0063738 -1.961655 -1.8014474 -2.094187
0000e0 5d 4e 09 40 8d 77 6c 40 51 9b 94 bc dd a8 93 3f
       2.145408 3.6947968 -0.018140467 1.1535908
0000f0 0e d3 e1 3d f8 35 55 40 0d 75 1f 40 77 83 91 3f
       0.110265836 3.331419 2.4915192 1.1368245

model.2.weight f4 [64, 64]
000000 d2 03 ab bb 37 4c ab bd 1e a2 25 bd 76 e8 9b bb
       -0.0052189613 -0.08364146 -0.04043781 -0.004757936
000010 14 5e a2 bb a5 25 b9 3e 49 18 43 bc f9 c9 84 be
       -0.0049550626 0.36161533 -0.0119076455 -0.25935343
000020 c3 1c af 3c 12 8f 8d bd 8a e5 c9 bd b9 64 11 bd
       0.02137602 -0.06912054 -0.09858234 -0.035496447
000030 50 34 16 bc de 64 17 3c 84 90 5e be c3 a7 3f 3d
       -0.009167746 0.009240357 -0.21734816 0.04679085
000040 48 5e de 3d a1 65 1c be 54 4d 2b 3d b0 cb e1 bd
       0.108578265 -0.15273143 0.041821793 -0.110251784
000050 97 25 38 be 61 6f 65 bf ee f1 e1 3c 56 74 0f be
       -0.1798309 -0.89623076 0.027581181 -0.14009222
000060 5a 7c 34 be 47 3f 94 bd b8 65 94 bf 15 1a 38 be
       -0.17625561 -0.07238632 -1.1593542 -0.179787
000070 96 39 db 3c 93 c7 e4 bd 8a 14 07 be 0a 69 99 3b
       0.026760858 -0.11170878 -0.13191429 0.004681711
000080 6c 27 0d be bf 31 58 bc c8 b0 f5 bd f3 f8 34 be
       -0.1378457 -0.013195454 -0.11996609 -0.17673092
000090 8f 85 bf bd 8d aa 74 bd 08 5d 06 c0 ab b2 93 bd
       -0.09351646 -0.059732962 -2.0994282 -0.072118126
0000a0 c9 bd eb be 0a 6b e1 bd cb 74 d6 bd 42 bc 70 be
       -0.46043232 -0.11006744 -0.10471495 -0.23509315
0000b0 57 9d 8d bd 15 5b cb bf e6 51 6d be 69 03 11 bd
       -0.06914776 -1.5887171 -0.23175773 -0.035403643
0000c0 3c 4c 6c 3e 4a 50 3e bc d0 ba 37 be ae 91 de bd
       0.23075956 -0.011615822 -0.17942357 -0.1086763
0000d0 cc a6 b4 3c 69 ff 8a bd 3c e4 53 be 4d 3a dd 3b
       0.022052191 -0.06786997 -0.20692533 0.0067513348
0000e0 31 32 17 3d e8 c7 7e 3c b7 2b 2e be 17 8c 8a 3c
       0.0369131 0.015550591 -0.17008863 0.016912503
0000f0 ee 8e 2d bf 1f b4 13 3f 36 5d 8c bf 82 9b f1 bf
       -0.6779622 0.5769672 -1.0965946 -1.8875582
000100 8b 33 6e 3c 14 c1 8a be fa 1f 69 be 5c 31 32 be
       0.014538656 -0.27100432 -0.22766104 -0.17401642
000110 f2 c2 04 be 9b 2d 9b bd e4 df 04 bd aa 42 be 3d
       -0.1296499 -0.07577058 -0.03244008 0.09290059
000120 bd 77 ae bd 9b e7 d9 bd 0e bb b1 be 80 01 4f be
       -0.08518932 -0.10639878 -0.34713024 -0.20215416
000130 84 82 b6 3d 38 0f 0a 3c 0e 70 8f be dd 48 46 3e
       0.08911613 0.00842648 -0.28015178 0.19363733
000140 48 bc 41 be 55 0a b6 3d 4c 7e 6d 3d c1 b0 0b 3d
       -0.1891948 0.088886894 0.057981774 0.034104113
000150 50 61 c0 bd d5 f8 f0 bc df 2b 69 be 84 d1 02 3e
       -0.09393561 -0.029415527 -0.22770642 0.12775236
000160 56 52 9e bc fb 66 a8 bc f6 f6 a8 3d 71 21 e4 bd
       -0.01932637 -0.020556917 0.08250229 -0.11139191
000170 e9 d3 30 be b6 9e b1 3a 75 f0 54 3c b8 ef 50 bd
       -0.17268337 0.0013551328 0.012996783 -0.051009864
000180 02 93 b5 bc 23 c5 17 3d b7 95 b8 3d b3 4a 8f be
       -0.022164825 0.03705324 0.09012931 -0.27986678
000190 15 61 8a 3d 48 22 71 bd b2 09 53 bd 6c ac d5 3d
       0.06756798 -0.058870584 -0.051522918 0.104332775
0001a0 84 86 98 3c f5 16 b9 bb ff e1 7d bd d9 2e 8b be
       0.01861883 -0.0056484886 -0.061983105 -0.2718418
0001b0 9b 7d 97 bd 81 c1 dd bd fa e8 f6 3d b5 c4 85 bd
       -0.07397004 -0.108279236 0.120561555 -0.065316595
0001c0 90 66 2c 3d 18 ed 19 3d 1e 36 ce 3b a3 87 90 be
       0.04209 0.037579626 0.0062930724 -0.28228483
0001d0 c9 bc 29 bd ce 96 2b be d3 bc e3 be 8a fc 82 be
       -0.041439805 -0.16756746 -0.4448 -0.25583297
0001e0 db 3d f3 3d 0a 61 ef bc 88 30 04 be e6 2d 98 bc
       0.11877032 -0.029221077 -0.12909138 -0.018576574
0001f0 b7 84 ab 3c 8f 17 8e 3d a3 3b 06 be f4 5a a5 bc
       0.020937307 0.06938087 -0.13108687 -0.020184971
000200 c7 28 2e be 87 91 39 bc b9 8d 91 be a9 d8 a1 be
       -0.17007743 -0.0113262 -0.28428438 -0.3161061
000210 64 80 7a bd b4 9b 86 be 5e 70 c0 bd 01 98 aa 3d
       -0.0611576 -0.26290667 -0.09396432 0.08329774
000220 85 27 09 bf 51 d7 54 bc 72 c5 46 be 19 60 4c be
       -0.53575927 -0.012990789 -0.19411257 -0.19958533
000230 19 f9 af bd 8a 4c b7 bd ba 42 79 be 4e d2 94 bc
       -0.085924335 -0.089501455 -0.2434186 -0.018166687
000240 6e 52 1f bf 0c 2e e2 be 6e af 6b 3c 41 3e 88 b8
       -0.6223515 -0.44175756 0.014385087 -6.496581e-05
000250 18 c7 27 be f6 54 b5 be 45 cc 88 bd 0f 1f 05 bd
       -0.16384542 -0.35416383 -0.06679586 -0.032500323
000260 b9 3c 20 bd 57 bd 22 be 73 f5 aa be c7 7c 04 bf
       -0.03912041 -0.1589254 -0.33390388 -0.51752895
000270 29 f6 03 be 06 2d 0d 3e 89 71 57 bc 42 9b e5 3c
       -0.12886871 0.13786706 -0.0131496275 0.028028134
000280 41 29 d6 bd 45 96 5a 3d 3e ca be 3d cc 2c 95 be
       -0.10457087 0.053365964 0.093159184 -0.2913574
000290 1d 4b c6 be f2 c1 2e be b9 02 c4 be 04 97 74 3d
       -0.38729182 -0.17066172 -0.38283327 0.059714332
0002a0 28 dc 7c bd fd 15 04 be ab a3 a7 be 05 9f 59 be
       -0.061733395 -0.12899013 -0.32742056 -0.21252067
0002b0 a3 c0 c7 be 98 c6 ad be d2 ef 0f 3e aa df dc 3c
       -0.39014158 -0.33940578 0.14056328 0.02696212
0002c0 3e 07 ba be a1 59 80 be 40 cc b5 3d 54 45 f9 bd
       -0.3633365 -0.2506838 0.08876848 -0.121714264
0002d0 c2 b6 e0 3d 68 db 9b be 39 05 b4 be f6 e4 59 be
       0.10972358 -0.3044083 -0.35160235 -0.21278748
0002e0 36 db 00 3e 9e 08 27 bf 2f 3c ad be 67 31 1c be
       0.12583622 -0.65247524 -0.3383498 -0.1525322
0002f0 f7 7b fc be a4 be 82 3d de fd 3b be 6d 49 19 bf
       -0.49313328 0.06384018 -0.18358561 -0.59877664
000300 d9 40 f8 bb cb 39 0f bd 8c e9 60 bd 1f a2 86 3d
       -0.00757609 -0.034967225 -0.054910228 0.06573891
000310 92 55 08 3d cd 02 a4 bd 22 33 67 3a 93 4c 3f bd
       0.03328473 -0.08008347 0.000881957 -0.046703886
000320 12 0d f5 bd a5 e4 d9 bc 15 79 44 3d d1 2e 29 3c
       -0.119653836 -0.026598284 0.047967035 0.010326103
000330 1f 6b 2d 3b 6d 0a 0c be 96 c3 05 bd 86 c2 77 3d
       0.0026461554 -0.13675852 -0.03265723 0.060488246
000340 d8 4d f1 bd c4 9a c4 bc b4 25 de bd 03 5b 90 bd
       -0.11782426 -0.02399958 -0.10847035 -0.07048609
000350 db b6 11 be 3a 7e fa bc bf 31 26 be cb 38 2f 3d
       -0.1422991 -0.030577768 -0.16229914 0.04277877
000360 15 73 a1 3d 77 c5 93 bd fa 85 04 be d7 6a 7b 3b
       0.07883278 -0.07215398 -0.12941733 0.0038363242
000370 13 41 9a 3c 33 75 f5 bd b3 9e 10 be 86 2e d5 3c
       0.018829858 -0.119852446 -0.14123039 0.02602316
000380 17 56 0e be cc 63 05 be 6f eb 19 be 80 a9 58 bd
       -0.13900028 -0.1302635 -0.15031217 -0.052896023
000390 1e 45 00 3e e4 47 93 bc 5d a4 aa 3c cf 56 54 bc
       0.12526366 -0.017978616 0.020830328 -0.01296015
0003a0 8e 9e 14 3d 23 39 7a 3d 0a 8c 27 be 63 07 ff bd
       0.036284022 0.061089646 -0.16362014 -0.12452581
0003b0 a0 44 15 be 77 c4 57 3d f0 25 d8 bd ee ce f3 3c
       -0.1457696 0.052677598 -0.10554111 0.029761758
0003c0 bc 00 9b 3d c5 d1 c0 3d 1a 8a 79 bc b8 99 e2 3b
       0.075684994 0.0941501 -0.01523068 0.0069152974
0003d0 eb ec 97 bc 16 3c 07 3c 02 87 07 bd 05 ed 87 bc
       -0.018545588 0.008254072 -0.033087738 -0.016592512
0003e0 fc ea 78 bd b9 35 5f bd d2 cd 2a be d2 83 84 3c
       -0.060770974 -0.054494593 -0.16680077 0.016176138
0003f0 70 97 48 bd 51 20 85 ba b1 c4 db bd dd f1 65 3c
       -0.048972547 -0.0010156726 -0.10730875 0.0140347155

model.2.bias f4 [64]
000000 66 6c 1b be 41 0c d1 3d 85 ec 88 3c 6c ef 8d bd
       -0.1517807 0.10207415 0.016714344 -0.06930432
000010 bb f3 b1 bc 2c b6 30 3d fa ed b4 3e cd c8 4c 3f
       -0.021722665 0.043142483 0.35337812 0.799939
000020 bb 61 98 3e 9d 71 81 3e 86 83 9e bc f5 ba 39 3d
       0.29762062 0.25281993 -0.019349825 0.04534431
000030 c4 aa 67 3d 3a ae cb bc c3 8d 86 3f c4 58 71 3d
       0.05655934 -0.024863351 1.0512012 0.058922544
000040 2e 6a 6b 3d a5 e1 28 bd 54 d2 8a 3d eb c7 b0 3d
       0.057474308 -0.041230816 0.06778398 0.08631881
000050 20 e6 87 3d 8f cd fa bc 1f 2f 8d bd 47 67 0c 3e
       0.0663569 -0.030615596 -0.06893753 0.13711272
000060 75 98 dc 3c 93 03 8f 3e b6 0d a6 bd de fe cd 3c
       0.026928166 0.27932414 -0.08108084 0.025145944
000070 c6 99 1e 3e 12 a6 26 bd cc 3f a3 3d 03 91 f8 3d
       0.15488347 -0.04068572 0.07971153 0.12137034
000080 7b dc 29 3d e0 28 c2 3d 81 26 22 3e e9 b9 28 3e
       0.041470032 0.094804525 0.15835 0.16477169
000090 28 19 f3 3c b7 90 39 bd 5c c6 82 3c 89 55 63 bd
       0.029675081 -0.045304026 0.015963726 -0.055501495
0000a0 57 67 50 3a 9e 31 67 3e ee e2 ed bd 4c 6c 8a bd
       0.0007949969 0.22577521 -0.11615549 -0.06758937
0000b0 27 ad ff 3e 76 41 af 3d 39 4c f3 bd 54 66 98 3c
       0.49936792 0.085574076 -0.11879773 0.018603481
0000c0 a4 68 11 3e 62 d3 c4 3b 7d 2d 5e bd 56 54 84 bc
       0.14200073 0.006006644 -0.0542426 -0.016153496
0000d0 bc e5 00 3e 38 e3 c9 bd 3f cd 8a 3d c6 77 85 3d
       0.12587637 -0.09857792 0.06777429 0.065169856
0000e0 b0 03 50 bd 37 c0 3a be 58 da f0 3d d7 ed 0b bc
       -0.050784767 -0.18237387 0.11760396 -0.008540592
0000f0 65 1a 10 3e cf 58 4a 3e a7 c7 d9 bc a8 c1 0c be
       0.14072569 0.1976044 -0.02658446 -0.13745749

model.4.weight f4 [1, 64]
000000 de c8 6e bd 91 7d 4f be 69 1c 80 be 72 c7 72 bd
       -0.05829703 -0.20262744 -0.25021675 -0.059272237
000010 f2 3c 53 b8 fa 17 69 be e8 c9 0e bf 0d da 06 40
       -5.036308e-05 -0.22763053 -0.55776834 2.1070588
000020 5e 98 e1 3e d5 6c 4a be 91 a6 1a 3e 0c c1 03 bd
       0.4406156 -0.19768079 0.15102603 -0.032166526
000030 e7 92 a0 bd 1f 9e 34 be 55 cc 0f c0 1d fc 5e be
       -0.078405194 -0.17638443 -2.2468464 -0.21775861
000040 9c c6 df bb a7 d2 02 bd 77 29 2a be 3b f0 c2 be
       -0.006829096 -0.031939175 -0.1661738 -0.38073906
000050 3c 8b 34 bf f8 cc d4 bd 65 b4 f0 bc e9 33 0b bf
       -0.70524955 -0.10390657 -0.029382894 -0.54376084
000060 4d 6a d1 be 81 ba c1 be b1 63 18 3d 8f c7 3b be
       -0.40901414 -0.37837604 0.037204448 -0.18337844
000070 79 3d be 3d da d2 4e bd a0 c5 c0 bd 9d f3 fe be
       0.09289069 -0.050494052 -0.09412694 -0.49795237
000080 2f ff a5 be 4e d9 fe bf 54 81 bf 3d 17 41 65 be
       -0.32421252 -1.9910066 0.09350839 -0.22388111
000090 b5 fa 81 bd db e2 ce 3d d4 59 b9 3c 57 8b 0a be
       -0.06346647 0.10101863 0.022625841 -0.13529716
0000a0 d9 90 58 3d d5 45 f2 3e f8 60 0c be bb f7 52 bd
       0.052872512 0.47318903 -0.13708866 -0.051505785
0000b0 39 db 02 3f 8c 36 6f be 80 d4 ab c0 7f 12 86 3c
       0.5111576 -0.23360652 -5.36969 0.016366241
0000c0 20 03 86 bf 87 c5 a0 be 33 64 02 bd 14 1f 0e 3d
       -1.0469704 -0.314007 -0.03183384 0.034697607
0000d0 78 b2 42 bf 44 fa 7e be 81 4a 36 3d 2e af 8d be
       -0.7605357 -0.24900156 0.044504646 -0.27672714
0000e0 f8 83 84 be 57 3e c2 bc 47 5a 75 3d a4 61 b3 be
       -0.25881934 -0.023711367 0.05990055 -0.3503543
0000f0 88 d2 05 bf b8 88 27 bf ee 50 0e bd bf 69 3b be
       -0.5227437 -0.6544299 -0.03474515 -0.18302058
