app/models/disc_K3_deg1_-9_12.pth (torch, 20470 bytes, 5 tensors)

model.0.weight f4 [64, 2]
00000000: 6dbb 893f 1df1 d0be 20ce 93bf 81d1 1b3f
00000010: 26f8 a73f 1b25 0a3f 3e23 bf3f ace6 f1be
00000020: b033 823f 6633 e7be 9306 ccbf 729e c83d
00000030: a211 cebe b2ac 083f 81c7 5ebf 0f16 183f
00000040: 64a8 5cbe ace7 543c 5c62 8c3f 3f5d 05bf
00000050: 4061 60bd 652d b33f bf8f 5bbf c32f 053f
00000060: aa34 8bbf 2524 df3e 8071 a2bf 1bad 2e3e
00000070: a08f 8d3f d84a 4ebf ddc0 68bf e045 f83e
00000080: 2c2b bebe c4a9 213f 431d 9a3f 5ffa 88be
00000090: 8b8c 743f 17bf 173f 4055 433f c47c ecbe
000000a0: 5d81 c53f ce4b 15be 803a bc3d a3cb 903e
000000b0: 3eda 513f 0728 6abf faaf 86bf f14b 093f
000000c0: dc76 c7bf 7c0a 9bbe de80 0b3f 5ca2 a5be
000000d0: 13ae 613f 011a 32bf 841b 48bf b58e 393f
000000e0: 01f2 0ebe 1e05 8cbf c00b b63d 036d 87bf
000000f0: 0679 adbf e45a da3e 846e 82bf 7ac8 1f3f
00000100: f25b 6dbf e412 c03e b6a4 783f 21a5 3ebf
00000110: 3bdf b7be 57e2 95bf 87c1 cd3f e90d 98be
00000120: 8b99 5fbf d622 a13e 959f 8bbf 8520 233f
00000130: 289a 4f3f 2d3b d8be e678 a03e 1596 31bd
00000140: dc20 66bf 991e 323f d3c2 bdbf eddb 053d
00000150: 100c fbbe c99c 433f 24fa a13f b7b3 163f
00000160: 4787 473f 5d4f a0be 5fa5 4ebe e793 1e3f
00000170: 262c a33f 9cdd c43e 0491 2fbf 77a3 d23e
00000180: d2e5 183f 8709 5f3f 3e9c 9fbf 14eb 0bbf
00000190: 4247 a0bf 976a f13e e7d6 1ebf d921 343f
000001a0: 9121 9abf f869 013f 2faf 85bf 7556 253f
000001b0: c683 85bf a64e 0d3f 041c 313c b0bf 7cbf
000001c0: 8670 0740 19bd 033e 0983 9c3f f8fd 14bf
000001d0: baf7 a7be 9c79 bc3e ad89 0bbf 5a51 503f
000001e0: bf0d 013f c42f 263f 3428 3f3f 33be 453f
000001f0: cf4b 843f 6327 71be 4f99 1fbf 930a a53e
1.0760323 -0.40808955 -1.1547279 0.6086655 1.3122604 0.5396287 1.493263 -0.472463
1.0172024 -0.451564 -1.5939506 0.09795846 -0.40247828 0.5338851 -0.8702317 0.5940866
-0.21548611 0.012994688 1.0967517 -0.5209541 -0.054780245 1.3998228 -0.85766214 0.52026004
-1.0875447 0.43582264 -1.2690887 0.17058222 1.1059456 -0.8058295 -0.90919286 0.4849081
-0.37142313 0.63149667 1.204018 -0.26753518 0.9552695 0.59275955 0.76301956 -0.4618894
1.5430104 -0.14579698 0.091908455 0.28280362 0.81973636 -0.91467327 -1.0522454 0.536315
-1.5583148 -0.30281436 0.5449351 -0.32350433 0.8815624 -0.6957093 -0.78166986 0.7248338
-0.13959505 -1.0939062 0.0888896 -1.0580143 -1.3552558 0.4264747 -1.0189977 0.6241528
-0.9271842 0.37514412 0.9712633 -0.74470717 -0.359125 -1.1709698 1.6074685 -0.29698113
-0.8734366 0.3147189 -1.0908076 0.63721496 0.810946 -0.42232648 0.31342238 -0.04335602
-0.8989389 0.6957794 -1.4825081 0.03268044 -0.4903264 0.7641111 1.2654462 0.58867973
0.7794079 -0.3131055 -0.20180272 0.6194443 1.2747848 0.38450325 -0.6858065 0.4114034
0.5972568 0.8712391 -1.2469556 -0.54655576 -1.2521746 0.47151634 -0.62046665 0.7036415
-1.2041494 0.5055232 -1.0444087 0.6458505 -1.0430839 0.55198133 0.010809902 -0.9872999
2.116243 0.12865104 1.2227489 -0.58200026 -0.32806188 0.3681153 -0.5450695 0.8137413
0.504116 0.64916635 0.7467072 0.77243346 1.0335635 -0.23550181 -0.62343305 0.3223463

model.0.bias f4 [64]
00000000: d876 0d40 475f 9d3f da7d 633f 542f 5740
00000010: 9996 1440 cd1f d0bf 8c10 21bf e8a4 1cc0
00000020: a0fb 0340 9d98 3540 953b 6bc0 7186 06c0
00000030: 554c 14c0 78ee b2bf 5f6c 8240 091e d83f
00000040: 1082 c7bf b46b c83f a104 f83e 7544 3b40
00000050: 36fb 6940 b708 0340 f858 8340 877e 2ac0
00000060: 10f0 97bf caf4 4840 10cb 4940 0f32 34c0
00000070: 7d36 2240 47d6 0540 3271 2fc0 eb9b 3dc0
00000080: f233 dcbf bb85 6540 9571 aa3f 6b1a 2f40
00000090: 5856 b5bf 24aa 4ec0 3413 d33f 44b4 e53f
000000a0: 6f32 e83f 2635 95bf 18f3 f93f b211 98bd
000000b0: 9811 433f 84a5 b2be 2355 80be e073 8e3f
000000c0: d564 d53f 5396 aebd 2cc6 ad3f e1db 1c40
000000d0: 71f8 2240 ef5d 4cc0 a0ef ef3f 2662 1340
000000e0: 5f55 cd3f 6613 5b40 bc3a 45bf b239 0c40
000000f0: 113b 0540 f5a0 b13f 000a 913f 6632 3240
2.2103786 1.2294701 0.8886391 3.3622637 2.3216918 -1.6259705 -0.62915874 -2.447565
2.062233 2.8374398 -3.6755116 -2.1019557 -2.317159 -1.3979025 4.075729 1.6884166
-1.5586567 1.5657868 0.48441032 2.9260533 3.6559577 2.047407 4.1046104 -2.6639726
-1.1870136 3.1399407 3.153019 -2.8155553 2.5345757 2.0912035 -2.741284 -2.9626415
-1.7203352 3.5862873 1.3315912 2.7359874 -1.4166975 -3.2291346 1.6490235 1.7945638
1.8140391 -1.1656845 1.9527311 -0.0742525 0.7619872 -0.34891903 -0.25064954 1.1129112
1.6671396 -0.08524766 1.3576102 2.4509203 2.5464137 -3.1932333 1.8745003 2.3028655
1.6041678 3.423059 -0.77042747 2.1910214 2.0817301 1.3877245 1.1331177 2.784326

model.2.weight f4 [64, 64]
00000000: 67d5 9fbf bbc2 503e f39c 553c 0fcf 3abf
00000010: 6015 49bf 5f44 8ebf c2de 84bc b2a3 c1bf
00000020: 84f7 e73e ec2b 58bf 8838 45bf 2967 98bf
00000030: 6540 88bf 4e63 61bf 6515 c3bf ecac 803e
00000040: 9ce2 87be 924c 1bbf ecc0 9b38 5eab 503e
00000050: 0973 2dbd 781b 1b3e 971e ddbf a2d9 b6bf
00000060: 53cd a8bf d3df e83e 2fbd bfbf c45e d2bf
00000070: 46c6 ffbf c172 e9bf 8f32 dfbf f241 f0bf
00000080: e090 2dbf e540 d0bf 3693 99bf 9a80 68bf
00000090: 0760 a8be 8d31 eebf 8f57 95bf cc42 723e
000000a0: 64e8 663e e66f 5fbf 3e66 883e f113 0fbe
000000b0: c011 87bf 2768 0bbd 6a3b 8ebe deac 2f3d
000000c0: d8e4 f43d 0327 35bf 2818 603e 32be 6c3e
000000d0: 5f0b 293f 6b43 f1bf 6d17 a13e 0d24 e5bf
000000e0: 64b9 65bf 33e4 f8be e712 8cbe 8928 2c3e
000000f0: a9e3 963e 07dc 163e 513c 4ebf 391f cd3e
00000100: ddc5 d8bf 36a5 e13e e8e3 13be eabb 84bf
00000110: 2e99 89bf e84f 3abf 319c 89be 2c1e 00c0
00000120: 6782 343f c2db 9abf 38b6 a2bf 7f1f c4bf
00000130: cc38 c5bf 8364 58bf 2546 e1bf ed22 f83e
00000140: 24dc 38bf ee0a 79bf 90fe 51bd 3b19 5f3e
00000150: 31b2 b33d b093 783e d20d ecbf bbb6 f4bf
00000160: 9ecc 14bf a233 db3e ffbd d0bf 15a0 f6bf
00000170: f6ff aabf b7c9 d4bf 48c2 fabf a6b8 0cc0
00000180: ac24 79bf f75a eebf 404f 4dbf 7840 90bf
00000190: 8427 d7be c963 1ac0 80ea a1bf 92f1 5d3e
000001a0: d78b c03e 99e9 05bf c2d9 333e b00c 52be
000001b0: d64b 99bf c2f3 c1bd 2245 9ebe f7de 593e
000001c0: 89bc 0fbe 69a0 ca3e 4dc8 bb3e 0413 653e
000001d0: 6392 523f e531 18c0 d485 a43e 4a2b bbbf
000001e0: 4d65 69bf b3b9 32bf 6357 82be 1199 ca3e
000001f0: dfa1 c93d ef4c 08be 616d d6bf 7729 293f
00000200: 1509 d9bf b547 803e c79a 12be d38a 8ebf
00000210: 09c5 e7bf 9fbd 89bf 2e31 a6bd a06e c3bf
00000220: 3a92 bd3e ee27 bbbf 01d6 58bf ea48 b1bf
00000230: 79d1 e1bf c957 70bf 2af0 5bbf 213d 823e
00000240: b8a2 00bf e888 eabf 7c32 44be fb14 683e
00000250: a5ca 3d3e 2fc9 823e 0751 08bf 06fb 00c0
00000260: 77cc 9cbe 77b7 bc3e b508 5fbf 50f0 b9bf
00000270: ea48 abbf d974 84bf 8f88 28c0 bd37 0ac0
00000280: 59d1 97bf 3a43 5bbf e144 0dc0 ab94 83bf
00000290: e18d 34bf 45c3 2fc0 f50c 8abf 1244 843e
000002a0: 442b 913e e301 f0be 4027 c23d ebee 9fbd
000002b0: 9c7e 78bf 12df 01be 3b09 ac3c 0561 a43e
000002c0: 2e1a 803d 4216 493d f200 c43e dcfd a73e
000002d0: 3e79 c13e 94b0 34c0 0730 813e bb43 9cbf
000002e0: d50e 89bf 6d0b 97bf f16f 37be 75bc 2c3e
000002f0: 166e 2b3e d9f9 9bbd 8f68 a7bf f475 a23e
00000300: c79e b3bf 667b 673e 2286 813d bc13 2abf
00000310: 8555 68bf f792 f5bf 81ca adbc 51a4 b5bf
00000320: ea71 023f 016b 98bf c4c2 26bf c588 b4bf
00000330: fc9d 9dbf 4ac9 bcbf a597 e2bf c6bc 993e
00000340: 2257 95be e676 15bf 5b75 f03b 55f3 893e
00000350: 74d2 1e3e e46f c23e 98fe fdbf d04b d9bf
00000360: c584 45c0 d7c9 c13e 7abb d8bf 87e2 aebf
00000370: efb0 41c0 a41d 0ec0 9aab 17c0 6bd7 01c0
00000380: bed3 62bf 38e7 ebbf dc1a c7bf a10f 82bf
00000390: f58f febe 603a 03c0 9d97 b3bf beed 3b3e
000003a0: 3f5c b23e 0498 c1bf 0870 c13e c54b f4ba
000003b0: 4e58 aabf e370 46bd 8ad8 21be 961b 113e
000003c0: a577 ab3e 33fe 1ec0 e9e3 c33e 600d c03e
000003d0: 8ed8 043f 2f51 04c0 f75c 953e f9a1 1fc0
000003e0: ef04 2abf 21a2 cbbe f64f 00be 3980 5a3e
000003f0: c59c d83e 588f 083e 067f 82bf 21d1 b73e
-1.2487 0.20386784 0.013037908 -0.72972196 -0.7854824 -1.1114615 -0.0162195 -1.5128081
0.45306027 -0.8444202 -0.77039385 -1.1906482 -1.0644652 -0.8804215 -1.5240904 0.2513193
-0.26540077 -0.6066371 7.4269105e-05 0.20377871 -0.042346034 0.15147197 -1.727496 -1.4285166
-1.318766 0.45483264 -1.4979609 -1.643517 -1.9982383 -1.8238145 -1.7437304 -1.8770125
-0.67799187 -1.6269804 -1.199805 -0.9082123 -0.32885763 -1.8608872 -1.1667346 0.23658293
0.22549587 -0.8728012 0.26640505 -0.13972451 -1.0552292 -0.034034874 -0.27779704 0.04288947
0.11957711 -0.7076265 0.21884215 0.23119429 0.66032976 -1.8848699 0.31463185 -1.7901627
-0.8973601 -0.48611602 -0.2735817 0.16812338 0.29470566 0.14732371 -0.80560786 0.40062883
-1.6935383 0.44071358 -0.14442408 -1.0369847 -1.0749872 -0.7277818 -0.26876977 -2.0018415
0.7051148 -1.2098315 -1.2711859 -1.5322112 -1.5407958 -0.8452837 -1.7599531 0.48464146
-0.7221091 -0.972823 -0.05126816 0.21786968 0.08774222 0.24275088 -1.8441718 -1.9118265
-0.5812472 0.4281283 -1.6307982 -1.9267603 -1.3359363 -1.6624058 -1.959054 -2.19877
-0.9732158 -1.862151 -0.8019905 -1.1269674 -0.42022336 -2.4123404 -1.2649689 0.21674183
0.3760669 -0.52309567 0.17563537 -0.20512652 -1.1976268 -0.09470321 -0.3091212 0.2127646
-0.14036764 0.39575508 0.36676255 0.22370535 0.8225462 -2.3780453 0.32133353 -1.4622586
-0.911702 -0.69814605 -0.25457296 0.39569905 0.098453276 -0.13310598 -1.675213 0.66078895
-1.6955897 0.25054708 -0.14316855 -1.1136116 -1.8107005 -1.0760993 -0.08114849 -1.5268135
0.37025625 -1.462156 -0.84701544 -1.3850377 -1.7642051 -0.9388395 -0.85913336 0.25437263
-0.5024829 -1.832303 -0.19159883 0.22664253 0.18534334 0.25544116 -0.5324864 -2.0153213
-0.30624744 0.36858723 -0.8712266 -1.4526463 -1.3381627 -1.0348159 -2.6333349 -2.159652
-1.1860763 -0.85649455 -2.207329 -1.0279745 -0.7052899 -2.7462933 -1.0785204 0.25833184
0.28353322 -0.4687644 0.094801426 -0.07809242 -0.9706819 -0.12682751 0.021000495 0.3210527
0.062549934 0.049093492 0.3828197 0.32810867 0.37787813 -2.8232775 0.25231954 -1.220817
-1.0707651 -1.1800362 -0.17913796 0.16868766 0.16741213 -0.07616014 -1.3078784 0.31730616
-1.403283 0.22605667 0.06324412 -0.6643636 -0.9075549 -1.9185475 -0.021214725 -1.419077
0.5095507 -1.1907655 -0.6514094 -1.4104239 -1.2313838 -1.4748929 -1.7702528 0.30026835
-0.2916804 -0.5838455 0.0073382086 0.2694346 0.15509969 0.3797599 -1.9843321 -1.6976261
-3.0862286 0.37849304 -1.6932213 -1.3662881 -3.0264242 -2.2205591 -2.3698487 -2.028773
-0.8860434 -1.8429937 -1.5555072 -1.016102 -0.49719205 -2.050438 -1.4030644 0.1835241
0.34836003 -1.5124516 0.37780786 -0.0018638304 -1.3308198 -0.0484475 -0.1580526 0.1417068
0.3348972 -2.484265 0.3825982 0.37510204 0.51892936 -2.067455 0.2917249 -2.494261
-0.6641378 -0.39772132 -0.12530503 0.21337976 0.42307106 0.13335931 -1.0195014 0.3590174

model.2.bias f4 [64]
00000000: a9c0 4e3f 7d1e 8f3f 111c b63e 3360 713f
00000010: 45d3 a33e 8623 dc3e aacf ea3e 64bf 7e3f
00000020: 8b45 8c3f a448 5f3f e198 573f 46f2 26bf
00000030: 75bc 603f 8e80 623e 3046 9c3e 5568 02bd
00000040: c3d8 1cbf d057 313f 5322 003f 0533 193c
00000050: ebf7 07bf 38d8 04bf 3d33 b73e a05d 28bd
00000060: c1a1 2d3f 8e60 d53e 32c3 303f d67c bc3e
00000070: 64b5 6b3f 90b2 be3e 387d 2e3f 9b3f 8e3e
00000080: 1b7d 983d 55df 5e3f a42d 18bf bab9 31bd
00000090: ab63 a43e e387 f23d e50d be3e a913 763c
000000a0: 4947 853e 7a29 833f fef9 10bf 3163 693f
000000b0: 41a8 203f e632 bb3e 5149 013f 60a7 b43e
000000c0: caf0 8c3e e578 623f 8625 fc3e 6768 0dbf
000000d0: 21fa 5bbd 7da2 293f 5612 1e3f 59bf 173f
000000e0: 9e5c 853f b342 7c3f 78fb 8f3f 6d11 c73e
000000f0: 5d1c 173f 67e8 6d3f 8f4f 063f 01fd 503f
0.80762726 1.1181179 0.35568288 0.94287413 0.31997123 0.42995852 0.4586156 0.9951079
1.0958723 0.87220216 0.8421765 -0.6521343 0.8778756 0.22119352 0.305223 -0.03183778
-0.6126825 0.69274616 0.50052375 0.009350543 -0.5311267 -0.51892424 0.3578128 -0.041104913
0.6782494 0.41675228 0.69047844 0.36813992 0.92073655 0.37245607 0.6815982 0.27782902
0.07445737 0.8705953 -0.5944464 -0.043390013 0.3210729 0.118423246 0.37119976 0.015019336
0.2603095 1.0247033 -0.5663146 0.9116698 0.62756735 0.3656227 0.50502497 0.35283947
0.27527457 0.8846572 0.49247378 -0.5523743 -0.05370534 0.6626356 0.6174673 0.5927635
1.041889 0.98539275 1.1248617 0.38880482 0.59027654 0.9293274 0.52465147 0.81636053

model.4.weight f4 [1, 64]
00000000: 93ae 5d3f 8184 9e3f 8f5e 2fc0 da25 963f
00000010: 0d9c aabf 7124 a03e 2914 1cc0 2930 bd3f
00000020: 7d24 9e3f ccc4 8c3f e6fc 003f dba4 78c0
00000030: a624 843f 3401 923e 1319 1bc0 554f 57c0
00000040: 82b8 1fbf db7f ef3e 2981 2cc0 5130 34be
00000050: 5a99 3dbf 2fa7 97c0 7fe1 24c0 09bd 66c0
00000060: 78e3 023f 3262 b3bf 570e 013f 52b6 66bf
00000070: 527b a03f a2ba 21c0 554e 153f 9b35 423e
00000080: d550 433e 3eab 9a3f 4fd6 1dbf b5c9 4dc0
00000090: 4ab5 24c0 cdb6 35c0 df99 1cc0 a1a1 bbbf
000000a0: af74 003f c7cc 973f 2eab 81c0 0a26 e33f
000000b0: 98f8 003f 3b42 8e3e f98f f83e e786 14c0
000000c0: 3400 27c0 0f25 693f a949 48bf f5d0 24bf
000000d0: a1de a8be b0f2 9c3f 0f6b a5bf d38a 1bc0
000000e0: 6a85 9d3f abc3 993f 7b1f b63f a80c 52bf
000000f0: 345e 623f 09f6 ac3f 3931 02c0 bc3f 1b3f
0.86594504 1.2384187 -2.7401464 1.1730301 -1.3328873 0.31277803 -2.4387305 1.4780322
1.2354885 1.0997558 0.5038589 -3.885062 1.0323684 0.28516543 -2.4234054 -3.364217
-0.6239091 0.46777233 -2.6953833 -0.17596556 -0.7406212 -4.739158 -2.5762632 -3.6052878
0.5112834 -1.4014342 0.50412506 -0.9012195 1.2537634 -2.5270162 0.5832265 0.18965761
0.19073804 1.2083509 -0.61655134 -3.2154362 -2.573565 -2.8392823 -2.4468915 -1.46587
0.50178045 1.1859368 -4.052146 1.7745984 0.50379324 0.27784905 0.48547342 -2.3207338
-2.6093874 0.9107217 -0.78237396 -0.64381343 -0.32982352 1.2261562 -1.2923297 -2.4303482
1.230634 1.2012838 1.4228357 -0.8205056 0.8842499 1.3512584 -2.0342543 0.60644126
