app/models/disc_K3_deg1_-15_4.pth (torch, 20470 bytes, 5 tensors)

model.0.weight f4 [64, 2]
0	0xbf365ca9	-0.7123514
1	0xbda1c409	-0.07898719
2	0xbf5b9632	-0.85776055
3	0xbe82699e	-0.25471205
4	0x3f9f031f	1.2422827
5	0xbf218d25	-0.63105994
6	0x3dc7f02c	0.09762606
7	0x3f256667	0.6460938
8	0x3fa6b696	1.3024471
9	0xbf2499ae	-0.64296997
10	0x3fa53238	1.290595
11	0xbf22d3d3	-0.6360447
12	0x3faace8b	1.3344282
13	0xbf2830d7	-0.65699524
14	0xbec2ebae	-0.38070434
15	0x3f2b264f	0.6685533
16	0x3eead913	0.4586874
17	0x3e087d93	0.13329153
18	0x3e8f9a9b	0.28047642
19	0x3f34e952	0.7066852
20	0x3f94373f	1.157936
21	0xbf15da54	-0.5853627
22	0xbec93920	-0.39301395
23	0x3ee844f8	0.4536512
24	0x3fa1646e	1.2608774
25	0xbf2086ce	-0.62705696
26	0x3fb776b6	1.4333103
27	0xbf32f361	-0.69902617
28	0xbe1b52eb	-0.1516835
29	0xbf0fdd5d	-0.5619715
30	0xbf0ba557	-0.54549164
31	0x3f062a8b	0.52408665
32	0xbf9939cf	-1.1970767
33	0x3edc461c	0.4302224
34	0xbf6addd4	-0.9174473
35	0xbde538f2	-0.11192502
36	0xbf66c0e1	-0.9013806
37	0x3dc92ebb	0.09823366
38	0x3fb9b13a	1.450721
39	0xbf3492ca	-0.7053648
40	0xbe33525e	-0.1751189
41	0xbf25ce97	-0.64768356
42	0x3f9122a9	1.1338702
43	0xbf13a0dc	-0.57667327
44	0x3fb25aa0	1.3933907
45	0xbf2f8d6d	-0.68575174
46	0x3fb40c29	1.4066211
47	0xbf30f5ac	-0.69124866
48	0x3f9d7dba	1.2303994
49	0xbf1d21ab	-0.613795
50	0x3faecd08	1.365632
51	0xbf2c0bc0	-0.6720543
52	0x3f313532	0.69221795
53	0xbdb67148	-0.089083254
54	0xbf98deb5	-1.1942965
55	0xbe20e544	-0.15712458
56	0x3f81454f	1.0099276
57	0xbf05a5c9	-0.52206093
58	0xbf890f20	-1.0707741
59	0x3ebe4dc1	0.37168697
60	0xbf726fa1	-0.9470158
61	0x3f00ee2d	0.5036343
62	0xbf35b213	-0.70974845
63	0x3ef182ae	0.47170013
64	0xbeb875d6	-0.36027402
65	0x3ef8f7ce	0.4862656
66	0xbf0e5f06	-0.55613744
67	0xbeb0574c	-0.34441602
68	0xbfdcb3f8	-1.7242422
69	0xc0130ac9	-2.2975333
70	0x3f80f7f6	1.0075672
71	0xbf03321b	-0.5124833
72	0xbef5721c	-0.4793862
73	0x3f09f335	0.5388673
74	0xbe060eee	-0.13091633
75	0x3f14da4a	0.5814558
76	0x3f0b89b3	0.5450699
77	0xbd1e0643	-0.03858019
78	0x3fb48aa1	1.4104806
79	0xbf309f0e	-0.689927
80	0xbf91f490	-1.140276
81	0x3ed3e57e	0.41386026
82	0xbf59c67f	-0.85068506
83	0x3ed5bb8e	0.41744655
84	0x407c785f	3.9448469
85	0x3e8806af	0.265676
86	0xbf782a9d	-0.9694002
87	0x3efae77c	0.49004734
88	0x3fb23207	1.3921517
89	0xbf2e6af3	-0.6813194
90	0xbf894a95	-1.0725886
91	0x3ef76863	0.48321828
92	0x3faca963	1.3489193
93	0xbf2a5ee4	-0.6655104
94	0x3fb38482	1.4024813
95	0xbf2f421a	-0.6846024
96	0x3f9f1bf0	1.2430401
97	0xbf1f0b76	-0.62126863
98	0x3fad807f	1.3554839
99	0xbf2a6637	-0.6656222
100	0x3f18e4e2	0.5972425
101	0x3dad2b3f	0.08455514
102	0x3fb26cca	1.393945
103	0xbf2dd3f7	-0.6790156
104	0xbf0612ed	-0.5237263
105	0xbabae01b	-0.0014257462
106	0xbfab62ee	-1.3389566
107	0x3f026f24	0.5095084
108	0x3fb36045	1.4013754
109	0xbf30c6d7	-0.69053406
110	0x3f9162ea	1.1358311
111	0x3e8dc5e5	0.27690044
112	0x3fa15d34	1.2606568
113	0xbf2020c2	-0.62549984
114	0xbf571e01	-0.8403016
115	0x3eafbc1f	0.34323213
116	0xbf7659f4	-0.9623101
117	0x3edf51cc	0.43617094
118	0xbf7211df	-0.9455852
119	0x3ec93784	0.39300168
120	0xbdec1284	-0.11526969
121	0x3f0bcfe6	0.546141
122	0x3fa3ea3c	1.2805858
123	0xbf22c605	-0.63583404
124	0x404aef8e	3.1708713
125	0x3f4d56ca	0.80210555
126	0xbf933146	-1.1499412
127	0x3e1d1ce3	0.1534305

model.0.bias f4 [64]
0	0x407c673e	3.9438014
1	0x40964231	4.69558
2	0x40b47ca7	5.6402164
3	0xbfdaf0a0	-1.7104683
4	0x40bea775	5.9579415
5	0x40bdccfa	5.9312716
6	0x40cc0e60	6.3767548
7	0xc023b1c6	-2.5577254
8	0x3fda77dd	1.7067829
9	0x402bc8be	2.6841273
10	0x40a889dc	5.2668285
11	0xbfd07a02	-1.6287234
12	0x40bcf663	5.9050765
13	0x40d777c6	6.733371
14	0x414e8699	12.907861
15	0xc0224af9	-2.535826
16	0xc062e2bc	-3.5450888
17	0x4041dd1c	3.0291204
18	0x3f57e37b	0.8433148
19	0x40debc8c	6.960516
20	0x416b8598	14.720116
21	0x409e8b67	4.954517
22	0x40d1c5ab	6.5553794
23	0x40d40863	6.626024
24	0x40b70fc9	5.720677
25	0x40cd3fff	6.414062
26	0x409a674f	4.825111
27	0xbf049439	-0.5178867
28	0x408b1e70	4.3474655
29	0xc0340350	-2.8127022
30	0xc0652cb0	-3.5808525
31	0xc02e05d6	-2.7191062
32	0x40a5f0db	5.1856513
33	0x3e89fb98	0.26949763
34	0x40035758	2.052206
35	0x407609b0	3.8443413
36	0xc01b03c4	-2.4221048
37	0x406934f7	3.6438577
38	0x408fc4d4	4.492777
39	0x40d6b525	6.7096124
40	0xc052db2b	-3.294627
41	0xc02d8cc9	-2.7117178
42	0x405e6aff	3.4752805
43	0xc061f34f	-3.5304754
44	0x40d1d2bc	6.5569744
45	0xc06c5ce5	-3.6931698
46	0x40ca95b1	6.330773
47	0x40d72059	6.7226987
48	0x40ba2bf2	5.8178644
49	0x40cc8d3e	6.3922415
50	0x405bdc79	3.4353316
51	0x40d231a4	6.5685596
52	0x41144d43	9.268863
53	0xc08e05bd	-4.4382005
54	0x40d34602	6.602296
55	0x3fe8205c	1.8134875
56	0x40b6beca	5.7107897
57	0xc00950e4	-2.1455622
58	0xc046adce	-3.1043582
59	0xc02e5d1a	-2.7244325
60	0xbfb0e829	-1.382085
61	0x40bec6b3	5.9617553
62	0xbf465ad5	-0.7748235
63	0xbf9ca09a	-1.2236512

model.2.weight f4 [64, 64]
0	0x3f7b791b	0.9823167
1	0x3f817ab3	1.011557
2	0xc0041412	-2.063725
3	0xbf094167	-0.5361542
4	0xc05ab605	-3.4173596
5	0xc02fa17c	-2.7442312
6	0xc0820af2	-4.063836
7	0xbf4ed054	-0.80786633
8	0x3ed35eb3	0.41283187
9	0x3eb72c73	0.357761
10	0xbff70e3a	-1.9301217
11	0xbf32942a	-0.6975733
12	0xc057c9dd	-3.3716958
13	0xc0732c12	-3.7995648
14	0x3f5467c2	0.8297082
15	0xbfdebc77	-1.7401265
16	0xc03d992f	-2.9624746
17	0x3f94fb7e	1.1639249
18	0x3e6ed078	0.23321712
19	0xc0a6f9fd	-5.218016
20	0x3f3278ca	0.6971556
21	0xbfac2445	-1.3448569
22	0xc0508181	-3.2579043
23	0xc04d611c	-3.209052
24	0xc0167eb7	-2.351484
25	0xc04cfe7f	-3.2030332
26	0x3fc685b2	1.550955
27	0xbf875f79	-1.0576011
28	0xbf8c95d7	-1.0983227
29	0xc0042719	-2.0648863
30	0xc0753e6f	-3.8319356
31	0xc0098662	-2.148827
32	0x3f2a4dfe	0.66525257
33	0xc083810d	-4.1095033
34	0xc03b0ac1	-2.9225314
35	0xc0058fdc	-2.0869055
36	0xbfac1263	-1.3443111
37	0x3f13b35a	0.57695544
38	0x3fb04c62	1.377331
39	0xc0740473	-3.8127716
40	0xc038ae31	-2.8856318
41	0xc002eb9c	-2.0456305
42	0xbf13968b	-0.57651585
43	0xc07e5418	-3.9738827
44	0xc083c377	-4.1176105
45	0xc0693727	-3.6439912
46	0xc05b9f30	-3.431591
47	0xc0943c87	-4.6323886
48	0xc025f179	-2.5928633
49	0xc073b1f9	-3.8077376
50	0x3f883cfb	1.064361
51	0xc03a42f0	-2.9103355
52	0x3f59b38d	0.850396
53	0xc03ca917	-2.9478204
54	0xc04e17ea	-3.2202096
55	0x3e427017	0.18988071
56	0xc057c52f	-3.3714101
57	0xbfb40bf2	-1.4066145
58	0xc03ca026	-2.9472747
59	0xc00a2031	-2.1582148
60	0xbf04af3a	-0.51829875
61	0xc0404ec8	-3.0048084
62	0xbfc5d48b	-1.5455488
63	0xbeba4c9e	-0.3638658
64	0x3f6e41b8	0.9306903
65	0x3f42117d	0.75807935
66	0xc047194b	-3.1109188
67	0xbf4c1e4b	-0.79733723
68	0xc085050f	-4.1568675
69	0xc0876eda	-4.2322817
70	0xc096f3db	-4.7172675
71	0xbf82291d	-1.0168797
72	0x3e7e19c6	0.2481452
73	0x3eac7c8f	0.3368878
74	0xc060726d	-3.506984
75	0xbf750711	-0.9571391
76	0xc09355f1	-4.604241
77	0xc08cc650	-4.399208
78	0x3f91ce3e	1.1391065
79	0xbff3eb04	-1.9056096
80	0xc04dcd4a	-3.2156549
81	0x3f927b03	1.144379
82	0x3e92807c	0.2861365
83	0xc0ab4be0	-5.353012
84	0x3f501633	0.81283873
85	0xc04e1a3a	-3.2203507
86	0xc08229b8	-4.0675926
87	0xc07bb34a	-3.932818
88	0xc060571d	-3.505317
89	0xc0890d54	-4.282877
90	0x3fc9099f	1.5706061
91	0xbf86d6cd	-1.0534302
92	0xc0332930	-2.799389
93	0xc00eb0a0	-2.2295303
94	0xc07c5da4	-3.9432154
95	0xc01dc289	-2.4649985
96	0x3f1e8e4c	0.6193588
97	0xc05f0cb0	-3.4851494
98	0xc00fb82b	-2.2456157
99	0xc0438246	-3.0548263
100	0xbfd6e051	-1.6787206
101	0x3f275023	0.65356654
102	0x3fc0f50b	1.5074781
103	0xc09299c5	-4.5812707
104	0xc04ee8b4	-3.232953
105	0xc01d92de	-2.462089
106	0xc00906fe	-2.1410518
107	0xc080d5ad	-4.0260835
108	0xc093f069	-4.623097
109	0xc069da8a	-3.6539636
110	0xc07fd8a7	-3.9975984
111	0xc0a3fe6a	-5.1248064
112	0xc0717747	-3.772905
113	0xc09642dd	-4.695662
114	0x3f7878c5	0.9705928
115	0xc06af265	-3.6710446
116	0x3f93a1b4	1.1533723
117	0xc04874e5	-3.1321347
118	0xc0780202	-3.8751225
119	0xbe3cc2fe	-0.18433759
120	0xc07b8ca5	-3.9304593
121	0xbfe3e3a1	-1.7803842
122	0xc05324da	-3.2991242
123	0xc01f21e3	-2.4864433
124	0xbf337771	-0.7010413
125	0xc0768e1b	-3.8524234
126	0xc01ed9a1	-2.482033
127	0xbf19e003	-0.6010744
128	0x3f70318e	0.93825614
129	0x3f29baaa	0.6630045
130	0xc046599f	-3.09922
131	0xbe76ed8a	-0.24114051
132	0xc0816b8f	-4.0443797
133	0xc08cc714	-4.3993015
134	0xc09dd787	-4.9325595
135	0xbf182e9e	-0.5944613
136	0x3f49ac12	0.78778183
137	0x3f0fbf8f	0.5615167
138	0xc055a9c6	-3.3384871
139	0xbf0220c3	-0.5083124
140	0xc0987173	-4.763849
141	0xc08b0b96	-4.3451643
142	0x3f73af66	0.9518951
143	0xbfcdf467	-1.6090211
144	0xc058b6ad	-3.3861496
145	0x3f3aa104	0.7290194
146	0x3e69373a	0.22774974
147	0xc0c06bf1	-6.0131764
148	0x3f61c1e3	0.8818647
149	0xc03d9790	-2.9623756
150	0xc07cf198	-3.9522457
151	0xc07dae4b	-3.963763
152	0xc05f4aef	-3.4889486
153	0xc08bdf33	-4.370996
154	0x3ff74dfb	1.9320673
155	0xbfb36722	-1.4015849
156	0xc01c58e3	-2.4429252
157	0xc0185ca7	-2.380655
158	0xc07ca82c	-3.9477644
159	0xc00c6195	-2.193456
160	0x3f632d10	0.88740635
161	0xc08ec0c7	-4.4610324
162	0xc0893715	-4.287974
163	0xc068c203	-3.6368415
164	0xbfb00c75	-1.3753802
165	0x3f611950	0.8792925
166	0x3fdd1223	1.727116
167	0xc09023d6	-4.5043745
168	0xc04e6844	-3.2251139
169	0xc0128d99	-2.2898924
170	0xbfbb37ec	-1.4626441
171	0xc08418eb	-4.1280417
172	0xc09a5061	-4.822312
173	0xc06c7696	-3.694738
174	0xc07d5f8e	-3.9589572
175	0xc0ba0fc2	-5.8144236
176	0xc063d108	-3.5596333
177	0xc09fdd9f	-4.9958034
178	0x3fa9c004	1.3261724
179	0xc072cc5e	-3.7937236
180	0x3f85a009	1.0439464
181	0xc059b9d8	-3.401968
182	0xc073d3dd	-3.809806
183	0x3f60ef9b	0.8786561
184	0xc078c82a	-3.887217
185	0xbfe8e681	-1.8195344
186	0xc0538bf5	-3.3054173
187	0xc025c4ee	-2.5901446
188	0xbea4cf7a	-0.32189542
189	0xc06d0fa8	-3.7040806
190	0x3f713700	0.9422455
191	0xbf519db4	-0.8188126
192	0xbed509e3	-0.41609105
193	0xbe53cfe7	-0.20684777
194	0x3dc2db1e	0.095144495
195	0x3f04fc62	0.51947606
196	0x3e741df1	0.23839547
197	0x3ee30849	0.4434226
198	0x3d538441	0.0516398
199	0x3f16597c	0.5873029
200	0x3e8e3cd5	0.27780786
201	0xbe739635	-0.23787768
202	0x3ea843b5	0.32864156
203	0x3f1c2df6	0.6100763
204	0x3ef2b016	0.47399968
205	0x3cfded67	0.030996991
206	0xbeda6de9	-0.4266198
207	0x3f66883a	0.90051615
208	0x3f09a400	0.5376587
209	0xbe5c0495	-0.21486123
210	0xbe3e2e53	-0.18572359
211	0xbad1d3d7	-0.0016008568
212	0xbf10494b	-0.56361836
213	0x3f1247ee	0.57141006
214	0x3f5686b6	0.837993
215	0x3f42907c	0.76001716
216	0x3dceb0ef	0.10092341
217	0x3e32dd8f	0.1746733
218	0xbdc3ed34	-0.09566727
219	0x3f8ee7c6	1.1164482
220	0x3f766aec	0.962569
221	0x3ed14b45	0.4087774
222	0x3f71ca86	0.9444965
223	0x3f901556	1.1256511
224	0xbeddd5ab	-0.43327078
225	0x402ca8eb	2.69781
226	0x3fa640b6	1.2988498
227	0x3d175d90	0.036954463
228	0x3f70489c	0.93860793
229	0xbe98e164	-0.2985946
230	0xbdd7ea4a	-0.10542734
231	0x3f4ec366	0.80766904
232	0x3ef12e41	0.471056
233	0x3f509459	0.8147636
234	0x3de0e186	0.10980515
235	0x3f3fbec1	0.7490044
236	0xbbb28b01	-0.0054486995
237	0x3ee06840	0.43829536
238	0x3f823db5	1.0175081
239	0x3e3df611	0.18550898
240	0x3d5a5206	0.05330088
241	0x3e4a75ca	0.19771495
242	0x3d1d88c8	0.038460523
243	0x3e814cf0	0.2525401
244	0xbede7fac	-0.4345678
245	0x3eeb72c5	0.45986
246	0x3f67cc29	0.905459
247	0x3ed1ec2d	0.410005
248	0x3eac9313	0.3370596
249	0x3ee18cae	0.44052643
250	0x3f0b846d	0.5449894
251	0x3ea413ee	0.32046455
252	0x3ef06f66	0.4695999
253	0x3e5ec766	0.21755752
254	0x3f3339ee	0.7001027
255	0x3eb21e2c	0.34788644

model.2.bias f4 [64]
0	0x3fb24606	1.392762
1	0x3fdb876a	1.71507
2	0x3fd9aa30	1.7005062
3	0xbe6853c0	-0.22688198
4	0x3fe7ea87	1.8118447
5	0x3fa14918	1.2600431
6	0xbe0e4af2	-0.13895777
7	0x3ff130c2	1.8843005
8	0x3eebf288	0.46083474
9	0x3f611ac6	0.8793148
10	0xbe5bfd8d	-0.2148344
11	0xbf031747	-0.51207393
12	0x3f69212f	0.9106626
13	0x3f82ab2c	1.0208488
14	0xbe0ec297	-0.13941418
15	0x3f91f290	1.1402149
16	0x3f751844	0.9574015
17	0x3f96be93	1.1776909
18	0x3e444b79	0.19169416
19	0x3f44a991	0.7682124
20	0x3f8ca993	1.098925
21	0x3f8ed33f	1.1158217
22	0xbf33606b	-0.70069
23	0x3ecb269a	0.39677888
24	0xbd8cb265	-0.068699636
25	0x3e36e109	0.17859282
26	0x3e0372b5	0.12836726
27	0x3faf18b0	1.3679409
28	0x3e228e24	0.15874535
29	0x3fd18c5c	1.6370959
30	0x3fbbfb54	1.4686074
31	0x3f84274e	1.0324495
32	0x3e36df56	0.17858633
33	0xbe9512d9	-0.29115942
34	0xbf09f34d	-0.5388687
35	0xbfd024b0	-1.6261196
36	0x3faba5ed	1.3410012
37	0xbeadfff7	-0.33984348
38	0x3f2a2491	0.66462046
39	0x3f551954	0.8324177
40	0x3e1b39e8	0.15158808
41	0x3f90f82c	1.1325736
42	0xbf16e282	-0.58939373
43	0x3f84ae50	1.0365696
44	0x3d7b997e	0.06142568
45	0x3eb2edba	0.34946996
46	0xbe44b413	-0.19209318
47	0x3f8466de	1.0343893
48	0x3f7ddf61	0.99168974
49	0xbc55603b	-0.013023431
50	0xbea76074	-0.32690775
51	0x3f9039f1	1.1267682
52	0x3f8d6b4f	1.1048373
53	0x3f975d7f	1.1825408
54	0x3f96e53c	1.1788707
55	0x3fab3b25	1.3377424
56	0x3f7bd67e	0.98374164
57	0x3f941076	1.1567523
58	0x3f94d8a3	1.1628612
59	0xbfa5d614	-1.2955956
60	0x3fd0e55a	1.6319993
61	0x3f94c917	1.1623868
62	0xbe4c6a92	-0.19962528
63	0x3fa9e9cd	1.3274475

model.4.weight f4 [1, 64]
0	0x40a1106c	5.0332546
1	0x40b830eb	5.7559714
2	0x40a2411b	5.0704474
3	0x3f146741	0.5797005
4	0x4097c4d0	4.742775
5	0xc0dddabd	-6.9329515
6	0x3ed56c93	0.41684398
7	0x40abd8cc	5.3702145
8	0x40af0edc	5.470564
9	0xc10a3c8e	-8.639784
10	0xc18f6bd4	-17.92765
11	0x400f7049	2.2412283
12	0x40010945	2.0161908
13	0x40044e6d	2.0672867
14	0x3ea48f43	0.3214055
15	0xc0f2a6bc	-7.5828533
16	0xc0f2c616	-7.5866804
17	0xc0b935e9	-5.787831
18	0x3e0f1f66	0.13976821
19	0x407f79e6	3.991815
20	0xc0df49c8	-6.9777565
21	0xc0f35cc5	-7.6050744
22	0xbf2a4f86	-0.66527593
23	0xbf4b1fe5	-0.7934554
24	0xc1918e94	-18.194618
25	0xbfa67cce	-1.3006837
26	0x3ed3241d	0.4123849
27	0xc026e0ba	-2.6074662
28	0xc1628c1b	-14.159205
29	0x40aedcf3	5.4644713
30	0x40ba5ba4	5.8236866
31	0xc0f69dfd	-7.7067857
32	0x3e95eee2	0.29283816
33	0x3f1aeda2	0.6051885
34	0x401fe001	2.498047
35	0xc01344b9	-2.3010695
36	0x40bbd5ba	5.8698397
37	0xc1908191	-18.063265
38	0xc11fc622	-9.985872
39	0xc04f2790	-3.2367897
40	0x3da3bf58	0.0799548
41	0xc1081c38	-8.506889
42	0xbeecf37a	-0.46279508
43	0x4004b746	2.0736861
44	0xbf639ee2	-0.8891431
45	0xc137498a	-11.455454
46	0xc182846d	-16.314661
47	0xc0ddde1f	-6.9333644
48	0x401c602b	2.4433696
49	0x3f03b0d4	0.51441693
50	0xc196ce8c	-18.850853
51	0xc0db2b64	-6.8490467
52	0xc0ed8cef	-7.423454
53	0xc0d83ceb	-6.7574363
54	0x4039ced9	2.90325
55	0xc067963f	-3.6185453
56	0x3fc1aad5	1.5130259
57	0xc03b50c6	-2.926805
58	0xc08d7ec1	-4.421723
59	0xbf89e74d	-1.0773712
60	0x40adc76e	5.4305944
61	0x3ff2e189	1.8975078
62	0x3f2918e7	0.6605362
63	0x40db2bc3	6.849092
