app/models/disc_K3_deg1_-8_6.pth (torch, 20460 bytes, 5 tensors)

model.0.weight f4 [64, 2]
0	0x3f7293b4	0.9475663
1	0xbe960bbc	-0.29305828
2	0x3f4636a8	0.7742715
3	0x3e0e4fa8	0.13897574
4	0xbec133c3	-0.37734804
5	0x3f0bb838	0.5457797
6	0xbdcfc4c6	-0.101449534
7	0xbf906546	-1.1280906
8	0x3f12bc2f	0.57318395
9	0x3f0e6e63	0.55637187
10	0xbf3d42ea	-0.7393023
11	0x3f19d98f	0.60097593
12	0x3ea80fc4	0.32824528
13	0xbfa6dee3	-1.303677
14	0x3f268a4c	0.65054774
15	0x3d72b67d	0.059256066
16	0x3f5665fe	0.8374938
17	0xbf083e10	-0.532197
18	0x3fa5227d	1.290115
19	0xbf1caec9	-0.612042
20	0x3d235c51	0.03988296
21	0x3f2c68ab	0.6734721
22	0x3f08f2dd	0.5349558
23	0xbdf15356	-0.11783473
24	0xbf0c0a18	-0.547029
25	0x3f3b1ca3	0.7309057
26	0xbe987a69	-0.29780892
27	0x3f23670a	0.638291
28	0xbd6a2ca6	-0.057171486
29	0x3e2c30a4	0.1681543
30	0xbf625080	-0.88404083
31	0x3ed925cd	0.42411652
32	0xbf6c3cd8	-0.9228034
33	0x3ef6df42	0.48217207
34	0x3f1ac0cb	0.6045043
35	0xbf117f48	-0.5683484
36	0xbf7882f3	-0.9707481
37	0x3f30a43c	0.690006
38	0xbf88de57	-1.0692853
39	0x3f29b99d	0.6629885
40	0xbf99ddc6	-1.2020805
41	0x3f42d515	0.7610639
42	0x3f03dd2e	0.5150937
43	0x3f112bb7	0.5670733
44	0xbf7456f5	-0.95445186
45	0x3ef31938	0.47480178
46	0xbf1cfba3	-0.6132147
47	0x3f45a76d	0.77208596
48	0x3ff52f0a	1.915498
49	0x3d786eac	0.06065242
50	0x3efafb6b	0.49019942
51	0x3eebae09	0.46031216
52	0x3faa0047	1.3281335
53	0xbe33a4f5	-0.17543395
54	0xbf79d93b	-0.9759709
55	0x3ecfe69a	0.40605623
56	0x3f9bee37	1.2182072
57	0xbe745309	-0.238598
58	0xbf1927b8	-0.5982623
59	0x3eefaf6a	0.46813518
60	0xbf8d5911	-1.1042806
61	0x3ee26009	0.44213894
62	0x3eb87c72	0.36032444
63	0x3f1d04e4	0.6133559
64	0xbf6dfc20	-0.9296284
65	0x3f34481c	0.7042253
66	0xbf14e85a	-0.5816704
67	0x3e41af6c	0.18914574
68	0x3f5035c0	0.81332016
69	0x3f118574	0.5684426
70	0x3fa921ea	1.3213475
71	0xbe402126	-0.18762645
72	0xbed26458	-0.4109218
73	0x3eeead24	0.4661647
74	0xbf33838a	-0.7012259
75	0x3f23b79e	0.6395205
76	0xbfa26689	-1.2687541
77	0x3e9d9bc2	0.30782896
78	0xbf9e898e	-1.2385728
79	0x3ea2cf15	0.31798616
80	0x3f4ade6a	0.79245627
81	0xbf0ccd76	-0.5500101
82	0xbf93519e	-1.1509283
83	0x3f3c36e1	0.7352124
84	0xbf256829	-0.6461206
85	0xbe71e689	-0.23623098
86	0xbdc8fa43	-0.09813359
87	0x3f787104	0.9704745
88	0x3f855783	1.0417331
89	0x3ebc889e	0.3682298
90	0xbf0e627c	-0.55619025
91	0xbe6e7f1e	-0.23290679
92	0xbf9211cc	-1.1411681
93	0x3ef25244	0.4732839
94	0xbf83ecae	-1.0306604
95	0xbe65f69b	-0.22457354
96	0x3f5afdf7	0.8554377
97	0xbec1649e	-0.37772077
98	0xbf9c3d05	-1.2206122
99	0xbf482470	-0.781806
100	0xbf3517af	-0.70739263
101	0x3ec8e76b	0.39239058
102	0xbdb314b9	-0.08744187
103	0x3f5a772a	0.8533808
104	0xbf57f9ed	-0.8436573
105	0x3ea94365	0.3305923
106	0x3faa60bd	1.3310772
107	0xbf31fad2	-0.69523346
108	0x3f100f0a	0.5627295
109	0xbef185e2	-0.47172457
110	0x3f03cc04	0.5148318
111	0xbf1b37ee	-0.60632217
112	0x3ea7ec79	0.32797602
113	0x3f42846e	0.7598332
114	0xbfa68c24	-1.3011518
115	0x3e98348b	0.29727587
116	0x3ed33fd8	0.41259646
117	0xbf112470	-0.56696224
118	0x3f0ccee0	0.55003166
119	0xbf4adb47	-0.7924084
120	0x3d8bf978	0.06834692
121	0xbf8b974b	-1.0905546
122	0x3f4da91f	0.80336183
123	0xbf0c0272	-0.5469123
124	0x3d9c5b56	0.076346084
125	0x3dcd67f6	0.100295946
126	0x3f079f5b	0.5297753
127	0x3f152ce8	0.58271646

model.0.bias f4 [64]
0	0x3f8de572	1.1085646
1	0xbca8ca1a	-0.020604182
2	0xbfaf785a	-1.3708603
3	0x3fe2eb2e	1.7728021
4	0x3cbd69e6	0.023121785
5	0xbff26f49	-1.8940212
6	0x406736aa	3.6127114
7	0x3fb47236	1.4097354
8	0x3ffff93f	1.9997939
9	0x4055afb2	3.3388486
10	0xbf578e3a	-0.84201396
11	0xbf430f43	-0.7619516
12	0x3ff232cb	1.8921751
13	0xbfb5727d	-1.4175564
14	0x3fe413d6	1.7818553
15	0xbfcecac4	-1.6155629
16	0xc004649a	-2.0686402
17	0x3ff4022b	1.9063162
18	0x3fb8d114	1.4438806
19	0xc0367271	-2.850735
20	0x3fccb9b2	1.599417
21	0xbf2ec47c	-0.6826856
22	0x3ff940c2	1.9472888
23	0x3fd57e63	1.6679195
24	0x3f93027c	1.1485133
25	0xbf5c99e7	-0.86172336
26	0x3fabde6e	1.3427255
27	0x3f7a6b15	0.97819644
28	0x3fc9b417	1.5758084
29	0xbea98ab8	-0.33113647
30	0xc00e85ea	-2.2269235
31	0x3fab4b36	1.3382328
32	0xc028d058	-2.6377163
33	0x400d6b4c	2.209674
34	0xbf23f378	-0.6404338
35	0x3fc3738b	1.5269636
36	0x3f6260bf	0.8842887
37	0xc005d95e	-2.091392
38	0xbff1601e	-1.8857458
39	0xbfef1854	-1.8679299
40	0x4000b8ea	2.0112863
41	0x3fdcd462	1.7252314
42	0x3dcae6f3	0.09907331
43	0xbfc3d95f	-1.5300711
44	0xbf1d6fb2	-0.6149856
45	0xbe5c71d3	-0.21527795
46	0xc016071d	-2.3441842
47	0xbe9d5432	-0.30728298
48	0x3fa584a0	1.2931099
49	0x3e8070a3	0.25085935
50	0x3d266c95	0.040630896
51	0x3fab905a	1.3403428
52	0xbf9eb794	-1.2399774
53	0x406efbbb	3.7341144
54	0x3f6fc66b	0.93662137
55	0x3fbe2b76	1.4857013
56	0x3fa55d96	1.2919185
57	0xbff09a16	-1.8797023
58	0x3f896d0c	1.0736403
59	0x402e8767	2.7270143
60	0x3f81f798	1.0153685
61	0x400a8986	2.1646438
62	0x3e453763	0.1925941
63	0xbe77e863	-0.24209742

model.2.weight f4 [64, 64]
0	0xbfcb5aae	-1.5887048
1	0x3e52802d	0.20556708
2	0xbe4b973f	-0.19881915
3	0xbf986ee8	-1.1908846
4	0x3d677a47	0.056513097
5	0xbe988666	-0.29790038
6	0xbfc424a0	-1.5323677
7	0xbe7b94ca	-0.24568477
8	0xc001b9fb	-2.0269763
9	0xc0682b15	-3.6276295
10	0xbd86deb2	-0.065854445
11	0x3e1250db	0.14288656
12	0x3da878d2	0.0822617
13	0x3c9a8af2	0.018865082
14	0xbe05003e	-0.12988374
15	0xbecc10ed	-0.39856663
16	0xbf3d4b2d	-0.73942834
17	0xc0187b66	-2.3825316
18	0x3cf160de	0.029465135
19	0xbf7d533a	-0.9895512
20	0xbd6c1941	-0.05764127
21	0x3d9c34ec	0.076272815
22	0xbdf0a4f9	-0.11750216
23	0xbd8df95c	-0.06932327
24	0xbfbfe467	-1.4991578
25	0x3db6d4be	0.08927296
26	0xbfa082cd	-1.2539917
27	0xbd8d96ae	-0.069135055
28	0xbf9fe27c	-1.2490993
29	0x3b64393d	0.0034824156
30	0xbf6ab199	-0.9167724
31	0x3cb08bf7	0.021551115
32	0xbf363a44	-0.71182656
33	0xbe361910	-0.17782998
34	0x3d8b611f	0.06805634
35	0xbfd6d802	-1.678467
36	0xbe0fb55e	-0.1403403
37	0xbed41cca	-0.41428214
38	0xbeb2ecc4	-0.34946263
39	0xbf0f2876	-0.55921113
40	0xc00b1c66	-2.1736083
41	0x3d613073	0.054977845
42	0x3edc5ff3	0.43041953
43	0x3e379c87	0.17930804
44	0x3e90eb67	0.28304598
45	0x3f9bd314	1.2173791
46	0xbf8116ae	-1.0085046
47	0x3e82dc96	0.2555892
48	0xbf8e171f	-1.1100806
49	0x3e560a12	0.20902279
50	0x3dfa16c5	0.12211374
51	0xbddcf24c	-0.10788402
52	0xbd700ebb	-0.058607798
53	0xc06a43e3	-3.6603935
54	0xbf73d4c0	-0.95246506
55	0xbf746fa0	-0.95482826
56	0xbd587585	-0.05284645
57	0xbeb9e485	-0.3630716
58	0xbf2e67de	-0.6812724
59	0xc026c541	-2.6057894
60	0xbf146c9f	-0.5797824
61	0xc030de29	-2.7635596
62	0xbe3d77a2	-0.18502668
63	0x3db533a8	0.08847743
64	0xbf1182ed	-0.568404
65	0xbd93a447	-0.07209068
66	0xbe9235f3	-0.28556785
67	0xbfad0f3e	-1.3520277
68	0xbd249d88	-0.040189296
69	0xbeec2a69	-0.46126106
70	0xbefea082	-0.49731833
71	0x3df073b2	0.11740817
72	0xbf272b7e	-0.6530074
73	0xbefa2c85	-0.4886209
74	0xbe3065a1	-0.17226268
75	0xbe8309dc	-0.2559346
76	0x3e2f4699	0.17116775
77	0xbe3bbbef	-0.1833341
78	0x3e9346c2	0.2876492
79	0xbf59ef09	-0.85130364
80	0xbf98c49d	-1.1935002
81	0xbf618e2b	-0.88107556
82	0x3ea60c3d	0.32431212
83	0xbfc7f248	-1.5620813
84	0x3e52221e	0.20520827
85	0xbe2bb946	-0.16769895
86	0x3e947658	0.2899654
87	0x3e04d4cc	0.129718
88	0xbed0bf3b	-0.40770897
89	0x3d1811df	0.03712642
90	0xbebc72a6	-0.3680622
91	0x3e00df35	0.12585147
92	0xbe93200a	-0.2873538
93	0x3c54ad41	0.01298076
94	0xbfd57f48	-1.6679468
95	0x3e1926d1	0.14956214
96	0xbf720826	-0.94543684
97	0x3df3b0b6	0.11898939
98	0xbcf57a1a	-0.02996545
99	0xbe8460e5	-0.25855175
100	0xbc2ba8ee	-0.010477288
101	0xbf32e466	-0.6987976
102	0xbfb5c4bd	-1.4200665
103	0xbfbee0d7	-1.4912366
104	0xbf290732	-0.66026604
105	0x3e16a7ab	0.14712398
106	0x3ee9587e	0.45575327
107	0xbe27ab45	-0.16373928
108	0xbdd2a0a6	-0.102845475
109	0x3e2722b2	0.16321829
110	0xbffdc398	-1.9825315
111	0x3ecd56a6	0.4010517
112	0xbf5325c4	-0.824795
113	0xbf0af8b6	-0.5428575
114	0xbb0ce46d	-0.0021498457
115	0x3e6d186f	0.23153852
116	0xbf03a15a	-0.5141808
117	0xbeeae5b0	-0.45878363
118	0xbf190253	-0.5976917
119	0xbf1b8b4f	-0.60759443
120	0x3de274bb	0.11057421
121	0xbfc22c3d	-1.516975
122	0xbf10b7a9	-0.56530243
123	0xbf3de379	-0.7417522
124	0xbf38a66e	-0.7212895
125	0xbf67527c	-0.90360236
126	0x3db7a3fa	0.08966823
127	0xbdc6af07	-0.097013526
128	0x3d1cf062	0.038315184
129	0x3dcdec6a	0.10054858
130	0xbd1e54f3	-0.038655233
131	0xbf93b43d	-1.1539379
132	0x3e2a84a9	0.16652168
133	0xbf0aff9f	-0.54296297
134	0xbf5404fa	-0.82820094
135	0x3df9eedb	0.12203761
136	0xbe4213fa	-0.18952933
137	0xbc094c39	-0.008379989
138	0xbda66532	-0.0812477
139	0xbc293b3d	-0.010329065
140	0x3e83852b	0.25687537
141	0xbe604310	-0.21900582
142	0x3f0eda0f	0.5580148
143	0xbf07d0bb	-0.5305287
144	0xbeab1a5c	-0.33418548
145	0xbe0c608e	-0.13708708
146	0x3e09f2a0	0.1347146
147	0xbf93c8eb	-1.154569
148	0x3e03b35f	0.12861393
149	0xbbb19fcb	-0.00542066
150	0x3e79b97a	0.2438716
151	0x3d6e8e6d	0.058241297
152	0x3be02ab8	0.00684103
153	0x3e230c1b	0.15922587
154	0xbdd7116d	-0.105013706
155	0x3d8fa520	0.07013917
156	0x3dbfc94e	0.09364568
157	0xbd28a568	-0.04117337
158	0xbf0d220a	-0.55130064
159	0x3e7810e6	0.24225196
160	0xbf68e04c	-0.9096725
161	0x3e57caf5	0.21073516
162	0xbca4b239	-0.020104514
163	0xbe1427de	-0.14468333
164	0xbc5ee010	-0.013603225
165	0xbf1b2309	-0.60600334
166	0xbed6ac03	-0.4192811
167	0xbf088863	-0.5333311
168	0xbe85301c	-0.26013267
169	0x3e7e2e65	0.24822386
170	0xbe26b634	-0.16280442
171	0xbc9ddaeb	-0.019269427
172	0xbda47453	-0.080299996
173	0xbe0c13d8	-0.13679445
174	0xbf5936c0	-0.84849167
175	0xbe7fa4b4	-0.24965173
176	0xbdeeba0f	-0.116565816
177	0xbf880718	-1.0627165
178	0x3e42293e	0.18961045
179	0x3e574f20	0.21026278
180	0xbec169f2	-0.37776142
181	0xbd6f3d99	-0.058408353
182	0xbd28886d	-0.04114573
183	0xbe9abd97	-0.3022277
184	0x3e10e60d	0.14150257
185	0xbf442952	-0.7662555
186	0xbe50c33e	-0.20386979
187	0xbf49f8f9	-0.7889553
188	0xbf5f860e	-0.87313926
189	0x3e4682b4	0.19385797
190	0x3e2e51eb	0.17023437
191	0x3dcd70b0	0.10031259
192	0xbd8517b4	-0.06498662
193	0xbd803885	-0.0626078
194	0xbc4814a7	-0.012211955
195	0xbd36ab82	-0.044597156
196	0x3ca32f59	0.019920038
197	0x3e5893f3	0.21150188
198	0x3b69431d	0.003559298
199	0xbc8bdd21	-0.017073216
200	0x3bedc664	0.007256316
201	0xbcb0af08	-0.021567836
202	0xbd96717b	-0.073458634
203	0xbd5e37e9	-0.05425254
204	0x3c132f0e	0.008983387
205	0xbdf33294	-0.118748814
206	0xbc5e1532	-0.013554858
207	0xbcdcdeca	-0.026961703
208	0xbe8531c0	-0.2601452
209	0xbe3ffac4	-0.18748003
210	0xbe009219	-0.12555732
211	0x3d84cc61	0.06484295
212	0x3c93e0e1	0.018051567
213	0xbe08a436	-0.13343892
214	0xbd33dc05	-0.043911
215	0xbd09bc10	-0.033626616
216	0xbe607e50	-0.21923184
217	0xbcd09513	-0.02546171
218	0xbe0f7fe6	-0.14013633
219	0xbd92c577	-0.0716657
220	0xbd78dda8	-0.060758263
221	0xbe05e65f	-0.13076161
222	0xbe40c59d	-0.18825383
223	0x3d3033cf	0.04301816
224	0x3d23b83e	0.03997063
225	0x3da836db	0.08213588
226	0x3c5d8f54	0.013522942
227	0xbe1accce	-0.1511719
228	0xbaa9b0de	-0.0012946387
229	0x3d9019b1	0.0703615
230	0x3d3d29aa	0.046182312
231	0x3a0822c4	0.0005193169
232	0xbe8cb627	-0.2748272
233	0x3d96870e	0.073499784
234	0xbdbe7589	-0.09299762
235	0xbe12ffc8	-0.14355385
236	0xbe203232	-0.15644148
237	0xbc17adb3	-0.009257722
238	0xbdf1d7f9	-0.11808772
239	0xbe785ca2	-0.24254087
240	0xbe80b43e	-0.25137514
241	0x3e12eb9d	0.14347692
242	0xbd6c65d7	-0.05771431
243	0xbe26fcca	-0.16307369
244	0xbbf0942b	-0.0073418817
245	0xbded9600	-0.11600876
246	0xbc6275aa	-0.013821999
247	0x3dd90b36	0.105978414
248	0xbdea467b	-0.11439224
249	0x3d827f92	0.06371988
250	0xbd3b94ae	-0.04579609
251	0xbe4c8572	-0.1997278
252	0xbce81c6c	-0.028333865
253	0xbdf04235	-0.11731378
254	0xbe45bd58	-0.1931051
255	0xbd8cb3fc	-0.06870267

model.2.bias f4 [64]
0	0xbe3d4f55	-0.18487294
1	0x3e14205e	0.14465472
2	0x3f00daf5	0.503341
3	0xbca0f5fd	-0.019648546
4	0x3f03779f	0.513544
5	0x3eb4a3bb	0.35281166
6	0x3ec0c845	0.37652794
7	0xbc8aa044	-0.016922124
8	0x3d30b1d0	0.043138325
9	0x3eb0b50b	0.34513125
10	0x3eb32e7b	0.349964
11	0x3d2f884a	0.042854585
12	0x3ebe56bb	0.37175545
13	0x3d9caf0f	0.07650577
14	0xbe86ae61	-0.26304916
15	0xbbcdead1	-0.006284096
16	0x3f02bf2b	0.5107295
17	0xbea63acb	-0.3246673
18	0xbdd635ee	-0.10459505
19	0xbe9ac3c8	-0.30227494
20	0x3ee81a5f	0.4533262
21	0x3e8fcbd7	0.28085205
22	0x3edd1f6a	0.4318803
23	0x3f055c33	0.5209381
24	0x3f397d37	0.7245669
25	0x3f652689	0.89511925
26	0x3efc3047	0.49255583
27	0xbdca8b11	-0.09889806
28	0xbeeda83a	-0.4641741
29	0x3f38be81	0.72165686
30	0xbcadd53b	-0.02121984
31	0xbd258cdd	-0.04041754
32	0xbec41458	-0.3829677
33	0xbe3ec9ce	-0.1863167
34	0xbe542e1c	-0.20720714
35	0xbea203ec	-0.31643617
36	0x3ea20162	0.3164168
37	0xbe2f69a9	-0.1713015
38	0x3e0b9f8a	0.13635078
39	0x3ec862ac	0.3913778
40	0x3edbc21a	0.42921525
41	0x3f04db15	0.5189679
42	0x3e551e19	0.20812263
43	0x3e2a54f5	0.16633971
44	0x3ee7384f	0.45160148
45	0xbdb0bbf5	-0.086296
46	0x3f59226b	0.8481814
47	0x3ed0b854	0.4076563
48	0x3f404b3e	0.7511481
49	0x3edd2e5b	0.4319943
50	0x3f4add62	0.79244053
51	0x3ea49d64	0.3215133
52	0x3f254589	0.6455923
53	0xbc80073b	-0.015628448
54	0x3f4f916c	0.8108127
55	0x3dd4b7ab	0.103865944
56	0x3f4c7dcb	0.79879445
57	0x3ec27c92	0.37985665
58	0x3ec51768	0.3849442
59	0x3c8a421e	0.01687723
60	0x3f68b74c	0.9090469
61	0x3ebacaf4	0.36482966
62	0x3e6945d2	0.2278054
63	0xbd7ef3bb	-0.06224416

model.4.weight f4 [1, 64]
0	0xbfe5102e	-1.7895563
1	0xbf8946f5	-1.0724779
2	0x3ea68c94	0.32529128
3	0xbe212c64	-0.1573959
4	0x3eb1a3ba	0.34695226
5	0x3eb25f25	0.34838215
6	0x3e759921	0.23984195
7	0xbdb25e24	-0.08709362
8	0xbf2b1b9e	-0.66839015
9	0xbf99fe1a	-1.2030671
10	0xbfadcfca	-1.3579037
11	0xbfdce2bd	-1.7256695
12	0xbf98e167	-1.1943787
13	0xbe9ef070	-0.31042814
14	0xbe8a83a7	-0.27053568
15	0xbde4531d	-0.11148665
16	0xbfab97df	-1.3405722
17	0xbfda4b5b	-1.7054247
18	0xbdc78411	-0.097419865
19	0x3ed84174	0.42237437
20	0x3eb226d0	0.34795237
21	0xbf9d359e	-1.2281988
22	0x3ef3eed2	0.47643143
23	0x3f55ffe6	0.83593595
24	0x3f8e181a	1.1101105
25	0x3f879917	1.0593594
26	0xbf9f8a9d	-1.2464176
27	0xbe040ca0	-0.12895441
28	0xc0049043	-2.071305
29	0x3f27de79	0.6557384
30	0xbf0442b8	-0.51664305
31	0xbe9287d8	-0.28619266
32	0xbfeb7f41	-1.839821
33	0xbfdb0bdb	-1.7112993
34	0x3e64367f	0.22286414
35	0xbea73615	-0.3265845
36	0xbf9cd9c2	-1.2253954
37	0xbfcfe5ae	-1.6241968
38	0xbef6a99b	-0.48176274
39	0x3ea7a83b	0.32745537
40	0xbf1e9ef0	-0.6196127
41	0x3e864e9b	0.26231846
42	0xbfb39f3c	-1.403297
43	0x3e474d62	0.19463113
44	0x3e7443a3	0.23853926
45	0xbe415c82	-0.18882945
46	0x3f557936	0.8338808
47	0x3e92fe7b	0.28709778
48	0x3f991e7d	1.1962429
49	0xbf9a4cae	-1.2054651
50	0x3fa1babe	1.2635114
51	0xbf575703	-0.84117144
52	0x3ec1721a	0.37782365
53	0xbebd6ed9	-0.36998633
54	0x3f9be84a	1.2180264
55	0xbeaf7259	-0.34266928
56	0x3f53e843	0.8277628
57	0xbfa6c42e	-1.3028619
58	0x3eaf24be	0.3420772
59	0xbe60415c	-0.21899933
60	0x3f9d2885	1.227799
61	0xbef43ebd	-0.47704116
62	0xbf4e2205	-0.8052066
63	0xbfa457d9	-1.2839309
