app/models/disc_K3_deg1_-15_8.pth (torch, 20470 bytes, 5 tensors)

model.0.weight f4 [64, 2]
00000000: bfdf 013f 30ca 8f3d 51cc 903f ef97 0ebf
00000010: d762 92bf fb56 d93e 96aa 083f c297 aabc
00000020: 1313 b63f b799 2abf 9635 8bbf a6d9 b13e
00000030: 0af5 dcbf 69da 2c3f 62cd b63e 492b c33e
00000040: 7222 76bf 1b76 e73d 4987 a03f 3525 21bf
00000050: b063 5840 cc92 b53e c4d1 8dbf bdba c4be
00000060: 5f2e 8c3f 0e79 f7be 43ee 243f 5246 293c
00000070: bb7c b33e bb39 823c 50f3 8ebf 2c08 9d3e
00000080: 81dd a8be b4d9 0e3f 6fd2 c73e 3368 f63c
00000090: 78d5 44bf 2028 2d3e 640a 163f ce8e fd3e
000000a0: 9ed3 1f3f 1fc9 243f 95c4 94bf 7621 c63e
000000b0: cb25 c33f 95bb 3dbf cc76 c23f fa10 3fbf
000000c0: c1ae 00c0 c438 1bbf e8e5 64bf 5c3b 003f
000000d0: 61a5 3fbf fef0 de3e a36a bd3f 7433 38bf
000000e0: a3db 8ebf 520c e63e 796c 1abf c67b ea3e
000000f0: 77da 4fbf 0550 e93e 2043 e03e f92c a5be
00000100: ef4c 77be ff1d 1c3e 128f b7bf a403 f73e
00000110: 5253 e13d 1598 d83e ca8a 5fbf 42c7 883e
00000120: 5d33 88bf 295c b73d 3462 8cbf df94 923d
00000130: 7fe5 b23d 1ae3 033f dae1 5a3f 74ba 5d3f
00000140: 18a4 513f fc45 2ebf d8eb 543e f1b4 7dbd
00000150: fc77 993f 0aa4 1fbf b1c0 9b3f 79de 673f
00000160: 07dc be3f 2bf7 38bf 76f8 0b3f 5c57 c83e
00000170: 53c2 51be d58a 8e3d 4bea c63e ed07 923d
00000180: 8f22 773f abb2 c9be 0985 d53f 5d37 1740
00000190: 8689 bf3f acb4 34bf 622a d13f 5f97 383f
000001a0: c054 c73f 7098 41bf 5a79 b53f 91d5 3b40
000001b0: b977 bb3f 3c4b 36bf 9422 5dbf 3dde a0be
000001c0: a757 5ebf ab81 013f 170b 083e cf26 f83e
000001d0: 97be c93e 6979 a03e 4ca2 6dbc c63f 3b3f
000001e0: 1926 bb3f 6a3b 28bf 03d5 abbf 3c7e cc3e
000001f0: d71f b63f 7d86 30bf 5d7a 38bf 3d88 b93d
0.50732034 0.07020986 1.1312352 -0.5570058 -1.1436414 0.42449173 0.53385293 -0.020824317
1.4224571 -0.666408 -1.0875728 0.34736365 -1.726228 0.6752077 0.3570357 0.3811896
-0.9614631 0.11301824 1.2541286 -0.629474 3.3810844 0.3546356 -1.107964 -0.3842372
1.0951651 -0.48334545 0.6442606 0.010331707 0.350561 0.015896669 -1.1168003 0.30670297
-0.32981494 0.5580094 0.39027736 0.030078983 -0.7688823 0.16909838 0.58609605 0.49523014
0.6243228 0.64369386 -1.1622492 0.38697404 1.5245908 -0.7411435 1.5192504 -0.7463528
-2.0106661 -0.6063349 -0.8941331 0.50090575 -0.74861723 0.43543237 1.4798168 -0.7195351
-1.1160778 0.44931275 -0.60321766 0.45797557 -0.81192726 0.45568863 0.43801212 -0.32260874
-0.24150442 0.15245818 -1.4340537 0.48244965 0.1100222 0.4230353 -0.8732115 0.26714522
-1.0640675 0.08953125 -1.0967469 0.07157301 0.08735179 0.51518404 0.8550087 0.8661263
0.8189101 -0.6807554 0.20793092 -0.061940137 1.1989741 -0.6235968 1.216818 0.9057384
1.4910897 -0.7225215 0.54675996 0.3912915 -0.20484285 0.06960074 0.38850626 0.07130418
0.9653711 -0.39394125 1.6681224 2.362754 1.4963844 -0.70588183 1.6341059 0.72105974
1.5572739 -0.75623226 1.4177659 2.93491 1.4645911 -0.7120855 -0.8638089 -0.31419554
-0.86852497 0.5058848 0.1328548 0.4846711 0.3940322 0.3134263 -0.014504027 0.73144186
1.4621001 -0.6571566 -1.3424381 0.3994006 1.4228467 -0.6895521 -0.7206171 0.090591885

model.0.bias f4 [64]
00000000: ec99 ff3f 82bd a440 9e76 68c0 8500 6240
00000010: 6a5c d740 99f1 3ac0 da7e dbc0 3f15 7b40
00000020: df5f f73e 0ba7 be40 8b1c 0540 685a 8d40
00000030: 5414 9040 194b fe3f bb90 4240 7b54 2bc0
00000040: 888b 12c0 9f6b 6240 819a 3c40 82f9 7f40
00000050: 5380 8840 9ae5 58c0 ae4d ec40 7a14 ed40
00000060: 57bf 7f3f 975e 5fc0 4a56 27c0 b035 e240
00000070: 6efd 6ec0 c3aa 17c0 7104 3cc0 43a1 7441
00000080: 5268 f140 9d89 97c0 eeaa af40 cac1 e6bf
00000090: ef47 50bf 2bfe 1fbf 0d70 8e40 a673 d0bf
000000a0: 6ff1 a640 b056 6040 8174 b840 549e 8840
000000b0: a59f e440 1588 9340 18fb fe40 14e1 5640
000000c0: 8aa4 4740 f626 94c0 107f e640 78ba 163f
000000d0: 73ba f040 60ad b8c0 b634 df40 7c41 7540
000000e0: 68ee 5dc0 728c c740 bab9 7e40 6e14 15c0
000000f0: 11e8 d140 00b6 78c0 c485 d740 e024 843f
1.9968848 5.1481333 -3.6322398 3.5312817 6.730031 -2.920996 -6.859235 3.9231718
0.4831533 5.957891 2.0798671 4.417286 4.5024815 1.9866668 3.0400836 -2.6770313
-2.2897663 3.5378187 2.9469302 3.9996037 4.2656646 -3.3890138 7.3844824 7.4087496
0.99901336 -3.4901483 -2.6146417 7.0690536 -3.7342181 -2.3697975 -2.937771 15.289371
7.5439844 -4.7355485 5.4896154 -1.802789 -0.8135976 -0.62497205 4.451178 -1.6285293
5.216972 3.505291 5.7642217 4.269327 7.144488 4.6103616 7.968151 3.3574877
3.1194177 -4.629756 7.2030106 0.5887828 7.52276 -5.771164 6.9751844 3.8321218
-3.4676762 6.235894 3.9800858 -2.329372 6.5595784 -3.8861084 6.735079 1.0323753

model.2.weight f4 [64, 64]
00000000: 650c 73bd 2dfa 43c0 f874 5cc0 7b34 2e3f
00000010: 4da9 42c0 74bf d6bf cb22 94c0 1b12 fb3e
00000020: ebfc b83e 1ab6 81c0 a2dc 7fc0 cb03 b73f
00000030: 1601 00c0 7dcb 833e a9cc 753f d259 b7bf
00000040: 5f3f b9bf 0efa 553f 922a b13e ae31 cd3e
00000050: 4796 103f b4d8 3fc0 cc4c 8ec0 8d62 b3c0
00000060: f620 37bf 1c00 62c0 b7bc 13c0 9928 bcc0
00000070: c6c7 7dc0 7561 c5bf 7455 2cc0 595b 3f3f
00000080: fa8f 463f 505c 87c0 16e7 003f b59d 88bf
00000090: d79d fe3c f00d 9c3d 5e60 d83e 254d 1bbf
000000a0: fe1c e9bf c2da c23f 3e99 72c0 234e bd3e
000000b0: 6d4c bdc0 31b2 1a3f 238e 2e3f 6703 3d3f
000000c0: 4a73 f3bf fb07 3ebf cb01 3bc0 afbb a63e
000000d0: 1916 ddc0 0c0a 07bf a932 b8c0 f5f1 c33f
000000e0: 26a7 70c0 13e3 083f b412 043f bd7b 85bf
000000f0: c392 2ec0 889a 46c0 c796 b4c0 27f5 663e
00000100: b455 ebbe 55fc 02c1 c9a6 fbbf 3ab8 b3bd
00000110: ce01 1bc1 b88c 6dbf b171 e7bf 5ffb 983d
00000120: a851 34bd 9f37 12c1 ee36 a4bf 346f 05be
00000130: 285d d5c0 ae14 5d3d 8850 59be ceaa 43bf
00000140: f938 cdbe 0ec6 8cbd 0dd1 553d ea50 a13d
00000150: 0835 053d 2fe5 c5bf 802e 28c1 3166 19c1
00000160: 823d 0d3e 6621 b9bf 5187 26bf f169 2cc1
00000170: 4bfb 00c0 708f 14bf 15d6 98bf 1b21 433d
00000180: 79da 4abc 4239 04c0 dbda 91bb 77cc 8cbe
00000190: 5f75 54be 2a62 7fbd 370d 153e ac94 e3be
000001a0: 9aa2 01c1 529a d3bc d202 13c1 b553 abbb
000001b0: 5ceb 1ec1 e671 34bd 1b8f 953d 557c 8bbb
000001c0: b45c 7dc0 9a0e b6bd e129 23c1 b9f5 0cbf
000001d0: 3e14 29c1 fdfe 1ebe ffb4 2cc1 ab82 0fbe
000001e0: aea0 e0bf dd4f 84bc 4124 7dbd a7b7 d0be
000001f0: b70a a0c0 0e67 e0bf 9c78 22c1 7ba9 483d
00000200: 834d 483f 7d3c 1ec0 d176 33c0 7372 493f
00000210: 4821 f9bf 2cfe 15c0 0417 2ac0 f056 083f
00000220: 9b9c 87be b520 57c0 11e6 a6bf 12ed 5b3f
00000230: 0fd6 c8bf 8953 ff3e 88ec 623f 10c9 aabf
00000240: 64e7 bbbf 8d03 463f bd39 513e fd42 ff3e
00000250: 32f8 cb3e 6e5b 17c0 96b0 9ec0 d1e1 63c0
00000260: 3665 e33f b077 4fc0 8ce0 19c0 b488 afc0
00000270: 6c03 4ec0 c4ee e7bf a1bd 43c0 5c70 c83e
00000280: 5902 963e 4493 31c0 8fa0 963e f7af a7bf
00000290: d90c 18bf b213 f1be f7c0 d63e c135 81be
000002a0: 9cdc 03c0 3d0f ae3f 79fc 70c0 922f 633e
000002b0: 43b2 88c0 0abe 053f 8cf7 963e 411f 753f
000002c0: 17ed f3bf 6d62 cb3d 3602 00c0 33d8 3bbe
000002d0: 65c0 98c0 0f03 63be a171 bcc0 1ab9 803f
000002e0: 55c9 68c0 166d 6a3e f7df 333f 7c4c b1bf
000002f0: 543a b2bf 5be4 0cc0 75cf 91c0 5636 bb3c
00000300: 19c9 ccbe 4607 04c1 14c1 f4bf 5f74 1bbe
00000310: 6caa 20c1 c3b1 8bbf fe0a d6bf abb8 fbbc
00000320: 1aba 1fbe 79f1 0fc1 2d44 83bf 7763 1cbe
00000330: ce98 dcc0 b346 8abe e97c d0bd 0a0a 41bf
00000340: 09dc acbe d5ad f9bd 0b7b 01be c984 513d
00000350: 9f10 693d 9b83 bbbf e0d5 26c1 2db2 18c1
00000360: 3497 223f 3315 c2bf 46c1 60bf 97b2 2ac1
00000370: 9ee2 fbbf 6ed5 ecbe d278 88bf ee30 453d
00000380: de59 1b3d e74e 08c0 6c77 883d c94d 9bbe
00000390: 708c 5cbe f860 8abd 9ff1 033d 3a38 1ebe
000003a0: 3928 fbc0 e641 3dbd 6691 11c1 9028 fe3d
000003b0: a674 1fc1 6d6c f3bd a6ff da3c f2a5 14be
000003c0: 4cfa 75c0 3e9c 49bd f4d8 28c1 4ade c3be
000003d0: e72b 29c1 64d9 a4bd 299e 2ac1 2607 eabb
000003e0: 3ac1 dfbf cdce 05be b440 febd 56c1 9abe
000003f0: 4584 9cc0 599b cebf 6400 1fc1 9bca 21bd
-0.059337992 -3.0621445 -3.4446392 0.6804883 -3.0415833 -1.6777177 -4.629247 0.4903725
0.3613046 -4.053479 -3.9978414 1.4298033 -2.0000663 0.25741187 0.9601541 -1.4324286
-1.4472464 0.8358468 0.3460279 0.40076965 0.56479305 -2.9976015 -4.4468746 -5.60578
-0.7153467 -3.5312567 -2.3083932 -5.879956 -3.9653182 -1.5420367 -2.6927156 0.7474876
0.7756344 -4.2300186 0.5035261 -1.0673128 0.031081123 0.07619846 0.42261022 -0.6066459
-1.8211973 1.522301 -3.7906032 0.36973676 -5.9155793 0.6042815 0.68185633 0.73833317
-1.9019558 -0.7423093 -2.9219844 0.32565066 -6.9089475 -0.52749705 -5.756184 1.5308214
-3.760202 0.5347149 0.5159104 -1.0428387 -2.7277076 -3.1031818 -5.6434054 0.22554456
-0.45963824 -8.1866045 -1.9660274 -0.08775373 -9.687941 -0.92792845 -1.8081571 0.0746982
-0.044023186 -9.138579 -1.2829263 -0.13030702 -6.6676216 0.0539748 -0.21222126 -0.764325
-0.4008253 -0.068737134 0.05220132 0.07876761 0.032521278 -1.5460566 -10.511353 -9.587449
0.13792995 -1.4463317 -0.65050226 -10.775865 -2.0153377 -0.5803137 -1.1940333 0.047638994
-0.0123811895 -2.0659947 -0.0044511384 -0.27499744 -0.20747899 -0.062349476 0.14555822 -0.44449365
-8.102198 -0.025830422 -9.188189 -0.0052284845 -9.932461 -0.044053935 0.07302686 -0.004256765
-3.9587831 -0.08889504 -10.197724 -0.55062443 -10.567442 -0.15526958 -10.7941885 -0.1401469
-1.7549036 -0.016151363 -0.061802153 -0.40765116 -5.001308 -1.753145 -10.154446 0.048989754
0.78243273 -2.472442 -2.804127 0.7869026 -1.9463282 -2.3436384 -2.6576548 0.53257656
-0.26486668 -3.3613713 -1.3038961 0.85908616 -1.5690325 0.4986842 0.8864217 -1.334261
-1.467999 0.7734917 0.20432182 0.49855796 0.39837795 -2.3649554 -4.959056 -3.5606577
1.7765262 -3.2416801 -2.4043303 -5.4854374 -3.2189589 -1.811974 -3.058449 0.39148223
0.29298666 -2.7746134 0.2941937 -1.3100575 -0.59394604 -0.4708534 0.41944095 -0.25236323
-2.06034 1.35984 -3.7654097 0.22186115 -4.2717605 0.522431 0.29485738 0.95750815
-1.9056729 0.099308826 -2.000135 -0.18344192 -4.7734857 -0.22169136 -5.8888707 1.0056489
-3.6372883 0.22893175 0.7026362 -1.3851466 -1.392405 -2.2014377 -4.5565743 0.022853058
-0.39997175 -8.251776 -1.9121423 -0.15181111 -10.041607 -1.0913624 -1.6722105 -0.030727705
-0.15598336 -8.996453 -1.0255181 -0.15272318 -6.893653 -0.27007064 -0.10180075 -0.75405943
-0.33761624 -0.12191359 -0.12644593 0.051152024 0.056900617 -1.4649538 -10.427216 -9.5435
0.6351197 -1.516272 -0.8779491 -10.668601 -1.9678533 -0.46256584 -1.0661871 0.048142366
0.0379275 -2.1298158 0.06663403 -0.30332783 -0.21537948 -0.067567766 0.03221285 -0.15451136
-7.84866 -0.046205424 -9.097998 0.124100804 -9.965979 -0.11885915 0.02673323 -0.14516428
-3.843402 -0.04922127 -10.552967 -0.3825553 -10.573218 -0.080492765 -10.663613 -0.0071419654
-1.7480843 -0.1306717 -0.12414685 -0.3022563 -4.891146 -1.6141158 -9.937595 -0.03949986

model.2.bias f4 [64]
00000000: 020b a73f b837 4fbe e175 993f a8bf 47bd
00000010: b2fe 9bbc c5ae a3bf bc73 a93f c917 ab3f
00000020: ac75 c93f 3456 773f 55ce 0ebf da9b ae3f
00000030: c311 da3f a2ee af3f 36af 9c3f 0612 953f
00000040: 5408 9f3f 81dd da3b 6c5a b63f 2b8f a83f
00000050: 4d2c db3f a6ab a73f 7d82 a83f fd6c 163e
00000060: 0644 b2bd 6ca9 b43f e000 523f bd56 9b3e
00000070: 887a a63f f08c 913f 3829 a43f 5696 983f
00000080: 2ec8 953f 86cb e73e f2d9 a33f 0b6a 96bd
00000090: 71e5 8e3f 09aa 643f 9b4b a63f b426 8f3f
000000a0: 13c6 943f 0076 a13f 2f19 b03f 14a4 a33f
000000b0: fe8a bb3f 4c3b 9b3f a521 ae3f ca92 a83f
000000c0: ffb9 ae3f e710 af3f f3e9 413f b1ec 50be
000000d0: 04dd b03f e7ca bc3f 88ab ba3f 5341 a13f
000000e0: ade3 b73f b2a1 8b3f 0813 d33f fb4c 863f
000000f0: a151 29bd 4d62 9e3f 8dec af3f 6ee5 a23f
1.3050234 -0.20236099 1.1989099 -0.048766762 -0.019042347 -1.278771 1.3238444 1.3366634
1.5739036 0.9661591 -0.5578359 1.3641312 1.703667 1.37447 1.224097 1.1646125
1.2424417 0.0066792374 1.4246345 1.3168691 1.7122895 1.3099258 1.3164822 0.14690013
-0.08704381 1.4114203 0.82032585 0.30339614 1.3006144 1.1371136 1.2825079 1.1920879
1.1701715 0.45272464 1.2800887 -0.07344445 1.116377 0.89321953 1.2991823 1.1183686
1.1622947 1.2614136 1.3757685 1.2784448 1.4651792 1.2127471 1.3604017 1.3169796
1.3650512 1.3677033 0.75747603 -0.2040279 1.3817449 1.4749421 1.4583597 1.259806
1.4366356 1.090872 1.6490183 1.0492243 -0.041337613 1.2373749 1.3744065 1.2726266

model.4.weight f4 [1, 64]
00000000: 20a1 8940 43b4 9bc1 aac6 bbc0 0800 9dc1
00000010: 774d 87c1 82e6 70c0 220d f6c0 7258 9740
00000020: b4b2 9340 58b5 1ec0 fd8b 5240 8e43 c5c0
00000030: 1334 5740 1e7c 8040 4b54 adc0 2a5b e3c0
00000040: 20d7 bec0 e6ce 8bc0 9570 9240 78e5 8240
00000050: 516a a140 f359 9540 4873 8940 9474 11c0
00000060: 763a 98c1 bcd1 7840 6367 09c1 6c67 78c1
00000070: 7bc7 b8c0 2f4d d3c0 e288 9040 414c d6c0
00000080: 092b b83f 8939 58c1 b637 7f40 4757 d3bf
00000090: cc9d eec0 e2fd c53f 79e3 d5c0 5700 08c1
000000a0: 1468 d1c0 fa39 9040 8a21 8840 f44e cdc0
000000b0: 0ecd 9540 2f57 e6c0 2396 f3c0 5d05 a4c0
000000c0: a484 ad40 81fd dac0 f0bd 25c1 5a36 9ac1
000000d0: 10a1 dec0 2d76 8640 4967 9c40 b8fd a4c0
000000e0: b902 6b40 2102 e0c0 2c54 a740 84ed 11c1
000000f0: 4872 92c1 614c 7d40 73d7 eec0 3358 9040
4.3009186 -19.463018 -5.868001 -19.625015 -16.912825 -3.764069 -7.689103 4.7295465
4.6155643 -2.4798183 3.2897942 -6.1644964 3.3625534 4.015151 -5.4165397 -7.1048784
-5.9637604 -4.369006 4.576243 4.0905113 5.044228 4.66723 4.2953224 -2.2727404
-19.028545 3.8878012 -8.587741 -15.5252495 -5.7743506 -6.603172 4.5167093 -6.6968083
1.4388133 -13.514047 3.9877753 -1.651101 -7.4567623 1.5468104 -6.6840177 -8.500083
-6.543955 4.507077 4.254094 -6.415888 4.681281 -7.1981425 -7.612077 -5.1256547
5.4224415 -6.8434453 -10.358871 -19.276539 -6.957161 4.2019258 4.887608 -5.1559715
3.6720412 -7.00026 5.229025 -9.120487 -18.305801 3.9577868 -7.4638 4.5107665
