app/models/disc_K3_deg1_-13_15.pth (torch, 20480 bytes, 5 tensors)

model.0.weight f4 [64, 2]
00000000: 01c4 bf3f d792 2dbf f859 1d40 438a 633f
00000010: bf36 d33f a6e1 40bf e1e3 113e 378e 653f
00000020: 28a2 5e3f 6dc5 22bf 07d6 e33f c8fa d4be
00000030: 6c71 cabf 109b 79bf 707c b53f 7bf6 7abf
00000040: 2e6e dfbf 8daa 723d f21e c93f a6a5 2fbf
00000050: f83d 84be 6b93 ebbd 7b20 6d3f 5067 84be
00000060: 375d bb3f 0d57 33bf f0e6 12bf 1b7e 343f
00000070: d0b1 af3f f5cc e7bd 61bc 96bf 34a4 173f
00000080: 0aba 543f e019 21be d630 5f3f 6d6e 6dbe
00000090: cce9 0abe 5af8 183e 0875 6b40 073f 843f
000000a0: f64d a0bf e18d 043f b7b4 6bbf 0b12 333f
000000b0: 9335 bf3f 81d7 5bbf 5f92 8e3f 1792 d1be
000000c0: 95f3 c63f 1ad3 56bf 756a 90bf 82f6 123f
000000d0: 6df5 d93e 72a2 943f 8b2e c73f 8997 57bf
000000e0: bdba d3bf b707 05bf 8b0c aebf 678a 0f3f
000000f0: 1c75 04be a51e 15be 6563 303f fecf 69be
00000100: 05be f4be 4f44 a3bf eb6b 8fbf 5e42 023f
00000110: 349e 0f40 97d9 6a3f 20a3 bb3f a53a 85be
00000120: ecf5 9fbf 23f0 123f a20d 413f 50e1 61be
00000130: 86f6 dbbe 1ef3 5cbe e84d 5e3f 4e59 efbd
00000140: e3e4 463f 3b06 57be eb47 963f ee5a 983e
00000150: 4fbd b83f cdc3 7dbf ef4a d13f 2c05 23bf
00000160: 05b5 113e cab0 1ebf abeb a4bf aea5 073f
00000170: c973 913f bfd8 773d f57f fc3e 63ac 7dbe
00000180: 42d4 0ebf b4bb 9cbe 3ce6 dd3f 5f46 21bf
00000190: 0c28 c43f 719c 1dbf 9910 f63f 01ce ca3f
000001a0: 4892 aebf a6fe 113f ecc7 373f 603e 213f
000001b0: 91c5 8fbf 6b76 0c3f c859 ce3f 57ee 63bf
000001c0: 2e7f f1bf 8ffd 153e 55b0 90bf 51b0 203f
000001d0: e2c3 ba3f 3395 69bf 8a81 8fbf 71b0 083f
000001e0: f686 0b40 f415 883f 87d1 e23f f454 f2be
000001f0: 614b 99bf f19b 123f 9830 b13f 5c77 b4be
1.4981691 -0.67802185 2.4586163 0.88882846 1.6501082 -0.7534431 0.14247085 0.8967013
0.8696618 -0.635825 1.7799691 -0.4159758 -1.5815864 -0.9750223 1.41786 -0.9803235
-1.7455499 0.05924468 1.5712569 -0.68612134 -0.25828528 -0.11502727 0.92627686 -0.2586007
1.4637822 -0.70054704 -0.5738363 0.7050492 1.3726139 -0.11318389 -1.1776239 0.5923493
0.83096373 -0.15732527 0.8718389 -0.23186655 -0.13565749 0.14938489 3.679018 1.0331734
-1.2523792 0.5177899 -0.92072624 0.69949406 1.4938225 -0.8587571 1.1138419 -0.4093177
1.5543085 -0.83915865 -1.1282488 0.5740739 0.42570058 1.1612074 1.5561079 -0.842156
-1.6541363 -0.51964897 -1.3597578 0.5607056 -0.12935299 -0.14562471 0.68901664 -0.22833249
-0.47801223 -1.2755221 -1.1204809 0.5088252 2.244031 0.91738266 1.4659157 -0.26021305
-1.2496924 0.5739767 0.7541143 -0.22058606 -0.4296152 -0.21577117 0.86837626 -0.116869554
0.77693003 -0.2099847 1.1740698 0.29756874 1.4432772 -0.99126893 1.6350993 -0.63679767
0.1422921 -0.6198851 -1.288442 0.5298718 1.136346 0.06050944 0.49316373 -0.24772792
-0.5579263 -0.30611956 1.7335887 -0.62998 1.5324721 -0.61566836 1.9223815 1.5844117
-1.3638391 0.5702919 0.7178943 0.629858 -1.1232167 0.5486819 1.6121149 -0.8903555
-1.8866937 0.14647506 -1.1303812 0.6276904 1.4591029 -0.91243285 -1.1211407 0.5339423
2.1801124 1.06317 1.7720193 -0.4733044 -1.1976129 0.572692 1.3842955 -0.35247314

model.0.bias f4 [64]
00000000: b537 c340 d817 0dbf b225 e240 87c1 eebf
00000010: 1edb d440 02d1 a240 494b 9fbd 4072 ed40
00000020: 63dd 2b40 e74d cb40 056b 6541 15af b240
00000030: 49b8 c540 582a 58bf 6eee 7d40 4423 7bc0
00000040: a9e2 a840 95c2 bb40 af7f f440 e5b3 283e
00000050: ae53 6ac0 3c9d 6fc0 d0fc d740 b8b7 be40
00000060: 3a69 e940 92af 69c0 a396 09c0 7cda df40
00000070: 7f93 2640 a9a6 86c0 a11f a540 08a3 b040
00000080: 61e0 4940 ab6f 52c0 4089 4ebf 5a29 2240
00000090: 187f 7fc0 87e3 b640 ebdb 5041 e85b a040
000000a0: b512 a340 345c 2640 a4f5 f340 deee c540
000000b0: 1e2b af40 40c2 73c0 9a2d 8840 f973 a140
000000c0: 185c 5341 5493 bf40 46dc b840 4b45 6bc0
000000d0: c1f8 88c0 7bd1 f040 4b63 61c0 8b51 ee40
000000e0: 7d11 54c0 dcf4 7dc0 1f0b e440 ca39 5bc0
000000f0: 20f3 d3bf 23c8 ae40 504f 76c0 4536 4940
6.10055 -0.5511451 7.0671015 -1.865281 6.6517477 5.0880136 -0.077780314 7.4201965
2.6853874 6.3532596 14.338628 5.5838723 6.1787457 -0.8443961 3.9676776 -3.9240274
5.2776685 5.8675027 7.6405864 0.16474874 -3.6613574 -3.7439718 6.749611 5.9599266
7.294095 -3.651341 -2.1498191 6.9954205 2.6027524 -4.2078443 5.160111 5.5199013
3.15432 -3.2880657 -0.80678177 2.533774 -3.9921322 5.7152743 13.053691 5.011219
5.0960336 2.5993776 7.6237354 6.1854086 5.4740133 -3.808731 4.2555666 5.045407
13.209984 5.9867344 5.776889 -3.6761043 -4.2803655 7.5255713 -3.5216854 7.447454
-3.3135674 -3.96807 7.1263576 -3.4254022 -1.6558571 5.4619308 -3.8485909 3.1439373

model.2.weight f4 [64, 64]
00000000: 6f6f 03c0 6274 05bf 92a9 19bf fc79 8bbf
00000010: fd87 e33f 4f9c 13c0 1b7f e63e f1ef 63c0
00000020: 770e b03d 2508 00c0 41fd fa3e c9e9 b93f
00000030: ac87 edbf 6584 39be dba9 433f d695 97c0
00000040: ebb3 f23f 3a71 f33f 6177 bc3e ec8c 1ebf
00000050: 8fa9 47c0 11fe e5bf 6c07 87c0 bd21 c23f
00000060: ba9c 6bbf 6346 56c0 d84c 75bf 25a2 72c0
00000070: 35de 403f 2966 92c0 77e4 a63f b604 eb3f
00000080: 1f2b 83c0 6cbc 2bc0 c1fc dabe 2acc 8cc0
00000090: 0b8a 85c0 f9a6 d53f 09a1 5c3f f376 b63f
000000a0: 7604 cd3f 41b2 1c3f 2f03 5ac0 ee6b fabf
000000b0: d0e5 d23f f7e8 64c0 fa94 993f 5143 c53f
000000c0: 4365 4a3f da2f 57c0 5b2b 16c0 eb93 7fbe
000000d0: d4db 98c0 7ca8 cf3e 344d 78c0 05e5 5cc0
000000e0: f25a bdbf 8bba 70c0 5f88 84c0 e7dc 4cc0
000000f0: 105d aebe e4b6 0dc0 d618 7ec0 411e 96c0
00000100: 8d2c 12bf dfed 653e 861f a9be 5bbf ec3e
00000110: ae73 dd3e a302 0abf e38d d83d 222a 08be
00000120: 8a31 56be ef04 0fbf b366 21be 8d42 603e
00000130: cc65 02be 43e2 d03e cfe4 0c3f 69e6 293f
00000140: 170e 0b3f 74bf 003f 545b 4abe 7a9f 1e3e
00000150: ac6c 883f 7264 823f 7d41 1dbf bb71 bf3e
00000160: 3684 e6be 1894 973f f84b 233e 4584 81be
00000170: 1b6a 77bf 4a04 d23e d144 22bf b188 f73e
00000180: cb8b c73f 868a 303f 81b6 093e a6c1 97bd
00000190: 9ecd 013f 46f2 dd3e 8cfe 2fbe c6f0 993e
000001a0: 272a 543e 8f97 463e 9902 093d c400 25bf
000001b0: 556b e9be dc1b 983f b0e2 033e fee4 b5be
000001c0: f9d4 4dbe c505 acbe 366d 17bf 34e9 d23e
000001d0: 076e d03e 5da6 e43d c613 433f 83a8 cf3d
000001e0: fea6 883b 88ba 983f 3e22 19bf b48d 653f
000001f0: 59ad be3d 5d55 13bf 5d4c 153f 3503 9abd
00000200: 46b7 d6be 3f33 b73e 2d75 243e e360 2abe
00000210: d3ae 153f 2aca 35bf a24b 10c0 dc17 84bf
00000220: b154 163f a925 d4be 5bd9 e43e a7e2 173f
00000230: bd36 22be 542f b43e cdc4 9e3e 4131 73c0
00000240: e55f 523f 3920 4e3f c594 f33e 1054 d13e
00000250: e1da 0dc0 0bf3 80bf 4447 283e eef7 2e3f
00000260: aaef 6a3e a236 04c0 217e 003e a0c1 28bf
00000270: 7052 cf3f 477c 6cc0 d155 a83f 90c5 4f3f
00000280: adf0 43c0 6215 15c0 8f04 983e cfce 06bf
00000290: 2176 4fc0 a34f 303f 8f2f 133f 43d0 3b3f
000002a0: 7863 1e3f 7163 823e c543 3ebf 5a74 cdbe
000002b0: f19a 5b3f 3818 1bc0 96ba fc3e 58bd be3f
000002c0: 2647 003f 7f59 b6be 6601 fcbe 5c5a a53d
000002d0: 075b 78c0 2e06 ec3e 4f43 43c0 8d6b 5ebf
000002e0: d0c1 72bf 59c1 2bc0 daea 52bf d42a 16c0
000002f0: 81e7 963e 843d 23bf eb6f 44c0 717a 16bf
00000300: d9b0 0ebf 52ad 8c3e 911f 03be 107e b5be
00000310: e9e9 8e3f a4a0 81bf d08c 5fc0 343e 19c0
00000320: b84f ad3e 7665 3fbf d10b 3a3f f6e6 6a3f
00000330: 2e31 f3be d151 0d3e c651 c13e b636 8bc0
00000340: cce4 703f ea9a 813f 620e 0d3f 867c 623e
00000350: 7931 36c0 a66c a0bf 96c9 4bbf bbf6 443f
00000360: 46f7 b9bd a0a0 25c0 8a0e 91bd 1f20 c6bf
00000370: 6d1d a93f 2313 8bc0 27ac b93f a586 4b3f
00000380: e2ff 02c1 8742 25c0 f42c 693e f7f5 6cbf
00000390: d563 7bc0 d90f 803f e325 3b3f 48a8 5f3f
000003a0: 6ffb 583f 6d32 b03e 8d1e 16c0 cc46 6dbf
000003b0: 1dae 9c3f bdea 3fc0 1d77 1c3f 92f7 c23f
000003c0: f863 443f 2410 60bf f80c 46bf 6a95 013e
000003d0: 6863 97c0 6045 033f 629a 7dc0 51e5 1dc0
000003e0: ea59 b0bf af61 45c0 be8c b7bf d8f1 3dc0
000003f0: efeb 573e 2823 8abf e69d 70c0 5b1b 80bf
-2.0536764 -0.5213071 -0.6002437 -1.0896602 1.7775875 -2.3064153 0.4501885 -3.5615199
0.08596509 -2.000497 0.49021342 1.452447 -1.8557029 -0.18116911 0.76431054 -4.7370405
1.8961157 1.9018929 0.3680983 -0.6193378 -3.119724 -1.796816 -4.219656 1.5166546
-0.9203602 -3.348046 -0.9582038 -3.7911465 0.7533906 -4.5749707 1.3038472 1.8360813
-4.099014 -2.6833754 -0.4277096 -4.3999224 -4.173101 1.6691581 0.8618322 1.425505
1.6016986 0.61209494 -3.4064443 -1.9564188 1.6476383 -3.576719 1.1998589 1.5411168
0.79060763 -3.3622956 -2.3463962 -0.2495877 -4.7768345 0.4055823 -3.879712 -3.4514782
-1.4793379 -3.7613857 -4.141647 -3.2009828 -0.34055376 -2.2142878 -3.9702659 -4.691193
-0.5709923 0.22454022 -0.33031863 0.46239743 0.4325232 -0.53910273 0.10573938 -0.13297322
-0.20917335 -0.55866903 -0.15761833 0.21900387 -0.12734145 0.40797624 0.55036634 0.66367203
0.54318374 0.50292134 -0.19761401 0.15490523 1.0658164 1.0186903 -0.6142805 0.37391457
-0.45022744 1.184207 0.15946949 -0.25296226 -0.9664628 0.41018897 -0.63386256 0.48346475
1.5589536 0.6896137 0.13448526 -0.074099824 0.5070437 0.43348902 -0.17186946 0.30066508
0.20719205 0.19393753 0.033449743 -0.64454293 -0.455897 1.1883502 0.12879443 -0.3552627
-0.20100774 -0.33598152 -0.5915102 0.41193545 0.40708944 0.11164544 0.76202047 0.10139563
0.0041702976 1.1931925 -0.59817874 0.89669347 0.09310407 -0.5755213 0.58319646 -0.07520143
-0.41936702 0.35781285 0.16060324 -0.16638522 0.58469886 -0.710116 -2.2546163 -1.0319781
0.5872298 -0.41434982 0.4469708 0.5933022 -0.15841193 0.35192358 0.31009522 -3.7998812
0.82177573 0.8051792 0.4757444 0.40884447 -2.2164843 -1.0074171 0.16433436 0.6834706
0.22942987 -2.0658345 0.12548114 -0.6592045 1.6197033 -3.6950853 1.3151189 0.8116083
-3.0615647 -2.32943 0.29690978 -0.52659315 -3.241585 0.68871516 0.57494444 0.7336466
0.6187053 0.25466493 -0.7432216 -0.40127832 0.85783297 -2.4233532 0.49361104 1.4901533
0.50108564 -0.35615155 -0.49219817 0.08073875 -3.8805559 0.46098465 -3.0509832 -0.8688286
-0.94826984 -2.683676 -0.82389605 -2.346364 0.29473498 -0.6376574 -3.069331 -0.5878058
-0.557386 0.27475983 -0.1280501 -0.3544774 1.1165134 -1.0127149 -3.4929695 -2.3944216
0.33849883 -0.7476419 0.7267428 0.9175867 -0.4749846 0.13800742 0.377577 -4.3504286
0.94099116 1.0125401 0.5510007 0.22117814 -2.8467696 -1.2533157 -0.7960447 0.7693898
-0.09080367 -2.5879288 -0.07082851 -1.5478553 1.3212105 -4.346086 1.4505662 0.79502326
-8.187471 -2.5821855 0.22771055 -0.9256281 -3.9279683 1.0004836 0.73104686 0.8736615
0.8475866 0.34413472 -2.3456147 -0.9268615 1.2240635 -2.9987023 0.6111925 1.5231802
0.7671504 -0.8752463 -0.7736354 0.12654653 -4.7308846 0.5127773 -3.9625478 -2.4671214
-1.377744 -3.0840871 -1.4339826 -2.967886 0.21086095 -1.0791979 -3.7596374 -1.0008348

model.2.bias f4 [64]
00000000: 335d b23f bd6d 71be b2c7 923f 3cac 9f3f
00000010: 9c76 2f3e b78c 29bd 46a5 843f a995 ce3f
00000020: c214 063e adba c6bd 710f d33f 9ad5 b93f
00000030: b5e2 da3e 2924 243f 2f10 ad3f 4064 c13f
00000040: 44ce b03f 09d5 54be 7b37 8dbc dc49 9a3f
00000050: b29a e9be c1c5 1540 ae30 c33f f63a 733d
00000060: 98d9 f93d 16d0 dabd a5c7 a63f e22c f1bd
00000070: b230 17bf 02f8 a23f af6a cbbd 0779 0840
00000080: e814 2f3c fe5c c53f 348a 94bc b701 e93e
00000090: b082 2c40 729c 233f bc92 df3d a2f1 8e3f
000000a0: ebef 843d e983 533f 90ac c63f cb3c aa3f
000000b0: 37a7 1b3e 5107 2fbe fd0a 0c40 f7e7 c23f
000000c0: 9e15 2440 3567 1e40 ef28 393e 4b97 cb3e
000000d0: cf0b c43f cba7 8e3f 84f1 31bf 875a 4d3e
000000e0: 14e7 45be 5a68 2a3e 0d34 c03e e6fc 5b3f
000000f0: aff5 b83f 21dd d93f 59e1 283f db7c ec3f
1.3934692 -0.23577018 1.1467192 1.2474437 0.1713509 -0.04139396 1.0362937 1.6139423
0.13093856 -0.09703574 1.6489087 1.4518311 0.4275109 0.64117676 1.3520564 1.5108719
1.3812947 -0.20784391 -0.01723837 1.205379 -0.45625836 2.340195 1.5249231 0.0593824
0.12199706 -0.106842205 1.3029677 -0.11776139 -0.5905868 1.2731936 -0.09932458 2.132387
0.010686137 1.5419004 -0.018132307 0.4550912 2.6954765 0.6391059 0.10916659 1.116749
0.06491073 0.82623154 1.5521412 1.3299803 0.15200506 -0.17092635 2.1881707 1.522704
2.5638194 2.4750493 0.18082021 0.39763865 1.5316104 1.1144956 -0.6950915 0.20054065
-0.1932643 0.1664137 0.37539712 0.8593277 1.4449977 1.7020608 0.65968853 1.8475603

model.4.weight f4 [1, 64]
00000000: c550 f6c0 2364 153f 9d8a 0bc0 a3d5 72c0
00000010: ff39 a83e 9a86 24c0 ddf4 06c1 3537 8040
00000020: 5f4d adc1 4c59 4c3f 06d6 4d40 e8dc f0c0
00000030: 38f1 40c1 25b6 dabf 8f7b cdc0 db6f e1c0
00000040: e183 11c1 f25f ca3f 9229 003f 8261 5cc0
00000050: d411 d8c0 05f5 f040 1218 7fc0 246d bfc1
00000060: fe76 973e e327 a03e e6c0 05c1 5ead f63e
00000070: 2ded 99bf 92b4 c5c0 064d 623f 85aa 0441
00000080: c7d1 b9c1 a6fa a3c0 edb8 b8c1 76f3 6cbf
00000090: 7541 e040 613f 39c1 f9d2 9f3e 63c7 1fc0
000000a0: 5670 883e f3fa d3bf 8e3f 5e40 d674 07c1
000000b0: 160d e23e 3e2f 053f 9c6f ab40 9be1 6740
000000c0: 6c47 e540 fb1f be40 d8d7 aac1 a248 81c1
000000d0: 8d31 96c0 1717 60c0 71d0 65bf 19c3 95c1
000000e0: 6f15 203f 354b bec1 964f 89bf eb07 0bc1
000000f0: aec8 f0c0 7863 5940 c0c0 e4bf d87c 6d40
-7.6973596 0.5835592 -2.1803353 -3.7942894 0.32856748 -2.5707154 -8.434781 4.006739
-21.662779 0.79823756 3.216188 -7.526966 -12.058891 -1.7086836 -6.421333 -7.044904
-9.094697 1.581053 0.5006343 -3.4434514 -6.7521763 7.5299096 -3.9858441 -23.928291
0.2958297 0.3128043 -8.359594 0.48179144 -1.2025505 -6.1782923 0.8839878 8.291631
-23.22743 -5.1243467 -23.090296 -0.9255899 7.0079904 -11.577973 0.31215647 -2.4965446
0.26648206 -1.6560959 3.472629 -8.466024 0.4415061 0.5202521 5.357374 3.6231449
7.1649685 5.941404 -21.355392 -16.160465 -4.6935487 -3.5014093 -0.8977118 -18.720263
0.62532705 -23.786722 -1.0727413 -8.689433 -7.524497 3.396696 -1.7871323 3.7107449
