app/models/disc_K3_deg1_-14_10.pth (torch, 20480 bytes, 5 tensors)

model.0.weight f4 [64, 2]
1.5363197 -0.7216922 0.0020998027 0.17267632 0.15278411 0.53072804 0.6496244 0.26385847
-1.4403361 0.3402914 2.031495 -0.9994853 0.16978894 0.27187723 0.5214565 0.64881754
-0.9488081 0.3685941 1.0980726 -0.6781033 1.4681473 -0.70660156 -1.4027812 0.42573583
1.4209173 -0.6593183 0.74557304 -1.2488192 0.5621279 -0.07598807 1.1935346 1.1171321
-1.1650741 0.03433803 -0.47220454 0.35085946 -0.23888382 0.66801864 -1.4719657 0.52391696
-0.65326685 0.62520474 1.4361749 -0.77073926 0.37743565 0.5102701 0.7730122 -0.37243882
0.14515275 -0.26990762 -1.4727602 0.5151695 -0.35535738 0.7667036 1.8522239 -0.82164425
-0.89911383 0.4562126 0.27784997 -0.16285658 -0.9756568 0.5566614 2.2462957 -0.099047326
0.52439296 0.05562118 -1.0127242 -0.46504772 1.528125 -0.71791345 1.4583343 -0.8280357
1.4204928 -0.6979295 2.088294 -1.0035603 1.2992276 -0.5344549 1.0962749 0.21123098
-0.68213934 0.6022072 1.2446078 -0.7180196 0.2334926 0.7646694 1.9622457 -0.9421126
0.4501094 0.5055629 -0.0705064 -0.4657262 -0.9133514 0.47639272 0.66525906 0.6152629
0.6221755 1.5998124 0.040088486 0.03344014 1.7804785 -0.89039665 -0.85793674 0.60357374
-0.058881953 -0.24540155 4.757862 1.2018163 1.81269 -0.8951757 1.9627088 -0.9792766
2.2431684 -0.9954024 -1.0310028 0.5033873 -0.95067066 0.010181425 -1.7734017 0.38765064
1.3505182 0.37319362 0.26896447 -0.18888128 0.40763512 1.0921732 0.17282481 0.22949137
00000000: 20a6 c43f d2c0 38bf d89c 093b 10d2 303e
00000010: 7073 1c3e cbdd 073f c94d 263f 7518 873e
00000020: ef5c b8bf ad3a ae3e 0404 0240 45de 7fbf
00000030: 27dd 2d3e 7e33 8b3e 2c7e 053f e818 263f
00000040: 16e5 72bf 5eb8 bc3e a58d 8c3f 2e98 2dbf
00000050: 40ec bb3f d7e3 34bf 568e b3bf 0cfa d93e
00000060: 9ee0 b53f 16c9 28bf e0dd 3e3f 4fd9 9fbf
00000070: 9de7 0f3f a29f 9bbd bec5 983f 2ffe 8e3f
00000080: 2621 95bf 09a6 0c3d cbc4 f1be daa3 b33e
00000090: f69d 74be 4503 2b3f 5f69 bcbf 6c1f 063f
000000a0: 7f3c 27bf 6b0d 203f 94d4 b73f 2b4f 45bf
000000b0: 3f3f c13e 10a1 023f 21e4 453f 4db0 bebe
000000c0: eca2 143e 5531 8abe 6883 bcbf 26e2 033f
000000d0: 67f1 b5be b046 443f ac15 ed3f 4757 52bf
000000e0: 532c 66bf b394 e93e 5a42 8e3e e0c3 26be
000000f0: a5c4 79bf 5d81 0e3f 4fc3 0f40 53d9 cabd
00000100: 9e3e 063f 09d3 633d f2a0 81bf bc1a eebe
00000110: 9a99 c33f 2dc9 37bf b3aa ba3f 26fa 53bf
00000120: b5d2 b53f 82ab 32bf 9ca6 0540 aa74 80bf
00000130: 174d a63f 09d2 08bf bc52 8c3f ef4c 583e
00000140: afa0 2ebf 402a 1a3f 4f4f 9f3f 22d0 37bf
00000150: af18 6f3e 60c1 433f de2a fb3f 4b2e 71bf
00000160: bd74 e63e 926c 013f a965 90bd aa73 eebe
00000170: 66d1 69bf bfe9 f33e 6b4e 2a3f df81 1d3f
00000180: e546 1f3f a7c6 cc3f d333 243d 87f8 083d
00000190: b8e6 e33f 09f1 63bf bea1 5bbf cf83 1a3f
000001a0: 342e 71bd 8b4a 7bbe 6840 9840 1ed5 993f
000001b0: 3a06 e83f 3c2a 65bf 0b3a fb3f dfb1 7abf
000001c0: 1290 0f40 b1d2 7ebf e6f7 83bf fddd 003f
000001d0: 275f 73bf fecf 263c d4fe e2bf 257a c63e
000001e0: c8dd ac3f 3c13 bf3e b6b5 893e 186a 41be
000001f0: 8db5 d03e 55cc 8b3f fdf8 303e c9ff 6a3e

model.0.bias f4 [64]
6.769305 6.631653 4.2245584 3.187824 -3.4099536 9.557864 5.7394385 3.8459113
-2.3625245 5.072143 6.4725957 -3.8590765 5.894123 7.0307593 4.8209057 -1.536576
-0.76596993 -1.1083797 -2.1674588 -4.6615915 -3.095629 6.6716423 3.7344732 6.3213778
9.166184 -4.607732 -2.9837341 8.027643 -2.760864 4.289481 -3.5708597 3.526999
4.316853 1.531961 6.5372643 7.0841246 6.1640253 9.716321 4.4368453 2.0219424
-3.0367823 5.8174953 -1.5650845 9.098622 3.821558 11.489893 -2.927179 3.881434
-4.467834 7.9970627 8.328401 -3.544644 4.644999 0.15068696 8.4405775 9.262457
10.092823 -3.3732831 0.49208018 -4.513178 0.7363585 4.5119643 -2.6351948 6.253817
00000000: 269e d840 8036 d440 952f 8740 4f05 4c40
00000010: ae3c 5ac0 03ed 1841 7ba9 b740 6923 7640
00000020: 9a33 17c0 ff4e a240 811f cf40 1cfb 76c0
00000030: a89c bc40 fbfb e040 dc44 9a40 86ae c4bf
00000040: 9b16 44bf 63df 8dbf a5b7 0ac0 c22b 95c0
00000050: c91e 46c0 187e d540 9c01 6f40 ba48 ca40
00000060: b1a8 1241 8a72 93c0 80f5 3ec0 3a71 0041
00000070: ffb1 30c0 6e43 8940 f788 64c0 5aba 6140
00000080: a923 8a40 4c17 c43f 4531 d140 26b1 e240
00000090: b23f c540 0d76 1b41 a3fa 8d40 8167 0140
000000a0: a45a 42c0 ec28 ba40 b054 c8bf f593 1141
000000b0: 6894 7440 9ad6 3741 e756 3bc0 6a69 7840
000000c0: 7ff8 8ec0 f0e7 ff40 2141 0541 73db 62c0
000000d0: d5a3 9440 af4d 1a3e 9b0c 0741 0633 1441
000000e0: 347c 2141 dfe3 57c0 eff1 fb3e f46b 90c0
000000f0: fe81 3c3f 0362 9040 08a7 28c0 451f c840

model.2.weight f4 [64, 64]
-3.5492508 1.1343789 0.70283735 0.64049035 -2.8091476 -9.523116 0.98130524 0.6106062
-2.3781507 -1.8398926 -3.3020356 -3.959392 -3.3109233 -2.8335364 1.8793238 -0.74405324
-0.39127022 -0.37913823 -1.1616292 -4.8784223 -2.6875558 -3.846162 0.12853806 0.3258172
0.7599261 -4.4991817 -2.0122697 -5.0419707 -2.9937778 1.9140111 -3.5534997 -6.7810645
1.3364105 -0.04493454 -4.1442175 -3.95297 -3.451403 -9.448128 -3.7027082 -1.0252947
-2.7102222 -3.0887113 -0.70057267 -6.5805163 0.87128866 0.9912244 -2.9554982 0.3830317
-1.0136635 0.7815755 -5.907126 -3.317907 1.8225437 -0.80489933 -6.1437855 -9.176149
-6.8409643 -3.5085845 0.18703248 -3.4926922 -0.17487487 1.8477131 -0.78309697 0.46248847
-0.9777787 0.5072736 0.5046181 0.50979006 -1.450014 -6.965646 0.5451008 0.47829065
-1.9088916 -2.2395227 -1.1276139 -2.6851938 -1.2747202 -0.04128311 1.178437 -0.2548162
-0.35911614 -0.2961307 -1.1743889 -3.9544284 -2.388945 -3.2115142 0.25714764 0.3096291
0.39579737 -3.7937808 -1.6778655 -2.5215127 -2.600767 1.2618105 -3.7062788 -6.1034107
0.91183585 1.7083416 -2.190966 -4.203113 -1.601159 -4.9089794 -2.2298915 0.92716783
-2.3887248 -2.3868203 -0.41078985 -4.310416 0.6484959 0.67377204 -2.7772014 0.37330398
-0.12707971 0.51738197 -4.6802783 -3.5898366 1.7777234 0.47394413 -4.592625 -7.355384
-2.8484473 -3.1705718 0.0022006365 -2.064158 0.17347139 1.5635417 -0.33549958 0.4869356
0.7716928 -0.90426016 -0.6935677 -0.40596005 2.331089 1.2956994 -0.89373547 -0.61970097
1.3043778 -0.1647194 0.823188 3.254078 0.78003097 0.9343642 -1.429598 -0.21729691
0.25984195 0.41553968 2.0469525 3.750336 2.7566707 1.1716051 -0.2447477 -0.8283194
-0.6511212 3.526985 3.004529 1.2208263 1.7259576 -1.3161649 2.519824 0.60171705
-1.126738 0.004623126 1.041501 1.0267901 0.91215575 1.3289152 0.24923159 0.036953427
2.1762834 0.52283955 0.7727697 1.2920377 -0.710609 -0.9016784 1.9681085 -0.56684816
0.49650764 -0.58392316 1.375197 2.4702868 -1.8503774 -0.12691623 1.1404691 1.3530703
1.2461616 2.5423646 -0.32712105 3.161958 -0.77487344 -1.4350919 0.88202536 -0.43009064
-3.9152358 0.9482625 0.5771722 0.74839866 -2.776848 -9.458795 0.9599223 0.6152086
-1.7507799 -2.340708 -3.6743143 -4.0644503 -3.078723 -14.278021 1.6385437 -1.2652481
-0.6945506 -0.15272678 -1.0655444 -5.0173044 -2.2728117 -4.2971973 0.4444487 0.2998551
0.6772466 -4.881648 -1.54109 -4.4055705 -2.2855017 1.5799831 -3.3118079 -7.1970563
1.0649273 -1.3425056 -4.1962585 -4.7059975 -3.6538496 -9.748725 -3.3870118 -1.4258183
-2.094764 -3.3523133 -0.54544586 -5.6268673 0.71565163 0.8947948 -2.470902 0.6487692
-1.34565 0.7268061 -5.6832695 -2.9651706 1.60565 -2.02206 -5.8151565 -9.385408
-5.3026876 -3.2069676 -0.029616864 -4.003947 -0.75856626 1.5096961 -1.1446942 0.6522548
00000000: ed26 63c0 5433 913f 26ed 333f 2df7 233f
00000010: 13c9 33c0 af5e 18c1 d236 7b3f b050 1c3f
00000020: 9f33 18c0 9a81 ebbf 8d54 53c0 ae66 7dc0
00000030: 2be6 53c0 a958 35c0 af8d f03f 467a 3ebf
00000040: 9254 c8be 681e c2be 44b0 94bf 091c 9cc0
00000050: ea00 2cc0 8527 76c0 7b9f 033e 83d1 a63e
00000060: 848a 423f 4cf9 8fc0 07c9 00c0 d357 a1c0
00000070: 0e9a 3fc0 51fe f43f 8a6c 63c0 7bfe d8c0
00000080: 800f ab3f 480d 38bd 6e9d 84c0 76fd 7cc0
00000090: c9e3 5cc0 882b 17c1 2cf9 6cc0 db3c 83bf
000000a0: 4874 2dc0 72ad 45c0 bb58 33bf 9793 d2c0
000000b0: c60c 5f3f e2c0 7d3f e226 3dc0 bb1c c43e
000000c0: babf 81bf 5515 483f 2d07 bdc0 9758 54c0
000000d0: 1d49 e93f e20d 4ebf e499 c4c0 82d1 12c1
000000e0: 2ee9 dac0 a68c 60c0 7185 3f3e 4588 5fc0
000000f0: 6612 33be dd81 ec3f 0b79 48bf 4acb ec3e
00000100: b44f 7abf afdc 013f a72e 013f 9a81 023f
00000110: 0f9a b9bf 92e6 dec0 ba8b 0b3f 83e2 f43e
00000120: 8f56 f4bf 5754 0fc0 a755 90bf 37da 2bc0
00000130: 082a a3bf 7a18 29bd 06d7 963f 4577 82be
00000140: 12de b7be 719e 97be 6052 96bf 5b15 7dc0
00000150: 7ae4 18c0 7389 4dc0 dba8 833e b587 9e3e
00000160: f4a5 ca3e 4ecd 72c0 4cc4 d6bf 7760 21c0
00000170: f772 26c0 0283 a13f ac33 6dc0 244f c3c0
00000180: 136e 693f f0aa da3f c938 0cc0 e77f 86c0
00000190: c7f2 ccbf 5c16 9dc0 8bb6 0ec0 df5a 6d3f
000001a0: dee0 18c0 aac1 18c0 0c53 d2be eeee 89c0
000001b0: d403 263f 537c 2c3f abbd 31c0 b321 bf3e
000001c0: 2f21 02be 2573 043f d7c4 95c0 e2bf 65c0
000001d0: 718c e33f cea8 f23e c9f6 92c0 4e5f ebc0
000001e0: f64c 36c0 a6ea 4ac0 8e38 103b 2a1b 04c0
000001f0: 7ca2 313e 2222 c83f 9ac6 abbe 9f4f f93e
00000200: a98d 453f 987d 67bf a78d 31bf ffd9 cfbe
00000210: 9030 1540 7ad9 a53f d9cb 64bf b9a4 1ebf
00000220: daf5 a63f 34ac 28be 73bc 523f d042 5040
00000230: 1cb0 473f 7e32 6f3f 11fd b6bf 1583 5ebe
00000240: 010a 853e 9ec1 d43e 4501 0340 8105 7040
00000250: 4b6d 3040 28f7 953f 249f 7abe bd0c 54bf
00000260: e1af 26bf 1fba 6140 344a 4040 0944 9c3f
00000270: 2eec dc3f 1778 a8bf cc44 2140 210a 1a3f
00000280: f338 90bf 977d 973b e84f 853f dc6d 833f
00000290: 0a83 693f e519 aa3f 9136 7f3e 7a5c 173d
000002a0: 3a48 0b40 d0d8 053f 3cd4 453f 7e61 a53f
000002b0: 79ea 35bf 65d4 66bf fbea fb3f f61c 11bf
000002c0: 4036 fe3e fd7b 15bf 7506 b03f 2e19 1e40
000002d0: 2bd9 ecbf 54f6 01be e4fa 913f 6831 ad3f
000002e0: 3982 9f3f 1ab6 2240 697c a7be 855d 4a40
000002f0: 1b5e 46bf 17b1 b7bf 6acc 613f d734 dcbe
00000300: 3993 7ac0 55c1 723f 8fc1 133f 0e97 3f3f
00000310: e1b7 31c0 3957 17c1 78bd 753f 507e 1d3f
00000320: 8e19 e0bf 29ce 15c0 f727 6bc0 fa0f 82c0
00000330: cc09 45c0 c672 64c1 cdbb d13f a6f3 a1bf
00000340: 11ce 31bf 6964 1cbe c263 88bf c28d a0c0
00000350: bf75 11c0 a482 89c0 c88e e33e 9c86 993e
00000360: 0860 2d3f 7636 9cc0 7042 c5bf 6ffa 8cc0
00000370: a945 12c0 e33c ca3f a9f4 53c0 494e e6c0
00000380: 8a4f 883f 39d7 abbf c047 86c0 8897 96c0
00000390: acd8 69c0 c7fa 1bc1 cdc4 58c0 3781 b6bf
000003a0: 9d10 06c0 4d8c 56c0 57a2 0bbf 4c0f b4c0
000003b0: f234 373f 4611 653f 4223 1ec0 bd15 263f
000003c0: 423e acbf f70f 3a3f 58dd b5c0 5bc5 3dc0
000003d0: f085 cd3f 6e69 01c0 c315 bac0 a22a 16c1
000003e0: 9eaf a9c0 f53e 4dc0 119f f2bc 5520 80c0
000003f0: 6631 42bf b93d c13f 5785 92bf 2cfa 263f

model.2.bias f4 [64]
1.5697603 1.3188008 -1.3009409 1.4291697 1.5034658 1.1984597 0.3892921 1.2758195
1.4293512 1.1721547 -0.14884695 -0.092269845 1.0057007 1.2035145 1.3362938 0.047232907
1.0555255 1.3280269 1.2083539 0.7000155 1.4620883 1.0467294 -0.52150124 1.1836004
1.2497567 1.1759079 0.5730767 1.0393819 1.4994665 1.2881335 1.4654951 1.216721
1.3264468 1.5935919 -0.0044053164 1.2767599 0.73412687 1.3058888 1.2519823 1.3591886
1.0016537 1.049644 1.1768656 -0.29231137 1.3176324 1.1079733 1.806526 0.057359304
1.9011122 1.3837305 1.1925265 1.3756113 1.3763946 1.233445 1.4994045 0.5630466
1.4129051 1.5956887 1.410461 -0.110559255 1.2081803 -0.17688033 1.2321348 1.174247
00000000: e8ed c83f 77ce a83f 3b85 a6bf 08ef b63f
00000010: 9171 c03f 2167 993f 4b51 c73e 0e4e a33f
00000020: fbf4 b63f 2a09 963f 566b 18be f9f7 bcbd
00000030: cdba 803f c30c 9a3f ad0b ab3f 4b77 413d
00000040: 761b 873f c9fc a93f 57ab 9a3f 3734 333f
00000050: b625 bb3f 3bfb 853f 1b81 05bf 3880 973f
00000060: 07f8 9f3f 2684 963f 28b5 123f 770a 853f
00000070: 85ee bf3f 8fe1 a43f 5895 bb3f 84bd 9b3f
00000080: 02c9 a93f d2fa cb3f 795a 90bb de6c a33f
00000090: bdef 3b3f 5d27 a73f f540 a03f e4f9 ad3f
000000a0: 3036 803f bc5a 863f 88a3 963f d6a9 95be
000000b0: 2ea8 a83f 12d2 8d3f 3e3c e73f 97f1 6a3d
000000c0: a557 f33f 151e b13f b5a4 983f 0814 b03f
000000d0: b32d b03f 87e1 9d3f 7dec bf3f d223 103f
000000e0: 13da b43f 873f cc3f fc89 b43f e46c e2bd
000000f0: a7a5 9a3f 1e20 35be 98b6 9d3f ba4d 963f

model.4.weight f4 [1, 64]
5.5718737 -6.788258 -1.7387005 6.044558 5.132948 5.1099544 -19.249065 -9.047634
5.9726915 -9.825043 -22.548546 -0.79671156 3.553251 5.239058 -9.066426 -21.60011
-10.356928 -7.799558 3.4211676 -11.063133 5.3472967 -10.242443 2.7282147 -10.663542
5.285319 4.2609334 -13.174058 -9.81758 5.8508654 -9.431358 5.593035 3.68367
-7.8707333 5.6319265 -0.7729446 -10.113137 -14.232639 -8.738393 5.186308 5.930245
-10.2040415 4.754495 5.9016247 -24.41966 -8.506691 -9.722179 5.320652 -25.482542
2.9746935 4.4478555 5.7888365 5.773627 -4.7708163 4.927389 -8.420603 -4.596923
-6.2932024 5.3097906 -6.7966285 0.082576565 3.9524224 -23.535563 4.7239776 -9.968851
00000000: ca4c b240 6939 d9c0 bd8d debf 056d c140
00000010: 1c41 a440 bf84 a340 16fe 99c1 1cc3 10c1
00000020: 4a20 bf40 6033 1dc1 6c63 b4c1 4af5 4bbf
00000030: 7768 6340 5da6 a740 1510 11c1 06cd acc1
00000040: fab5 25c1 fb95 f9c0 69f4 5a40 9802 31c1
00000050: 0e1d ab40 0ce1 23c1 129b 2e40 de9d 2ac1
00000060: 5521 a940 9159 8840 f1c8 52c1 cf14 1dc1
00000070: 4a3a bb40 d8e6 16c1 25fa b240 40c1 6b40
00000080: 0cdd fbc0 be38 b440 b3df 45bf 69cf 21c1
00000090: e4b8 63c1 75d0 0bc1 3cf6 a540 91c4 bd40
000000a0: c143 23c1 d324 9840 1cda bc40 775b c3c1
000000b0: 681b 08c1 0c8e 1bc1 c842 aa40 3fdc cbc1
000000c0: 6161 3e40 d554 8e40 263e b940 8dc1 b840
000000d0: 87aa 98c0 2cad 9d40 caba 06c1 fe19 93c0
000000e0: ea61 c9c0 cee9 a940 fb7d d9c0 e71d a93d
000000f0: 7df4 7c40 d548 bcc1 d32a 9740 6a80 1fc1
