app/models/disc_K3_deg1_-7_5.pth (torch, 20460 bytes, 5 tensors)

model.0.weight f4 [64, 2]
0	0x3fa2caa7	1.2718095
1	0xbe81ad42	-0.25327498
2	0xbf32280f	-0.69592375
3	0x3f1b0956	0.6056112
4	0x3e79d634	0.24398118
5	0x3ecf5e8b	0.40501818
6	0xbef68c40	-0.48153877
7	0x3e91a3ec	0.28445375
8	0x3f803046	1.0014732
9	0xbd441ae6	-0.047877215
10	0x3f302495	0.6880582
11	0x3f218b5a	0.6310326
12	0xbdab457d	-0.08362863
13	0x3e8edb3a	0.27901632
14	0xbfb62f05	-1.4233099
15	0x3ec06590	0.37577486
16	0xbfa4830c	-1.2852492
17	0x3ecca9fe	0.39973444
18	0x3fa60e74	1.2973161
19	0xbd5098da	-0.05092702
20	0x3fa4872e	1.2853754
21	0xbe5519ee	-0.20810673
22	0xbf91d5a6	-1.1393325
23	0x3eb64d6c	0.35605943
24	0xbede2a56	-0.43391675
25	0x3ec7d659	0.39030722
26	0x3f4bed6c	0.7965915
27	0xbf30e229	-0.69095093
28	0x3e8b9b75	0.27267042
29	0xbef8ecbe	-0.4861812
30	0x3fab260a	1.3370984
31	0xbe220650	-0.1582272
32	0xbf192267	-0.5981812
33	0x3f01d2bf	0.507122
34	0x3f101fc4	0.5629847
35	0xbf3517c2	-0.70739377
36	0xbf8d1ca6	-1.1024368
37	0x3eeb2b54	0.45931494
38	0x3f6278e8	0.8846574
39	0xbf7bb399	-0.9832092
40	0x3f9303ae	1.1485498
41	0xbef48ea4	-0.47765076
42	0x3eef6927	0.46759912
43	0x3ec3fd92	0.38279396
44	0x3e87bd68	0.26511693
45	0xbf0eef7a	-0.5583416
46	0x3f25f162	0.64821446
47	0x3ed81ebf	0.42210957
48	0xbf119fa7	-0.56884235
49	0x3ee702e4	0.45119393
50	0x3f3e443e	0.7432288
51	0xbe88f048	-0.2674582
52	0x3e9eaba0	0.30990314
53	0xbf1d4315	-0.61430484
54	0x3e745553	0.23860674
55	0xbf10e9e8	-0.5660691
56	0xbf500272	-0.8125373
57	0x3ea419a6	0.32050818
58	0xbef26284	-0.47340786
59	0x3e6d978a	0.23202339
60	0x3e450aa4	0.1924234
61	0x3ef2d933	0.47431335
62	0x3f597ccc	0.8495605
63	0xbf024396	-0.5088438
64	0x3e218e3a	0.15776911
65	0x3ebe8f67	0.37218782
66	0x3ed23080	0.41052628
67	0x3f398d16	0.72480905
68	0x3ec1cfa9	0.37853745
69	0xbefbff15	-0.4921805
70	0xbe909f6b	-0.28246626
71	0xbfdd05f3	-1.726744
72	0x3ef17976	0.4716298
73	0xbee80c8d	-0.45322075
74	0x3f969740	1.1764908
75	0xbe909a91	-0.28242925
76	0xbf449298	-0.76786184
77	0x3e828839	0.25494555
78	0xbf85267d	-1.0402371
79	0x3f18f07f	0.5974197
80	0x3df446a1	0.11927534
81	0xbfb386ff	-1.4025573
82	0x3e843ebf	0.2582912
83	0x3e93a571	0.2883716
84	0xbeec49da	-0.46150094
85	0x3ed77464	0.42080986
86	0xbfb1d147	-1.3891991
87	0x3e2d6eef	0.16936849
88	0xbea09e82	-0.31370932
89	0x3e842a54	0.25813544
90	0xbf9bd3ed	-1.217405
91	0x3e990759	0.29888418
92	0xbf75987f	-0.95935816
93	0xbe839583	-0.25700006
94	0xbd3f2a12	-0.04667098
95	0x3e5a7fcf	0.21337818
96	0x3e8bbfb6	0.272947
97	0x3ecb6341	0.39724162
98	0x3eb2e0cb	0.34937128
99	0xbefab6e0	-0.48967648
100	0xbde12080	-0.10992527
101	0x3f33077d	0.699333
102	0xbf883974	-1.0642533
103	0x3edffedf	0.4374914
104	0xbfa5913e	-1.2934949
105	0xbeeef7ca	-0.46673423
106	0x3e2910e6	0.16510352
107	0x3f0a95e3	0.5413496
108	0xbf9c3055	-1.220225
109	0x3ebd0455	0.36917368
110	0x3d9ace98	0.07558936
111	0x3f0b3400	0.5437622
112	0x3eed2f83	0.4632531
113	0x3d637e7e	0.055540554
114	0xbe116fed	-0.14202853
115	0xbfa2361b	-1.2672762
116	0xbea5e75d	-0.3240308
117	0xbe6396b4	-0.22225457
118	0x3ef68587	0.48148748
119	0xbe7b21eb	-0.24524657
120	0x3ec27e26	0.3798687
121	0xbf3fd92f	-0.7494077
122	0xbf7a394f	-0.97743696
123	0x3f295625	0.6614707
124	0xbf3e9e47	-0.7446026
125	0x3ef36078	0.47534537
126	0xbe592a4f	-0.21207546
127	0x3f119c17	0.568788

model.0.bias f4 [64]
0	0x3fbc4876	1.4709613
1	0xbfd89e4c	-1.6923308
2	0x3f503a3e	0.8133887
3	0x3eed40ef	0.46338603
4	0x3e208fc8	0.15679848
5	0x3e20038c	0.15626353
6	0xbd2074a2	-0.03917373
7	0xc000d50d	-2.0130036
8	0xbffaa04b	-1.9580168
9	0x3f1dcbc9	0.61639076
10	0x3fb18d00	1.3871155
11	0x400f028a	2.23453
12	0xbf580be9	-0.84393173
13	0x4016de11	2.3573039
14	0xbe59cc36	-0.21269307
15	0x3fab4132	1.3379271
16	0xbfc0754b	-1.5035795
17	0x3fff2574	1.9933305
18	0xbffa39ce	-1.954889
19	0x406b1d6b	3.6736705
20	0x40013896	2.0190787
21	0x3e9fc20b	0.3120273
22	0xbd396567	-0.04526272
23	0x3d72f990	0.059320033
24	0x3f8b1e0c	1.0868545
25	0x3edb6d08	0.42856622
26	0x3ee4685c	0.4461087
27	0xbe72545c	-0.23664993
28	0x3f515a13	0.8177807
29	0x4004248a	2.0647302
30	0xbf292e98	-0.6608672
31	0x3fd792e7	1.6841706
32	0xbf074429	-0.5283838
33	0x3f98f4a7	1.1949662
34	0x3de7b009	0.11312873
35	0x3f350c6a	0.7072207
36	0x3e9ee288	0.31032205
37	0x3fd4fb94	1.6639276
38	0xbf4f1cb6	-0.80903184
39	0xc0117429	-2.2727149
40	0x401c97b3	2.446759
41	0x3fb98987	1.4495095
42	0x3fc6a026	1.5517623
43	0xbf996415	-1.1983668
44	0xbe9ee3fc	-0.31033313
45	0xbfbd9a63	-1.481274
46	0x3e62156a	0.22078481
47	0x3f05e547	0.52302974
48	0xbeb3428d	-0.35011712
49	0x3d20a125	0.03921618
50	0xbfa80832	-1.3127501
51	0x40052d9c	2.0809088
52	0xbe62e35e	-0.22157046
53	0xbe870b49	-0.26375797
54	0xbfdec01b	-1.7402376
55	0xbf7541df	-0.95803636
56	0x3fb26864	1.3938107
57	0x3fe05327	1.7525376
58	0xbf6c77fd	-0.9237059
59	0xbe325420	-0.17414904
60	0x3fc338b4	1.525168
61	0xc0183094	-2.377965
62	0x3f5942ba	0.8486744
63	0x3f9692f5	1.1763598

model.2.weight f4 [64, 64]
0	0x3d43ee21	0.04783452
1	0xbf5e50dc	-0.8684213
2	0xbea2f43a	-0.31826955
3	0x3cf36ddd	0.029715473
4	0x3e28ecd0	0.16496587
5	0xbe6ed707	-0.23324214
6	0xbe330a85	-0.17484482
7	0xbe786f0a	-0.24261108
8	0xbc4991d3	-0.012302834
9	0x3da5515e	0.0807216
10	0x3de213d6	0.1103894
11	0x3e302ca8	0.17204535
12	0xbe19d671	-0.15023209
13	0x3dc51bac	0.096244186
14	0xbeff5a87	-0.49873754
15	0x3e6de428	0.23231566
16	0xbe19829c	-0.1499123
17	0x3e418cd5	0.1890138
18	0xbe3f0438	-0.18653953
19	0x3e0a6d63	0.1351829
20	0x3e221a26	0.15830287
21	0xbea917ac	-0.33025873
22	0xbe296d92	-0.16545704
23	0xbe82a75e	-0.25518316
24	0xbcb4e6a0	-0.022082627
25	0x3e239e72	0.15978411
26	0xbe3579ff	-0.17722319
27	0xbeeb8075	-0.45996442
28	0xbc240c7a	-0.01001274
29	0x3eab380b	0.33441195
30	0xbe9c0612	-0.3047338
31	0x3d8ac289	0.06775386
32	0xbe231585	-0.15926178
33	0xbe81f562	-0.25382525
34	0xbd867a49	-0.06566293
35	0xbf805d2b	-1.0028433
36	0xbd33b3f2	-0.04387278
37	0xb978c4b4	-0.000237244
38	0x3cac75df	0.021052299
39	0xbf06c826	-0.5264915
40	0x3f81cc4d	1.0140473
41	0x3ca49829	0.020092087
42	0x3e4c0e3b	0.19927303
43	0x3e569da2	0.2095857
44	0xbe6d5cf3	-0.23179989
45	0xbd9e367b	-0.07725235
46	0x3f384037	0.71972984
47	0xbd9a5d4c	-0.07537326
48	0xbe04f1c2	-0.12982848
49	0xbdf65c1c	-0.12029287
50	0xbea4da31	-0.32197717
51	0x3e45f376	0.19331154
52	0x3f0d3078	0.5515208
53	0xbe2b9d24	-0.16759163
54	0xbe5584a3	-0.20851378
55	0xbf129606	-0.5726017
56	0xbe8dd699	-0.27702788
57	0x3e40f75b	0.18844359
58	0xbfb9545f	-1.4478873
59	0x3a732823	0.0009275695
60	0x3de09806	0.10966496
61	0xbf3063df	-0.6890239
62	0x3de03126	0.10946874
63	0xbdebe0fb	-0.11517521
64	0xbecc924a	-0.3995536
65	0xbf6ab107	-0.9167637
66	0xbd52c0cd	-0.0514534
67	0x3e134f2c	0.1438567
68	0xbf4978f3	-0.7870018
69	0xbe711c11	-0.23545863
70	0xbdf96252	-0.12176956
71	0xbf435f71	-0.7631751
72	0xbf20509c	-0.62623
73	0xbea48ada	-0.32137185
74	0xbf73170b	-0.94957036
75	0x3eaa3dc5	0.3325025
76	0xbe5ef2eb	-0.21772353
77	0xbf768863	-0.9630186
78	0xbf616781	-0.8804856
79	0xbece2e12	-0.40269524
80	0xbebb5ccf	-0.36594245
81	0xbf492681	-0.7857438
82	0xbf41b6f5	-0.75669795
83	0xbf710e57	-0.94162506
84	0xbf40f260	-0.75369835
85	0xbd5162ad	-0.051119495
86	0xbf422836	-0.7584261
87	0xbda79870	-0.08183372
88	0x3dda703e	0.1066594
89	0xbf469048	-0.77563906
90	0xbf596195	-0.84914523
91	0xbf3bce40	-0.7336159
92	0x3ce8272a	0.028338987
93	0x3e8089ef	0.25105235
94	0xbe141843	-0.1446238
95	0xbf63c3bc	-0.8897054
96	0xbe2a8db3	-0.16655616
97	0xbdb04e95	-0.08608738
98	0xbf5544d6	-0.8330816
99	0x3e17cbcd	0.14823838
100	0xbf3612a6	-0.71122205
101	0xbf15ccce	-0.5851563
102	0xbe06f06e	-0.13177654
103	0xbf89dfcf	-1.0771426
104	0xbf41a278	-0.7563853
105	0x3d8a27f9	0.067459054
106	0x3e16484c	0.14676017
107	0xbec68bfc	-0.38778675
108	0xbd48692e	-0.048928432
109	0xbf119ca2	-0.5687963
110	0x3da516a0	0.08060956
111	0xbc9d7a63	-0.019223398
112	0xbe8834b9	-0.26602724
113	0xbf6fe18b	-0.93703526
114	0xbf17160a	-0.59018004
115	0x3ea4df98	0.32201838
116	0x3dcf0b8b	0.101096235
117	0xbd3056a6	-0.043051384
118	0xbf18212e	-0.5942563
119	0xbf0ed57a	-0.5579449
120	0xbdb2859f	-0.087168925
121	0xbd713026	-0.05888381
122	0xbef90aed	-0.48641148
123	0xbf3e8f22	-0.74437153
124	0xbf320562	-0.69539464
125	0xbf84a95b	-1.0364183
126	0x3e2b01cf	0.16699909
127	0x3c8caba3	0.017171687
128	0xbd3f5751	-0.04671413
129	0xbf3a8582	-0.72859967
130	0x3e56affb	0.20965569
131	0x3c958ec6	0.018256556
132	0x3cc48668	0.023989871
133	0x3d617c7e	0.055050366
134	0x3e1f05b9	0.15529527
135	0xbf394b8c	-0.723809
136	0xbf0b5260	-0.5442257
137	0x3d1e4289	0.03863767
138	0x3e2b243b	0.1671304
139	0x3e97cba2	0.29647547
140	0xbe11ccb5	-0.14238246
141	0xbf0b0cbe	-0.5431632
142	0xbf2fd167	-0.686789
143	0xbcb8b83c	-0.022548787
144	0xbda8bba3	-0.08238914
145	0xbe93ce60	-0.2886839
146	0xbf071425	-0.52765113
147	0xbf1c4d0f	-0.6105508
148	0xbdc39e60	-0.09551692
149	0x3e05e4e2	0.13075593
150	0xbeee9145	-0.46595207
151	0x3dae2792	0.08503641
152	0x3d8fb8b7	0.070176534
153	0xbd6ee652	-0.05832512
154	0xbf0612fc	-0.5237272
155	0xbf32ce8f	-0.69846433
156	0x3ddcd6e0	0.10783172
157	0x3e2c63a8	0.16834891
158	0xbdfcf723	-0.12351825
159	0xbe62eac6	-0.22159871
160	0xbdb7c7e3	-0.08973672
161	0x3e041b6f	0.1290109
162	0xbf011a41	-0.50430685
163	0xbf1a8bf4	-0.603698
164	0xbf0161b6	-0.5053972
165	0xbe0f2d9c	-0.13982242
166	0xbdc4e4e2	-0.096139684
167	0xbf36c8bf	-0.71400064
168	0xbf24b952	-0.64345276
169	0x3e53beb9	0.20678224
170	0x3e6ea26e	0.2330415
171	0xbea31117	-0.31848976
172	0x3e0b23f0	0.13587928
173	0xbeb98a30	-0.3623824
174	0x3d643dcf	0.055723008
175	0x3d0c9fe4	0.03433217
176	0xbdb2fed8	-0.08740014
177	0xbf18b13b	-0.5964543
178	0xbe107388	-0.14106572
179	0x3e6f2bd9	0.2335657
180	0xbc983358	-0.01857917
181	0x3bd3a510	0.006458886
182	0xbefd1844	-0.49432576
183	0xbe3f7ab8	-0.18699157
184	0x3d8db20d	0.06918726
185	0xbee3f47b	-0.4452246
186	0xbf228f86	-0.6350025
187	0xbe068a73	-0.13138752
188	0xbe91cd6a	-0.2847703
189	0xbf2683e0	-0.65044975
190	0x3e10746d	0.14106913
191	0x3e38d048	0.18048203
192	0xbdcc3f25	-0.09972981
193	0xbed75731	-0.4205871
194	0x3db8ae45	0.09017614
195	0x3d2f0c89	0.042736564
196	0xbd15f64e	-0.036611848
197	0x3d9d1b6f	0.07671248
198	0x3d4c3c49	0.04986218
199	0xbf16514b	-0.58717793
200	0xbee91c2e	-0.45529312
201	0xbd9e6f7d	-0.077361085
202	0xbc4fa918	-0.012674592
203	0x3dfd3905	0.12364391
204	0x39af76f7	0.00033467237
205	0xbf33a21e	-0.70169246
206	0xbf09e122	-0.5385915
207	0xbe02b338	-0.12763679
208	0xbe70acca	-0.23503414
209	0xbec635df	-0.38712975
210	0xbefdc6ef	-0.49565837
211	0xbf363f0b	-0.71189946
212	0xbebf642e	-0.3738112
213	0x3cf11099	0.02942686
214	0xbf10aef9	-0.5651699
215	0x3d29ed98	0.041486353
216	0x3e5031b7	0.20331465
217	0xbe8fdb3a	-0.28096944
218	0xbf0c2b74	-0.54753804
219	0xbf0872a0	-0.53299904
220	0x3babaad5	0.0052388706
221	0x3e01200f	0.12609886
222	0x3da27d66	0.07934074
223	0xbf0be14e	-0.5464066
224	0x3da27696	0.07932775
225	0x3e2c8e60	0.16851187
226	0xbed3f6ae	-0.4139914
227	0xbf3577b3	-0.7088577
228	0xbee1d9ee	-0.4411158
229	0xbe6bf72e	-0.2304351
230	0xbe54cdd5	-0.20781644
231	0xbf0d7492	-0.55256
232	0xbf256552	-0.6460773
233	0x3ca06b0e	0.019582298
234	0x3e6431d0	0.22284627
235	0xbed9b288	-0.4251902
236	0xbe188bb5	-0.14897044
237	0xbed4f508	-0.41593194
238	0xbe1dd5e4	-0.15413624
239	0x3dd60a31	0.104511626
240	0x3d299193	0.041398596
241	0xbf20d62c	-0.628268
242	0x3cdaa672	0.026690695
243	0x3e85c70a	0.26128417
244	0xbeae4a9d	-0.340413
245	0x3ce1081f	0.027469693
246	0xbee2cd3b	-0.44297203
247	0xbd54757d	-0.051869858
248	0x3e42d07e	0.19024846
249	0xbf1ec59c	-0.6202028
250	0xbf2feba3	-0.6871893
251	0xbe3d2ac2	-0.18473342
252	0xbe9614d1	-0.29312757
253	0xbf17a952	-0.5924274
254	0x3bd82a73	0.006596857
255	0x3dbfe8d0	0.09370577

model.2.bias f4 [64]
0	0x3e6d121d	0.23151441
1	0x3f2086f3	0.62705916
2	0x3ebff08e	0.37488216
3	0x3ead1c1b	0.33810505
4	0x3e70eca3	0.2352777
5	0xbcafb0f7	-0.021446688
6	0x3e8972c1	0.26845363
7	0xbdd66e5b	-0.104702674
8	0x3dfa3282	0.12216665
9	0x3ed2d4a6	0.41177863
10	0xbe234a89	-0.15946402
11	0x3ec89c9f	0.39181992
12	0xbded6547	-0.11591583
13	0x3e84916a	0.25892192
14	0xbe3a2061	-0.18176414
15	0xbdf4eafd	-0.11958883
16	0x3d326e81	0.043562416
17	0xbe749029	-0.23883118
18	0xbd0c068d	-0.034185935
19	0xbe17a564	-0.14809185
20	0x3ea0126f	0.31264064
21	0x3e113f7c	0.14184374
22	0xbe36a65f	-0.17836903
23	0x3edfcb17	0.43709633
24	0xbd98e267	-0.07465058
25	0xbe96f3ba	-0.29482824
26	0x3ea427c5	0.32061592
27	0xbdc881a9	-0.09790356
28	0x3dd3e48a	0.10346325
29	0x3ed5b027	0.41735956
30	0xbd201830	-0.039085567
31	0x3eb56e94	0.35435927
32	0x3ebf68c4	0.37384617
33	0x3e9c3e7b	0.3051642
34	0x3f1241db	0.5713174
35	0x3dc830b6	0.09774916
36	0x3cd5a517	0.026079698
37	0xbe9ce7c2	-0.30645567
38	0x3f29bc78	0.66303205
39	0xbe47b74b	-0.19503514
40	0x3ed12140	0.4084568
41	0xbf2aa434	-0.66656804
42	0x3d043c64	0.032284155
43	0x3ef9b164	0.4876815
44	0x3f341988	0.7035146
45	0xbdfcd097	-0.12344473
46	0x3dc54faa	0.09634335
47	0x3f195f08	0.5991063
48	0x3f10aad3	0.5651066
49	0x3efc1bfd	0.49240103
50	0xbe864e73	-0.26231727
51	0x3f09df67	0.5385651
52	0x3ea4e1c8	0.32203507
53	0xbdd76614	-0.10517517
54	0xbea7ae5d	-0.32750216
55	0x3d101770	0.0351786
56	0x3f2157cb	0.63024586
57	0xbd961c3a	-0.073296025
58	0x3ed77674	0.4208256
59	0xbe4ea9d5	-0.20181973
60	0x3ef880c2	0.48535734
61	0x3dc5fade	0.0966699
62	0x3edbdb49	0.4294074
63	0x3f095f8d	0.53661424

model.4.weight f4 [1, 64]
0	0x3e89ee4d	0.26939622
1	0x3f34a4d1	0.7056399
2	0x3eb01601	0.34391788
3	0x3e974046	0.29541224
4	0xbeca7e09	-0.39549282
5	0x3d85a3bd	0.06525371
6	0xbf8f38ea	-1.1189244
7	0x3e86d137	0.26331493
8	0xbf1e1688	-0.6175313
9	0x3eb24a5c	0.34822357
10	0xbe859ac9	-0.26094654
11	0x3eacb368	0.33730626
12	0xbf3cd6b6	-0.7376512
13	0xbf1ca092	-0.6118251
14	0xbf078d7c	-0.52950263
15	0xbd8a4e16	-0.06753175
16	0xbf950096	-1.1640804
17	0xbf557e1e	-0.83395565
18	0xbe9d5517	-0.3072898
19	0xbdad73e3	-0.08469369
20	0x3e99e430	0.30056906
21	0xbed9fd63	-0.4257613
22	0xbf94253c	-1.1573863
23	0x3f105646	0.5638164
24	0xbd986d8f	-0.07442772
25	0x3e4f7d3c	0.20262617
26	0xbeffc211	-0.49952748
27	0xbe2055c5	-0.15657718
28	0xbeff38c0	-0.49847984
29	0x3f3cb9d3	0.73721045
30	0xbf98ee4e	-1.1947725
31	0x3e7b2362	0.24525216
32	0x3e8bb4bd	0.2728633
33	0x3ee5d271	0.44887117
34	0x3ef0ec6a	0.4705537
35	0x3e105174	0.14093572
36	0xbeb38026	-0.35058707
37	0xbf3211f4	-0.69558644
38	0x3f0b1356	0.5432638
39	0xbd967e10	-0.07348263
40	0xbf83667d	-1.0265652
41	0xbfdf2b96	-1.7435176
42	0x3e818750	0.25298548
43	0xbf8a017a	-1.0781701
44	0x3f7f5744	0.9974253
45	0xbefebabe	-0.49751848
46	0xbf7ce7c3	-0.9879114
47	0x3ee5b5ee	0.44865364
48	0x3f734785	0.95031005
49	0x3eae6a5f	0.3406553
50	0xbfaeb644	-1.3649373
51	0x3f054f7e	0.5207442
52	0xbf5c36e3	-0.8602125
53	0x3e54e6e1	0.20791198
54	0xbe8e7b83	-0.27828607
55	0xbf29236f	-0.6606969
56	0x3f4cc4bf	0.7998771
57	0xbe288a82	-0.16459087
58	0xbf40385d	-0.75086004
59	0x3e74af79	0.23895063
60	0xbf697d16	-0.9120649
61	0x3e09fb43	0.13474755
62	0x3ef615ac	0.4806341
63	0x3edd3896	0.43207234
