app/models/disc_K3_deg1_-10_9.pth (torch, 20470 bytes, 5 tensors)

model.0.weight f4 [64, 2]
00000000: e6d8 9ebf 3127 de3e ffdc e53f 14f7 c3bd
00000010: 2dbe 133f e286 013f 6144 d7be d36c 3cbe
00000020: 43f4 6c3f f5e0 3abf 902f 0140 3857 96be
00000030: 9152 fe3e 5e50 453f 95cd 563e 3b59 8fbf
00000040: c3e8 04be c082 453f c637 7dbf 656c 053f
00000050: c927 e43f 153b 31be 22a6 dc3e 5637 453f
00000060: 066d 8a3f ee84 3bbf fd6b f8be 4245 83bf
00000070: c5d3 63bf d0f3 063f 9650 8e3f 5866 c7be
00000080: 6be0 e3be 7a73 423f a59f 993f d1e8 38bf
00000090: ce31 9c3f a9e8 16bf e253 71bf ddac a93e
000000a0: e506 a2be 6887 8b3d 935b 21bf e027 ba3e
000000b0: d09d b1bf 2e54 c53e d701 afbf 1f2b 363e
000000c0: b9eb b7bd 9fb8 c5bd 1e09 81bf 5dd6 e83e
000000d0: 6ba0 9cbf 79e6 0fbe 12bb 843f 757c 623f
000000e0: 4263 2c3c 8b94 283f 1ceb 863f be75 3fbf
000000f0: fe61 853f e05c 18bf 1c94 5fbf 15c6 873e
00000100: aa5d 933f a080 14bf 42d1 10bd dcd1 253f
00000110: 9216 7b3f 84d9 eabe d8e5 ae3f e491 14bf
00000120: ce87 79bf 98c7 dbbe 04a6 653f a5ad 28bf
00000130: e4c8 1240 8e7e 533e 6596 983f e7e0 b7be
00000140: 5540 29bf f6fb c73e 10b6 a13f 0e41 1abf
00000150: 59ea 2cbf b51d 25be 3c75 4dbf 8d0d 183f
00000160: 5fc8 80bf 7b75 d73e 5196 693f 72a1 3cbf
00000170: acae 43bf ffeb d03e c8b5 643f 2eac 5ebf
00000180: c290 883f 4faa 46bf ff17 293f bd1c 803f
00000190: 1d49 ae3f 68c5 c7be 9066 883f 4203 31bf
000001a0: ba2e 8c3f 0100 003f 1e17 cebe 4706 94bf
000001b0: 9b1e c5be 35c6 2b3f 3a7a 8e3f cad5 1dbf
000001c0: c56a a33f a1f3 45bf 4b6f 8cbf 5535 0c3f
000001d0: e049 e3be 28a0 bf3e 0e6f 8dbf 0c42 04bf
000001e0: 5b86 8e3f f4a1 37bf c3b8 98bf 7541 1f3f
000001f0: 413b 9bbf b7b0 193f b5fc 95bf f0f0 153f
-1.2409942 0.43389276 1.7958068 -0.09568611 0.5771206 0.5059644 -0.42044356 -0.18400888
0.92560214 -0.7299951 2.018528 -0.29363418 0.49672368 0.77075756 0.20976861 -1.1199106
-0.12979417 0.77152634 -0.9891323 0.5211852 1.7824641 -0.17307694 0.430955 0.7703756
1.0814521 -0.7324971 -0.4851989 -1.0255511 -0.8899501 0.5271578 1.1118343 -0.3894527
-0.44507155 0.75957453 1.2001845 -0.7223025 1.2202699 -0.5894876 -0.9426862 0.33139697
-0.31645885 0.06812936 -0.63030356 0.36358547 -1.3876286 0.38540787 -1.3672436 0.17789887
-0.089805074 -0.09654354 -1.0080907 0.45476046 -1.2236456 -0.14052762 1.0369589 0.88471156
0.010521712 0.6585166 1.05405 -0.74789035 1.042053 -0.59516716 -0.8733537 0.26518312
1.1512959 -0.58008766 -0.035355814 0.64773345 0.98081315 -0.45869076 1.3663893 -0.5803511
-0.97472847 -0.42925715 0.89706445 -0.6588996 2.2935114 0.20653746 1.1920897 -0.35913774
-0.6611379 0.39059418 1.2633686 -0.60255516 -0.67545086 -0.16124614 -0.8025701 0.59395677
-1.0061148 0.42081818 0.9124499 -0.73683846 -0.76438403 0.4080505 0.89339876 -0.86981475
1.0669177 -0.7760362 0.6605224 1.000877 1.3616062 -0.39017797 1.06563 -0.69145596
1.095176 0.50000006 -0.40252012 -1.1564416 -0.38499913 0.67099315 1.113105 -0.6165434
1.2766958 -0.77324873 -1.0971464 0.5476888 -0.443923 0.37426877 -1.1049516 -0.5166328
1.1134752 -0.71731496 -1.1931385 0.62209255 -1.2127458 0.6003527 -1.1717745 0.58570766

model.0.bias f4 [64]
00000000: c91b 21c0 963f f73f c692 2740 5bac 153f
00000010: 10b2 6040 48f6 7940 365f 3340 8b4c 5c40
00000020: fda9 0140 a509 0e40 d9f6 1c40 8aac 0740
00000030: 6b25 6d40 f7aa 743f b590 3740 8462 0640
00000040: eeec 16c0 391a 8540 cd38 6a40 48ff 733f
00000050: 4c7c 2dbe f2d1 ec3e ab0b 22c0 3f2d ccbf
00000060: be57 5140 0fa0 01c0 e558 6840 8d7e 98bf
00000070: 4455 eb3e 3bd1 7540 da61 5040 7e25 1dbf
00000080: 48ff 5940 506d e53f ab9d 1140 4047 7340
00000090: 0d4e 4abc de6f 4c40 b728 0440 c1a9 0a40
000000a0: d40e 77bf e6df 7440 0b4b 3140 10e9 10c0
000000b0: 92e0 efbf 33f0 6040 c5ed b5bf 682c 7940
000000c0: ec07 8040 9666 1940 3b58 2840 5ddd 5740
000000d0: e3eb ab3f 8ceb 1740 5bfb debf 8b7f 5840
000000e0: ed8d 9540 2a26 29c0 ff6f 8e40 10fc e8bd
000000f0: 9a74 8340 c114 49c0 1173 46c0 1d93 3dc0
-2.5173209 1.931628 2.6183333 0.5846612 3.510868 3.9056568 2.8026862 3.4421718
2.0260003 2.2193387 2.4525664 2.119906 3.7054088 0.9557337 2.8682072 2.099763
-2.358211 4.159451 3.6597168 0.95311403 -0.16941947 0.46253926 -2.5319622 -1.5951308
3.2709804 -2.0253942 3.6304257 -1.191362 0.4596349 3.8408954 3.2559724 -0.61385334
3.4062061 1.7923985 2.2752483 3.8012238 -0.01234771 3.1943278 2.064985 2.166611
-0.96507 3.8261657 2.7702053 -2.264225 -1.8740408 3.5146606 -1.4213187 3.8933353
4.000967 2.3968863 2.6303852 3.372886 1.3431362 2.3737516 -1.7420458 3.3827846
4.673575 -2.6429543 4.4511714 -0.11376202 4.1079836 -3.1418917 -3.100773 -2.962104

model.2.weight f4 [64, 64]
00000000: 05e3 15c0 d82b c1bf 505c b63e e15a fa3e
00000010: a438 b5bf 135e f6be f311 073f 6a9d bfbf
00000020: 7385 653e e03d 6c3e 17c2 adbf 14e1 cb3e
00000030: 8b06 c9bf 0ff4 8bbf 3431 5d3e 5954 cdbf
00000040: c98e 8bbf 421b c7bf e9c7 78bf 9201 9cbd
00000050: 4ecb a13d 7844 49be f94a fbbf a850 57bf
00000060: 905c 663f f210 c4bf de60 4a3f 3381 66be
00000070: 6627 e8bd e5dc a0bf ecc0 a4bf 458a aebe
00000080: 95ec 82bf b7a3 86bd 5abe 15bf 40e8 babf
00000090: 1b1c 973f f6c0 a2bf e770 ccbe e9b0 cbbf
000000a0: 12ab 16bf eb5b 8ebf ba1b 843f be47 b5bf
000000b0: 25f8 adbf 3fc9 a7bf fdec 5ebf 3043 a1bf
000000c0: e62f a0bf 9804 c53e 0b24 cebf ebd7 a6bf
000000d0: e075 543e 1013 adbf e69b 52bf 2ab6 d9bf
000000e0: b723 92bf 030f 0ec0 fe4f b53e aa50 bd3f
000000f0: 03f5 86bf d965 0ac0 8719 08c0 d415 0bc0
00000100: 5166 8abf d320 14c0 9b46 0abe bd1c afbe
00000110: 2cb8 89c0 771c a8c0 1704 0dbe 7e4a ebbf
00000120: 9bf8 813d b93d cbbd 9f36 42c0 91de 513d
00000130: acb4 15c0 d82f 71bf dd6f 56be f46f 1fc0
00000140: 67b9 1ebf d6b6 cdc0 a7d7 8ec0 1b7e 06be
00000150: cdec 8cbe 0839 ca3b f4db 37bf 4219 bdbe
00000160: 5b0d e5be 4d38 05bf f8ce 38bf d29b 533f
00000170: b910 0f3e 9c12 68c0 9bed 81c0 8246 c23c
00000180: 79bf 70c0 41c6 07be d83d 03c0 3c71 bac0
00000190: b502 b23f 4047 94c0 a05e 87bf 87fd 3bc0
000001a0: 5c25 03be 215d abc0 98aa 28bf 0e04 22bf
000001b0: 3afe ccbe c9ce 88c0 f9a6 56be 7b32 17c0
000001c0: f8f9 75c0 bbec d4bd 78f2 42c0 d62e f5bf
000001d0: d0a9 fabc 05f5 8bbf 7303 f2bd d551 8ac0
000001e0: ded8 00c1 722e 89bf c23a 1cbe cebd 0040
000001f0: be9b dfc0 e349 abbf da64 adbf f0e5 c2bf
00000200: 9c86 323d 5e48 d0bf ef72 1ebd 4769 b33e
00000210: f280 033f 8139 0bc0 cfb1 1f3d 94d1 57be
00000220: 0fdf b03d 129b 153e bcad ecbf 5644 90bb
00000230: 024c 99bf 4632 17bf fe77 543d 88e2 93bf
00000240: 82c9 ca3e fb8e 0fbf 788e 97bf 9768 abbd
00000250: aa75 aa3e 2e8d 2fbe dbef 6b3d a5a1 853e
00000260: 8509 893e 2f0d 163e 61e8 fc3d 20ed 873e
00000270: 907e d3bd b168 783d 168d 4ebf b2d8 95bd
00000280: b8bb 93bf 5077 8a3d 123b 8fbe 4001 b9bf
00000290: bbfc 373e f006 25bf eb41 fabe a94e 9cbf
000002a0: f384 eebd db56 9abf 3233 6b3e 1069 8a3e
000002b0: ac62 763e 8698 9c3e a093 5a3e 9a3c 08bf
000002c0: 21e4 55be 4e77 a33d 30f5 b0bf 6610 abbf
000002d0: dc1d 17be 33e6 b73e 8d27 4f3e a991 66bf
000002e0: b6c6 7abf 9d92 ff3d 9110 083e fd63 873e
000002f0: 9693 0bbf 39fb 84be 1f8a a3bd 6153 52be
00000300: 07dc 99bf b50e 63bf 2d65 533d 31a3 d4bd
00000310: cc74 3ec0 2d78 dabf ba61 dd3d d0ff b8bf
00000320: 8406 be3d f884 21bd 9dd3 4dc0 45d7 a8bd
00000330: 4ec2 d1bf 9418 89bf 8bcb a63d 7f61 0ac0
00000340: b839 77be 0a94 a1c0 6b45 babf 6a8b efbc
00000350: b1e1 c93c 11e2 ce3d 38ab 9ebf b497 bcbe
00000360: f73c a4bd b220 e8be ae0f 0ebf 88f9 6a3e
00000370: e0a7 9a3b 5734 18c0 e060 babf 49c8 b73b
00000380: 24ca acbf 8876 aabd ea80 3bbf 639b 90c0
00000390: 939d 843f b8ca 17c0 9867 353e aa7d a3bf
000003a0: 655f 63bb 6556 09c0 e33e 08bf eeb4 cebe
000003b0: 344a fbbe 0d8d 3ac0 cacf 27be 3599 c9bf
000003c0: 2165 1cc0 ab78 af3d c49a bebf eb58 abbf
000003d0: 0a61 bd3d e2da f8bf 9236 24be 2a7a 45c0
000003e0: 260f bdc0 ad3b 93bf e962 053e 97b2 863f
000003f0: b6bd a3c0 e726 95bf 948c b2bf fe8b a0bf
-2.3419812 -1.5091505 0.35617304 0.4889746 -1.415791 -0.48118648 0.52761763 -1.4969914
0.22414188 0.23070478 -1.3574857 0.39820158 -1.5705122 -1.0933856 0.21600801 -1.6041366
-1.090295 -1.5555193 -0.9718004 -0.07617487 0.079001054 -0.19655025 -1.9632255 -0.84107447
0.8998499 -1.5317671 0.7905406 -0.22510223 -0.1133564 -1.2567412 -1.2871375 -0.34089866
-1.0228449 -0.06574195 -0.5849358 -1.4602127 1.1805452 -1.2715137 -0.39929888 -1.5913364
-0.5885478 -1.1121801 1.0320961 -1.4162519 -1.3591353 -1.310829 -0.87080365 -1.2598629
-1.2514617 0.38480067 -1.610475 -1.3034643 0.2074809 -1.3521442 -0.8226913 -1.7008717
-1.1417149 -2.2196662 0.35412592 1.4790242 -1.0543522 -2.1624663 -2.126558 -2.1732073
-1.0812474 -2.3145034 -0.13503496 -0.34201613 -4.303732 -5.2534747 -0.13771091 -1.8382108
0.06346246 -0.09923882 -3.0345838 0.051237646 -2.3391523 -0.9421363 -0.2094111 -2.491208
-0.6200165 -6.428569 -4.4638247 -0.13134043 -0.27524415 0.0061713494 -0.71819997 -0.36933333
-0.44736752 -0.52039033 -0.7219081 0.8265964 0.13971223 -3.6261358 -4.0602546 0.023715261
-3.7616866 -0.13259222 -2.0506496 -5.8263226 1.3907076 -4.6336975 -1.0575752 -2.937349
-0.1280722 -5.3551183 -0.65885305 -0.63287437 -0.4003771 -4.2752423 -0.20962133 -2.362456
-3.843382 -0.10396715 -3.046049 -1.9154918 -0.030598551 -1.0934149 -0.11817064 -4.3224893
-8.052946 -1.0717299 -0.1525679 2.0115848 -6.9877615 -1.3381923 -1.3546402 -1.5226421
0.043585405 -1.6272085 -0.038683828 0.35041258 0.5136863 -2.1753848 0.03898793 -0.21076041
0.08636295 0.14609936 -1.849052 -0.0044026775 -1.1976321 -0.59061086 0.051872246 -1.1553507
0.39606863 -0.56077546 -1.1840353 -0.08369558 0.33292896 -0.171437 0.05760179 0.26099887
0.26765075 0.14653467 0.1234901 0.265481 -0.10326874 0.060646717 -0.8068403 -0.07316722
-1.1541662 0.06761038 -0.27974755 -1.4453506 0.17967503 -0.6446371 -0.48878416 -1.2211505
-0.11646452 -1.2057756 0.22968748 0.2703328 0.24061078 0.30585116 0.21345377 -0.5321747
-0.20887806 0.0798174 -1.3824825 -1.336438 -0.14757484 0.35917816 0.20229931 -0.9006601
-0.9795946 0.12479136 0.1328757 0.26443473 -0.54522073 -0.25972918 -0.07985329 -0.20539619
-1.2020272 -0.88694316 0.05161016 -0.10382689 -2.9758787 -1.7067925 0.108096555 -1.4453068
0.092785865 -0.03943345 -3.2160408 -0.082441844 -1.6387422 -1.0710626 0.081442915 -2.1622007
-0.24143112 -5.049321 -1.4552435 -0.029241282 0.02464375 0.101017125 -1.2396002 -0.3683449
-0.080194406 -0.45337445 -0.55492675 0.22946751 0.0047197193 -2.3781946 -1.4560814 0.0056085926
-1.3499188 -0.08323389 -0.7324358 -4.518968 1.0360588 -2.371748 0.17715299 -1.2772725
-0.003469431 -2.145898 -0.5322096 -0.40372413 -0.4908005 -2.914859 -0.16387859 -1.574988
-2.4436724 0.085679375 -1.4890981 -1.3386511 0.09247024 -1.9441798 -0.16036442 -3.0855813
-5.908099 -1.1502587 0.13026012 1.0523251 -5.116908 -1.1652497 -1.3949151 -1.2542722

model.2.bias f4 [64]
00000000: 280a 5f3f c8ae 9dbe e6e8 a53e 6ab4 f1bd
00000010: d09a b3bc 09d7 963f a7c1 c2be a7d4 52bc
00000020: 50db 403f 733c 513f 82be 203f 03dc 78bd
00000030: db0a 883f cf22 58be db0a 123f 68fe a6be
00000040: d666 7e3f 10db ce3e 9b72 e3bc b36c 253f
00000050: 22c4 a63f da92 d53e 554e 7f3e dec3 9ebe
00000060: caa1 973f 9f3e ac3f f6ad 0d3f c330 ca3e
00000070: c6d6 cebe 9834 383f 564c a93e aa76 b93f
00000080: e6dd 553f 2195 aa3f 58c7 563f 2767 adbe
00000090: 4357 2c3f 4cb0 20bf 4de7 9fbe 0d2f 363f
000000a0: 797d 70be e081 c6be 477e 813f 5d66 563f
000000b0: 12df 783e 1aec 443f cc27 2d3f 09eb c33d
000000c0: 4ce5 4f3f 836a 96bd 10ac 3ebd 53a3 273f
000000d0: 89e3 1f3f ec40 23bf d357 cb3e 9f4a 8f3c
000000e0: 89ec 8f3f 9ce3 3cbe ad90 193e 5c0d babe
000000f0: 34f7 083f 0f6f dbbe b9a0 ad3d f93b 2ebf
0.8712487 -0.3079741 0.3240425 -0.118019894 -0.021924406 1.1784374 -0.3803837 -0.012868083
0.75334644 0.81732863 0.6279069 -0.060756695 1.0628313 -0.21107028 0.57047814 -0.32615972
0.99375665 0.40401506 -0.02776461 0.64618987 1.3028605 0.417136 0.24932225 -0.3100881
1.1846249 1.345661 0.5534357 0.39490327 -0.40398234 0.7195525 0.33066052 1.4489338
0.83541715 1.332676 0.83897924 -0.33867761 0.6732065 -0.6276901 -0.31231156 0.71165544
-0.23485364 -0.38770962 1.0116662 0.83749944 0.24303845 0.7692276 0.6763885 0.09566314
0.81209254 -0.07344534 -0.04655081 0.6548359 0.62456566 -0.6377094 0.39715442 0.017491637
1.124406 -0.18446201 0.14996596 -0.36338317 0.535022 -0.42858168 0.08477921 -0.6806026

model.4.weight f4 [1, 64]
00000000: cce6 3ac0 792a e1c0 51fe e73e bf27 94c0
00000010: 618f fabd fefd f73f 8e43 d8be 69bb 99c0
00000020: fb0e c4bf e192 23c0 ffcf 4e3f 8d74 aabe
00000030: 3e4f 0240 14b2 76be 5552 40c0 d4b0 cd3e
00000040: be26 1340 3507 953f aaa2 763e e48e 65c0
00000050: e03e 1840 e678 413f e3cb 8dc0 426e c6c0
00000060: 96a9 1340 b478 0640 3a27 253f 9653 533f
00000070: 8184 0fbf 1d45 32c0 742d d63e 595f 1f40
00000080: ecf3 47c0 c802 1c40 b55b 43c0 9570 f93e
00000090: 8a13 41c0 3d41 efbe 6db8 c33e 2bdd 263f
000000a0: 23c6 1bbe d1af f1be 2450 0340 a70d d63f
000000b0: b4d8 da3e 59d6 24c0 2327 5ec0 23b0 953e
000000c0: e753 883f 5d5b 87bd cdf5 72be 76c8 50c0
000000d0: a26f 5ec0 0546 193f dbe7 69c0 3d1b e9be
000000e0: 9ab2 0740 64e8 9ec0 20e3 9d3e 7c56 013f
000000f0: 4cb4 43c0 a88f cc3e fe2e 8bc0 7e23 e5be
-2.9203367 -7.0364347 0.45311216 -4.629852 -0.122343786 1.9374387 -0.4223904 -4.804127
-1.5317072 -2.5558398 0.80786127 -0.33292046 2.0360866 -0.24091369 -3.0050251 0.40173972
2.2992396 1.1642824 0.24085489 -3.5868464 2.3788376 0.755751 -4.4311385 -6.200959
2.3072257 2.1011171 0.6451298 0.82549417 -0.5606156 -2.7854683 0.41831553 2.4901946
-3.1242628 2.4376698 -3.0524724 0.48718706 -3.0168176 -0.4672946 0.38226643 0.65181226
-0.15212302 -0.4720445 2.0517664 1.6722916 0.42743456 -2.5755827 -3.4711387 0.29235944
1.0650605 -0.06609223 -0.23726578 -3.2622352 -3.4755635 0.59872466 -3.6547763 -0.45528594
2.120276 -4.965868 0.30837345 0.5052259 -3.0578794 0.3995335 -4.3494864 -0.4475364
