app/models/disc_K3_deg1_-5_-12.pth (torch, 20480 bytes, 5 tensors)

model.0.weight f4 [64, 2]
0	0x3edaa942	0.42707258
1	0xbfdc9e9d	-1.7235905
2	0xbd458839	-0.048225615
3	0x3ef5271f	0.4788141
4	0xbed662df	-0.41872308
5	0x3f250719	0.64463955
6	0x3e9fa52d	0.31180707
7	0xbe65001f	-0.22363327
8	0xbe8e0081	-0.2773476
9	0x3f19a1fb	0.6001279
10	0xbe82bc8b	-0.25534472
11	0x3f08a056	0.53369653
12	0xbea69052	-0.32531983
13	0x3ef8967e	0.48552316
14	0x3f3145cf	0.69247144
15	0xbe9a1916	-0.30097264
16	0x3e542643	0.2071772
17	0x3e4e76f5	0.20162566
18	0x3f8923d3	1.0714058
19	0xbeb79803	-0.35858163
20	0x3eaa8519	0.3330467
21	0xbe7f6015	-0.24938996
22	0x3ef2fc5e	0.47458166
23	0x3f1051ec	0.56375
24	0xbe86825e	-0.26271337
25	0x3f0e2ca2	0.55536854
26	0x3ee96197	0.45582268
27	0xbf7eb4ac	-0.99494433
28	0xbf8c855e	-1.09782
29	0xbd952802	-0.072830215
30	0x3e6d5d86	0.23180208
31	0xbdd00755	-0.101576485
32	0x3f76fb22	0.9647695
33	0x3ee7b74c	0.45257032
34	0xbeca34dc	-0.39493454
35	0x3f0efbc8	0.5585294
36	0xbf0a3b8c	-0.5399711
37	0xc05bf8b2	-3.4370542
38	0xbf9f777c	-1.2458339
39	0x3ed7d047	0.4215109
40	0x3f5ede17	0.8705763
41	0x3d8845cf	0.0665394
42	0x3f2e64c8	0.6812253
43	0x3e81ba94	0.2533766
44	0x3f2cc5fc	0.674896
45	0x3ea3238e	0.31863064
46	0xbf2a5948	-0.6654248
47	0x3ec6de8f	0.38841674
48	0xbf558f83	-0.83422107
49	0x3eb69f9e	0.35668653
50	0xbe4a2dcc	-0.19744033
51	0x3e9fb52b	0.31192908
52	0xbf805ef6	-1.002898
53	0x3e6fe957	0.23428856
54	0xbf079a18	-0.52969503
55	0x3eee14d7	0.46500275
56	0x40056f4a	2.0849175
57	0xbf0fb395	-0.56133395
58	0xbf1b7578	-0.6072612
59	0xbfa164ae	-1.260885
60	0xbeaf210b	-0.34204897
61	0x3ea83952	0.32856232
62	0x3e791d35	0.24327548
63	0x3d8e229d	0.06940196
64	0xbef07a3f	-0.46968266
65	0xbcbbfea1	-0.022948565
66	0xbf06f22e	-0.52713287
67	0xbf3cfd83	-0.7382433
68	0xbf625e5b	-0.88425225
69	0xc002d869	-2.0444586
70	0x3ee072b5	0.43837515
71	0xbf1732bb	-0.59061784
72	0xbf5d4212	-0.8642894
73	0xc120005f	-10.000091
74	0x3ea2c818	0.31793284
75	0xbe3d11b3	-0.18463783
76	0xbf3ea032	-0.7446319
77	0x3a7d436e	0.0009661232
78	0xbfb5d2f1	-1.4204999
79	0x3f64f95d	0.89443
80	0x3f0ae5d9	0.5425697
81	0xbe376eff	-0.17913435
82	0xbe12d93f	-0.14340685
83	0x3f05ff79	0.52342945
84	0xbef5c1bd	-0.47999373
85	0x3f2b07fb	0.6680905
86	0xbf3ed0d6	-0.7453741
87	0xbfc73a7b	-1.5564722
88	0xbeafa723	-0.34307203
89	0x3ec7f967	0.39057466
90	0xbf87bc65	-1.0604368
91	0xbf9508dc	-1.1643329
92	0xbf28b5e0	-0.6590252
93	0xc0b170f8	-5.54504
94	0x3ee9214b	0.45533213
95	0xbf140baf	-0.5783033
96	0xbecdf1c1	-0.40223506
97	0xc030e12a	-2.763743
98	0x3e44f8da	0.19235554
99	0x3e7dbde4	0.24779469
100	0x3f232cbb	0.6374013
101	0x3d5929b7	0.053018298
102	0xbf34392a	-0.70399725
103	0x3ecccdd4	0.40000784
104	0x3eb4e909	0.35334042
105	0x3e68fa1b	0.22751658
106	0x3f445f6e	0.76708114
107	0x3ebc3608	0.36759973
108	0x3eeff095	0.46863237
109	0xbf96632f	-1.1749018
110	0x3ec1b17e	0.37830728
111	0xbe337d7a	-0.17528334
112	0xbf59e02e	-0.85107696
113	0x3e1f3e93	0.15551214
114	0xbf954189	-1.1660625
115	0x3d9933a6	0.07480554
116	0xbe3acafd	-0.18241496
117	0x3f09f498	0.53888845
118	0xbf22eea6	-0.636454
119	0xbfa41b1f	-1.2820777
120	0x3eba3a57	0.36372635
121	0xbe9248cc	-0.28571165
122	0x3f5a76e8	0.85337687
123	0x3f0dbbda	0.55364764
124	0x3e81ca95	0.2534987
125	0x3ebe5637	0.37175152
126	0x3f8befdf	1.0932578
127	0xbe7c93af	-0.24665712

model.0.bias f4 [64]
0	0x3fbb685b	1.4641222
1	0x3f390676	0.72275484
2	0xbfbd0de5	-1.4769865
3	0x3debbf29	0.1151107
4	0x3f07e62f	0.5308561
5	0x3f2ea915	0.6822675
6	0xbf805a88	-1.0027628
7	0x3f32b803	0.6981203
8	0x3e7b8abb	0.2456464
9	0x3f586a35	0.8453706
10	0x3e8f6dad	0.28013363
11	0x3f16fc91	0.58979136
12	0xbe615c6b	-0.22007911
13	0x4027cd2a	2.6218972
14	0xbeb0451f	-0.34427735
15	0xbf1bbceb	-0.6083514
16	0x3f3d5cdb	0.7396981
17	0xbf9985d3	-1.1993965
18	0x3ffc4edc	1.9711566
19	0xbfbd71f9	-1.4800407
20	0xbdba84f5	-0.09107391
21	0xbe411899	-0.1885704
22	0xbf3db4f2	-0.74104226
23	0xbfd20f11	-1.6410848
24	0x3f6f5192	0.9348384
25	0xbbf9f871	-0.0076284935
26	0xbe89e4c1	-0.26932338
27	0xc00c0441	-2.1877596
28	0x4021c8e2	2.527886
29	0xc00bd09a	-2.184607
30	0xbf5e6e7b	-0.8688733
31	0xbdb64a06	-0.089008376
32	0xbf8e7d26	-1.1131942
33	0x3fcaed93	1.5853752
34	0x3f16e3af	0.5894117
35	0x3fdf6e16	1.745547
36	0x3f005533	0.50130004
37	0x3f367aae	0.71280944
38	0xbe157fe3	-0.14599566
39	0xc0393c42	-2.8943028
40	0x3db56240	0.0885663
41	0x3e73164a	0.23738971
42	0xbff3b9dc	-1.9041095
43	0x3f858f01	1.0434266
44	0xbfaaa91e	-1.333286
45	0xc0c30cf1	-6.0953298
46	0x3f1e481f	0.618288
47	0x3fc17ec2	1.5116808
48	0x40543856	3.3159385
49	0xbf0e00e3	-0.55470103
50	0x3ec02e06	0.37535113
51	0x3f0413f5	0.5159295
52	0x3f6cbe4e	0.9247788
53	0x3eca6f52	0.39538056
54	0x4010cf42	2.26265
55	0x3c9e419b	0.019318393
56	0x3eecfe0b	0.4628757
57	0xbf210b6b	-0.6290805
58	0x3e0bb9a5	0.13645037
59	0xc024f501	-2.5774539
60	0x3f0324ba	0.51227915
61	0x3e9e8cb6	0.3096673
62	0x3d3801a9	0.04492346
63	0x3fa84ae9	1.3147861

model.2.weight f4 [64, 64]
0	0x3dc4a0af	0.096009605
1	0xbe426c71	-0.1898668
2	0xbe06f20d	-0.13178273
3	0x3cf27e8f	0.029601363
4	0xbb3c83ca	-0.0028765076
5	0xbd96fc3b	-0.07372328
6	0xbc96457c	-0.01834368
7	0xbdbc9c63	-0.09209516
8	0xbe1b69f9	-0.15177144
9	0xbe479cba	-0.1949338
10	0xbdbfc3c3	-0.093635105
11	0xbd4c4fff	-0.049880978
12	0xbd5a2b2e	-0.053263836
13	0x3e48a06e	0.19592449
14	0xbd24566f	-0.040121492
15	0x3b227ce4	0.002479368
16	0xbd63a429	-0.055576477
17	0xbd18ccc3	-0.03730465
18	0x3ee8a6f1	0.45439866
19	0xbdbc63e3	-0.091987394
20	0x3cd88f47	0.026435507
21	0x3d6f595f	0.05843484
22	0xbdfdb48c	-0.12387952
23	0xbe455051	-0.1926892
24	0xbccfc790	-0.025363714
25	0xbdb426b8	-0.087964475
26	0xbdeef859	-0.11668462
27	0xbe65f02b	-0.22454898
28	0xbeda95d8	-0.42692447
29	0xbe3d4991	-0.18485095
30	0x3c05c547	0.00816471
31	0xbde8517c	-0.11343667
32	0xbe84ad65	-0.2591354
33	0x3f21b942	0.63173306
34	0xbd2cc7ac	-0.04218261
35	0xbe565016	-0.20928988
36	0xbc51622f	-0.012779756
37	0x3cc3c17a	0.023895968
38	0xbe18cb29	-0.1492125
39	0xbed66a9f	-0.4187822
40	0xbe0045f0	-0.12526679
41	0xbb1a6b17	-0.0023562366
42	0xbe29d405	-0.16584785
43	0xbd45e573	-0.048314523
44	0x3ca15dac	0.019697987
45	0xbd6b2e4c	-0.0574172
46	0x3d0e832e	0.03479307
47	0x3bdbe87d	0.0067110644
48	0x3f002243	0.5005228
49	0x3d00aa2e	0.031412296
50	0x3d6ef7a7	0.05834165
51	0xbadcb675	-0.0016839044
52	0xbda04ddd	-0.07827351
53	0xbdde5aae	-0.108571395
54	0x3bd11883	0.006381096
55	0x3abcd333	0.0014406204
56	0xbdc65a15	-0.096851505
57	0x3b9a6d7a	0.0047127577
58	0xbe0deaf0	-0.13859153
59	0xbe9f0986	-0.31061953
60	0xbe40e437	-0.18837057
61	0xbe034686	-0.12819871
62	0xbda054d2	-0.07828678
63	0xbe6863da	-0.2269434
64	0xbeddbf40	-0.43309975
65	0x3e04b348	0.12959015
66	0xbea682af	-0.3252158
67	0xbf9cf267	-1.2261475
68	0xbdd53ce6	-0.10412006
69	0xbdb88d72	-0.090113536
70	0xbef86a29	-0.48518494
71	0xbe881013	-0.26574764
72	0xbe409538	-0.18806922
73	0xbe02cdd2	-0.12773827
74	0xbf8d444d	-1.1036469
75	0xbe08387c	-0.13302797
76	0xbe8aa5d1	-0.27079633
77	0xbfb3f86d	-1.4060189
78	0xbe42e3a1	-0.19032146
79	0xbfb59064	-1.418469
80	0x3d8768ca	0.06611784
81	0xbf14e84c	-0.58166957
82	0x3f9a17cf	1.2038516
83	0xbe278981	-0.16361047
84	0x3c1e8532	0.009675311
85	0xbd1f6ced	-0.03892224
86	0xbd2e5c77	-0.04256865
87	0xbe92222f	-0.28541705
88	0xbd319c23	-0.043361794
89	0xbe8356ed	-0.25652257
90	0xbe5cb3b0	-0.2155292
91	0xbf336be6	-0.70086515
92	0x3e808928	0.25104642
93	0xbde29915	-0.11064354
94	0xbeb9918b	-0.36243853
95	0xbee5a98a	-0.4485591
96	0xbe5026c6	-0.20327291
97	0x3eba8f3c	0.36437404
98	0x3f0cb295	0.54959995
99	0xbf3973cb	-0.7244231
100	0x3ff4be45	1.9120566
101	0xbe712977	-0.23550974
102	0xbde61a7b	-0.112355195
103	0xbeaa8ad1	-0.33309034
104	0xbea5f17b	-0.32410797
105	0xbd72f6b2	-0.0593173
106	0xbfa22b44	-1.2669454
107	0x3eb3ebe0	0.35140896
108	0xbe568b51	-0.20951582
109	0xbfada993	-1.3567375
110	0x3f8237de	1.0173299
111	0xbf8a5357	-1.0806683
112	0x3f9ff5b8	1.2496862
113	0xbea266ac	-0.31718957
114	0xbe7012c7	-0.23444663
115	0xbe16cb32	-0.1472595
116	0xbeb53126	-0.3538906
117	0xbd613093	-0.054977965
118	0xbf7551c9	-0.9582792
119	0xbea4949e	-0.32144636
120	0xbe5c83bd	-0.21534629
121	0xbe0f0442	-0.13966468
122	0xbe2172f2	-0.15766504
123	0xbedd65e4	-0.432418
124	0xbf14e704	-0.58165
125	0xbd6cdbe0	-0.057826877
126	0xbe55bf0f	-0.20873664
127	0xbeaa3b31	-0.33248284
128	0xbf1e8ddb	-0.61935204
129	0x3c0bb57e	0.008527158
130	0xbe21018c	-0.15723246
131	0xbe5e28e5	-0.21695288
132	0xbbaa5d74	-0.0051991288
133	0xbdcb7ef3	-0.09936323
134	0xbe10c7da	-0.14138737
135	0xbd977fc8	-0.07397419
136	0x3d876cae	0.06612526
137	0xbda26f64	-0.07931402
138	0xbea28c19	-0.3174751
139	0x3ba293ab	0.004961451
140	0xbe080c8f	-0.1328604
141	0xbf0aec26	-0.54266584
142	0xbeeb7dcc	-0.45994413
143	0x3dae559d	0.08512423
144	0x3d5e5077	0.054275956
145	0xbe711fc7	-0.23547278
146	0xbdfaf824	-0.1225436
147	0xbf2a55e8	-0.6653733
148	0xbd8a089c	-0.06739923
149	0x3dfe9db3	0.124324225
150	0x3ddcbe05	0.10778431
151	0xbf2a5845	-0.6654094
152	0x3df252fb	0.118322335
153	0xbc53fe43	-0.012939039
154	0xbe793d3f	-0.2433977
155	0xbf0189ed	-0.50601083
156	0xbc0fa1ae	-0.008766575
157	0xbd3a587c	-0.04549454
158	0xbe0be9f0	-0.13663459
159	0xbd2ff213	-0.04295547
160	0xbf010d3f	-0.50410837
161	0xbf1011e3	-0.5627729
162	0x3ddf141c	0.108925074
163	0xbe3874dc	-0.18013328
164	0x3d9a7dac	0.07543501
165	0x3dea60c5	0.114442386
166	0xbe044bde	-0.12919566
167	0xbf9cd336	-1.2251956
168	0x3d5a99d4	0.05336936
169	0xbd72d026	-0.059280537
170	0xbf52e7be	-0.8238486
171	0xbea207fe	-0.31646723
172	0xbdcb43ff	-0.099250786
173	0xbe5128e6	-0.20425758
174	0xbe090a92	-0.13382939
175	0xbf54f27d	-0.8318251
176	0xbee02539	-0.437784
177	0xbe8b385f	-0.27191445
178	0xbd4f79ed	-0.050653387
179	0x3e866e4d	0.26256028
180	0xbda725a3	-0.081614755
181	0xbd057e6e	-0.032591276
182	0xbe2b4225	-0.16724451
183	0xbd78a6cd	-0.06070595
184	0x3e5fa98c	0.21842021
185	0xbf4b5324	-0.7942374
186	0xbe057180	-0.13031578
187	0xbeafc70e	-0.34331554
188	0xbc8441a9	-0.01614459
189	0xbd9d5816	-0.07682817
190	0x3df5fa8c	0.12010679
191	0xbb0b4d7b	-0.0021255899
192	0x3d125779	0.03572795
193	0x3db8d73d	0.090254284
194	0x3dbe62a2	0.092961565
195	0xbe2e10d5	-0.16998608
196	0x3d8d212f	0.06891095
197	0x3d33155c	0.04372154
198	0x3e02d1ed	0.12775393
199	0xbe2b0332	-0.16700438
200	0x3dcb536e	0.09928022
201	0xbe203b4c	-0.1564762
202	0xbd9f9466	-0.07791977
203	0x3d4872b7	0.048937526
204	0x3dac89c7	0.084247164
205	0xbca5a4b0	-0.02022013
206	0xbc8a4557	-0.016878767
207	0xbe696b0a	-0.22794738
208	0xbcbd66bd	-0.023120278
209	0xbc216ca2	-0.00985256
210	0x3e68da82	0.22739604
211	0xbd4c65db	-0.049901824
212	0xbd533f79	-0.051574204
213	0x3db4b918	0.08824366
214	0x3b6d47a0	0.0036206022
215	0x3e488497	0.19581829
216	0x3e0417cd	0.12899704
217	0x3c4a2683	0.0123382835
218	0x3bf39f06	0.0074347286
219	0x3da54390	0.08069527
220	0xbed302fe	-0.4121322
221	0x3ef83aa6	0.48482245
222	0xbd6e00f8	-0.058106393
223	0x3b7ed2bb	0.003888293
224	0x3e347480	0.17622566
225	0xbd33c664	-0.043890372
226	0x3e284aba	0.16434756
227	0xbd87ac10	-0.06624615
228	0x3eebba96	0.4604079
229	0xbbce92d9	-0.0063041267
230	0xbd08c828	-0.03339401
231	0xbd4e524b	-0.05037145
232	0xbe11c80a	-0.14236465
233	0x3d8b96fc	0.06815907
234	0x3dce7980	0.10081768
235	0x3e245be1	0.16050674
236	0x3d8bf99b	0.06834718
237	0x3e4b82c7	0.19874106
238	0x3ef39b90	0.47579622
239	0x3ce2d9ee	0.027691808
240	0x3dbe242f	0.09284245
241	0xbd108fd7	-0.035293426
242	0x3d770e64	0.06031646
243	0x3d8c0a6e	0.06837927
244	0x3c4265f5	0.011865129
245	0x3dc78fbc	0.09744212
246	0xbe9f38f0	-0.31098127
247	0x3e0b995b	0.13632719
248	0xbdd469d8	-0.103717506
249	0xbcee8c73	-0.029119706
250	0x3d707f52	0.058715172
251	0x3e7b3e7a	0.24535552
252	0xbd9e3df6	-0.07726662
253	0xbcd026ce	-0.025409129
254	0x3dac749f	0.08420681
255	0xbe49f0e7	-0.19720803

model.2.bias f4 [64]
0	0xbd324279	-0.043520425
1	0x3ef97377	0.48720905
2	0x3dd6cc07	0.10488134
3	0xbd1c4717	-0.038153734
4	0xbc52cdcf	-0.012866451
5	0xbe11bf3c	-0.14233106
6	0xba2c7f22	-0.00065802236
7	0x3e8ab7ca	0.27093345
8	0xbdafd5fe	-0.08585738
9	0x3c8ad997	0.016949458
10	0x3c0ec6b2	0.008714365
11	0x3e29c939	0.16580667
12	0x3f156b8d	0.58367234
13	0x3ea249bb	0.31696877
14	0xbc08be4c	-0.008346152
15	0x3ccb024e	0.024781372
16	0x3e975986	0.29560488
17	0xbf4f0690	-0.8086939
18	0x3e4717e3	0.19442706
19	0xbc521daa	-0.012824455
20	0x3e5bc8df	0.21463345
21	0x3d94a388	0.072577536
22	0xbe1504ef	-0.14552663
23	0x3e3378b7	0.17526518
24	0xbcc86c39	-0.024465667
25	0x3d934529	0.07190926
26	0x3cb1fbc4	0.021726497
27	0x3efd662d	0.49492016
28	0x3f0a5cb4	0.54047704
29	0x3d410267	0.04712143
30	0x3df5ca89	0.12001521
31	0xbc974409	-0.018465059
32	0xbd8bb821	-0.06822229
33	0x3f0acb44	0.5421641
34	0xbcf385cc	-0.029726885
35	0xbe0523de	-0.13001963
36	0x3eea7963	0.45795736
37	0x3e97b0a1	0.29626945
38	0x3de1bb1d	0.11022017
39	0xbe220239	-0.1582116
40	0x3e7bfcee	0.24608204
41	0xbe9fb8f3	-0.31195793
42	0x3d0ff1f0	0.03514284
43	0x3e9c2866	0.30499572
44	0xbe791110	-0.24322915
45	0x3b877aca	0.0041345106
46	0xbe2eb052	-0.17059448
47	0xbec8320c	-0.39100683
48	0x3ea9db73	0.3317524
49	0x3e32e572	0.17470339
50	0x3dc755b5	0.09733144
51	0xbc8055d6	-0.01566593
52	0xbea8cbf1	-0.32968095
53	0x3e9fa7eb	0.311828
54	0x3d8a1b9b	0.067435466
55	0x3f22ec84	0.63642144
56	0x3c1bebf2	0.009516703
57	0x3f5854cc	0.8450439
58	0xbd867213	-0.06564727
59	0x3ef72efd	0.48278037
60	0xbf1d2743	-0.61388034
61	0x3ea12e6f	0.3148074
62	0xbe2c0a93	-0.16800909
63	0x3e53e580	0.20693016

model.4.weight f4 [1, 64]
0	0xbe0283da	-0.1274561
1	0xbf9b11c8	-1.2114801
2	0xbe4f80c6	-0.20263967
3	0x3e102cdb	0.14079611
4	0x3e75b46c	0.23994607
5	0xbdfa3b3d	-0.1221833
6	0x3ca8d4be	0.020609256
7	0xbf52019e	-0.8203372
8	0xbe2a4e3d	-0.16631408
9	0xbed037fe	-0.4066772
10	0x3e857b02	0.2607041
11	0xbea73eaf	-0.3266501
12	0x3f657df1	0.89645296
13	0xbf40b76c	-0.7527988
14	0xbea8aee3	-0.32945928
15	0xbd44bfbd	-0.04803442
16	0x3f499bb5	0.78753215
17	0xbf8799dc	-1.0593829
18	0x3e819dd0	0.25315714
19	0xbe22d207	-0.15900432
20	0x3df39499	0.11893577
21	0x3f72a3c3	0.9478113
22	0xbe65cbe8	-0.22441065
23	0xbf069cf0	-0.5258322
24	0xbda1832a	-0.07886346
25	0x3df689b8	0.120379865
26	0xbdbeb805	-0.09312443
27	0x3e9d215c	0.30689514
28	0xbf6b3e6d	-0.9189213
29	0x3bfb07b0	0.0076608285
30	0x3ef6b8e5	0.48187938
31	0xbc6712f6	-0.014103642
32	0xbe09dfae	-0.13464233
33	0x3f701ed9	0.9379707
34	0xbe2a84b6	-0.16652188
35	0x3cd4e95f	0.025990186
36	0xbf912f54	-1.1342568
37	0x3e191632	0.14949873
38	0x3f0787f1	0.52941805
39	0xbe48b889	-0.19601645
40	0xbea7ce02	-0.3277436
41	0xbe4ca5a8	-0.19985068
42	0xbed2d6cd	-0.41179505
43	0x3f80ae25	1.0053145
44	0xbf20eed0	-0.628644
45	0xbe39833e	-0.18116471
46	0xbd8e773d	-0.06956337
47	0x3f185d33	0.5951721
48	0x3f011340	0.5042
49	0x3e41b840	0.18917942
50	0x3d60e558	0.05490622
51	0xbd5c79dd	-0.053827155
52	0xbef6e892	-0.48224312
53	0x3ef20c77	0.47275135
54	0xbf1e5c4e	-0.61859596
55	0xbed4c56b	-0.41556868
56	0xbd928575	-0.07154361
57	0xbfebfe1c	-1.8436923
58	0x3e48f4f9	0.196247
59	0x3fa483a5	1.2852675
60	0xbf6ddafd	-0.92912275
61	0x3e22ddeb	0.15904967
62	0xbe92c04b	-0.28662333
63	0x3e8cb845	0.27484336
