app/models/disc_K3_deg1_-9_-11.pth (torch, 20480 bytes, 5 tensors)

model.0.weight f4 [64, 2]
00000000: 9085 283f c015 ff3d 40b1 39bf 7287 97be
00000010: 1a8c 963f 896b c7be c630 23bf d728 8b3e
00000020: 893b cd3e 7fbe 423e 5bc6 113f 50a4 0a3e
00000030: 73cd bc3e 9aae 973e 3840 0b3f 7a2a 39be
00000040: 1e84 ee3e 3ee6 96be 5681 abbe f9a3 b13e
00000050: f298 163f 37de ed3e e6ea afbe 110d 0ebe
00000060: 9dc8 683e 7d1a fe3c 0253 313f d8b9 afbe
00000070: 1efd 273e 73a9 223e 32b3 95bf cd49 1dbf
00000080: f7e9 00be d5c1 b5be d26a 053f b63c 97be
00000090: 5d11 bf3c ad96 413e 6c7e cd3e d8c1 8abf
000000a0: cc0b aabf a7e4 ef3e b5d3 ec3d 4f5c a0bc
000000b0: f5eb 133f cd35 08bf 8792 343e c00b 9dbe
000000c0: 8547 4bbd 679a 29bf a7a1 963e cd30 2cbf
000000d0: 577e 9bbe 15ff ae3e 087c 04bd 11a2 b3bf
000000e0: 86d5 dcbc 9a88 e2be 4c7c 7e3e a87c 223f
000000f0: eb38 813e 7b79 20be 1e6c 473f 7333 86be
00000100: d894 72bd b30b e6be f2d5 f43e 24fe 71be
00000110: 940c e33c 3306 2ebf 9050 e53e b76d 08bf
00000120: 99fe d33d 7568 b5bd 0eea 0d3f cd48 d33d
00000130: 50b3 a73e 8901 b6be 3149 213f 24a8 28bf
00000140: c9b8 85be d84a 7e3e 4d92 0e3d a4ae cd3e
00000150: a3ba 70be f319 9f3e 7515 ad3d f0eb f73d
00000160: decc 023c 758f 9a3e a4b4 503f 5091 79bf
00000170: f8e4 6bbd ff55 2ebf 3854 b63e fcd0 013f
00000180: 1fec 313f c9eb 4c3e 451c e93c ac4e 7b3e
00000190: a438 cebd d54b c4be 4634 02bf 47fa b33e
000001a0: b05c 283f 160c ab3e 703f 0c3f 4c38 cf3b
000001b0: 4798 b43f 5c6d 15bf e167 1d3e b46e cf3e
000001c0: 91b9 97bf 8ec8 a83e 4298 6fbf 8af4 8e3d
000001d0: 897f b5be 26e8 a5be 7f13 0c3f 98ff 6c3d
000001e0: 1478 28bf 59c4 0c3f bd50 043f d02a 043f
000001f0: 4a2a 913e 8e8a 6f3e 3dea f13d e906 9d3d
0.658288 0.1245532 -0.7253609 -0.29595524 1.1761506 -0.3894923 -0.637463 0.27179596
0.40084484 0.19017981 0.5694329 0.13539243 0.36875495 0.29625398 0.54394865 -0.1808261
0.46585172 -0.29472536 -0.33497113 0.34695414 0.58827126 0.464586 -0.343589 -0.13872172
0.22732778 0.03101849 0.69267285 -0.34321475 0.1640515 0.15884952 -1.1695311 -0.61440736
-0.1258925 -0.35499445 0.5211612 -0.29538506 0.02332371 0.18905134 0.40135515 -1.0840406
-1.328485 0.46854135 0.115638174 -0.019575266 0.57781917 -0.53207093 0.17634021 -0.30673027
-0.049628753 -0.66251224 0.29420206 -0.67261964 -0.30369827 0.34178987 -0.032344848 -1.4033834
-0.026957285 -0.44244844 0.24852103 0.6347146 0.25238737 -0.15671341 0.7789935 -0.26211128
-0.05922398 -0.449308 0.47819477 -0.23632103 0.027715959 -0.6797821 0.44788027 -0.5329241
0.10351295 -0.08857814 0.55435264 0.1031662 0.32753992 -0.35548046 0.63002306 -0.6588156
-0.26117542 0.24833238 0.034807492 0.40172303 -0.23508696 0.31074485 0.08451358 0.121055484
0.007983414 0.30187574 0.81525636 -0.97487354 -0.05759141 -0.6809997 0.3561113 0.5070951
0.6950092 0.2001182 0.028455863 0.2454173 -0.10069397 -0.38339105 -0.5086101 0.35151884
0.6576643 0.33407658 0.547843 0.00632385 1.4108971 -0.58369994 0.15371658 0.40514147
-1.1853505 0.3296551 -0.935917 0.06980236 -0.35448864 -0.32403678 0.5471725 0.05786094
-0.65808225 0.549871 0.51685697 0.51627827 0.28352576 0.23392698 0.118122555 0.07667334

model.0.bias f4 [64]
00000000: fbe1 c6be 37e6 0cbe 68d2 1b40 ed8a 91bf
00000010: 69d2 093f f416 b9be 26a0 4ebe 4acf f4be
00000020: 7962 4ebd 32c2 6fbf ad31 20be 1c39 5b3f
00000030: 1998 c03e 3c6e 963f 8a20 d0be 5933 2bbf
00000040: f885 d1bc 1e0b 8a3d 6971 96be 42b1 7240
00000050: 4dc3 59c0 2e61 253f 35ff e03f 1f14 3bbe
00000060: 5066 de3e 3b15 ca3f 7f38 5abf 5f2b 3740
00000070: 72ed 42be b9a4 26bf db71 2dbf 64cb 493f
00000080: b4c0 45be 820b 9b3c 77bf 793f 5cb3 a83f
00000090: e01f 36be 19fc 853d 98d9 5b3e 2815 22bc
000000a0: 3525 363f d7b5 b5be 1ea0 d0be f97d 893e
000000b0: eb3c 3bbf 7fb7 8640 4cc3 303f fdee 15be
000000c0: eded 223f b7bf 5b3e 8a61 f9be 6c6b 9ebf
000000d0: 670e 29be ec21 c23d 653e 8940 9842 1abf
000000e0: 7df8 22c0 6c28 83bf 4117 da3e ee41 eebd
000000f0: 9b56 003f a0f2 3b3e a3bb 383f a342 2ebf
-0.38844284 -0.13759695 2.4347172 -1.1370522 0.53836685 -0.36150324 -0.2017828 -0.478144
-0.05038688 -0.93655694 -0.1564395 0.85634017 0.3761604 1.1752391 -0.40649825 -0.66875225
-0.025576577 0.06740402 -0.293834 3.792069 -3.4025452 0.6460141 1.7577883 -0.18269394
0.43437433 1.5787729 -0.85242456 2.8620222 -0.1903589 -0.65095097 -0.67751855 0.78825974
-0.19311792 0.018926386 0.9755778 1.3179736 -0.17785597 0.065422244 0.21469724 -0.009892739
0.71150523 -0.35490295 -0.4074716 0.26853922 -0.7313983 4.2098994 0.69048 -0.14641948
0.63644296 0.21459852 -0.4870723 -1.2376533 -0.165094 0.09479126 4.2888665 -0.60257864
-2.5464165 -1.0246711 0.42595866 -0.11633669 0.5013215 0.18354273 0.7216131 -0.6807043

model.2.weight f4 [64, 64]
00000000: 3a2b 773d 3c9f a83d 6f35 5c3d 59bc 09be
00000010: 9cf1 96bd 9cf2 8a3c 0b84 fcbc 6bbf 32bd
00000020: b50b c3bd 25f5 17be 531a 12be bd7e 27be
00000030: 77af 05be dfc1 dbbd 86e6 9d3d f660 bd3d
00000040: b9ec d53d b258 283d 3596 e9bd 0fd3 ed3d
00000050: 5b6c 16be 02af 103c 5215 ae3d 188d 203c
00000060: 80bb eb3d 8eb9 e73d 878d eebd 3b4d 4fbd
00000070: af62 d03c 7d6d cabc 07b5 7f3d 2405 8dbd
00000080: c2f8 153d 4444 aebc a939 8fbd 1125 043e
00000090: cdce 753c 508b acbc 89b2 5bbd 8751 523d
000000a0: b915 8fbd 52c4 523d baea 563c c77d 0ebe
000000b0: 713d 17bd 4609 d83b e78c b5bc 4a6a 36bd
000000c0: 7d63 d7bd e4ea 1ebe 742e e9bd 8ee4 f13c
000000d0: 1b25 9b3d 89fe 5b3d 59e3 273d 44c6 eebd
000000e0: 858f 19be 1293 ac3c 339e f3bd b2c3 3d3d
000000f0: 5186 53bd 9978 efbd 4ecc 27be 560e 913d
00000100: e0fc abbe 2ace a6be 27bf d2bf ffca e4be
00000110: 1d76 7dbb 9597 c9be da96 ca3d 8d2c 15bf
00000120: 1403 3ebf be38 08bf 7f10 bd3d 3a17 033f
00000130: eade 0a3e 282d 35bf d227 01be 352a 89be
00000140: efec 13bf b675 d7be f09c cdbd 94e0 9dbf
00000150: 9048 57bf 9bb9 fe3d e0a0 3bbf be6f 35bf
00000160: 7941 80bf 7e82 74bf b6c3 e6be 8690 4cbf
00000170: caf1 19bf c5cb 5c3d 1162 70bf 7cd9 84bf
00000180: 4ccc 4bbf 3d37 24bf c449 4cbf 6b62 86bf
00000190: 0a41 5ebe 5075 61be 9967 64bf 9df3 d2be
000001a0: 8aa9 91bd 283c a7bd 0698 94be 9d02 993e
000001b0: 7469 d4be 4033 e2bf 91f0 9cbe 7736 ac3c
000001c0: 86ce 2dbd a284 e13d 21a6 6fbf c787 17bf
000001d0: ddf5 73be 9cd2 95be 7c1c ebbf db1d 01be
000001e0: 33c9 7ebf fc0d 55bf 2c48 f7be 7ba5 a4be
000001f0: f262 dd3d d6ac c53d ed78 893e b95d d5be
00000200: 51e5 bbba f095 d2bc bcb9 3dbe 269e bdbd
00000210: 096b 52bd 7522 6d3d 456d 9d3d ccd1 08be
00000220: 3f40 14be d374 533d 9814 ebbd 0c1f eb3d
00000230: 62a1 5e3d 1163 87bd b1bc d9bd a2af cd3c
00000240: a4ef 80be ef85 bdbd a7a7 a6bd ddd9 d73d
00000250: 1207 c9bd 2472 623d d839 b23d 7122 f53c
00000260: 31cd 7fbd 746a f73a 3a50 873d 9a6f 04ba
00000270: 31ec 363d f6c0 aabd 3c74 50be 66c5 3bbe
00000280: 0b50 cb3d 2558 08be 847b 91bd 22c5 8bbd
00000290: 793b 8c3a 8560 d6bd 2fd6 25be bdd5 233d
000002a0: e718 a43d da79 01be 49fd 63bd 103c 6ebd
000002b0: 97f3 31bd e519 f23a 7897 6bbd ce61 033d
000002c0: 084c 0abe e674 e4bc 053a 53be 7541 1ebe
000002d0: d534 1cbe 5884 053d 05de 8c3c d3a7 2d3c
000002e0: 2515 b73c 5e9e 97bd 506d 43be bb76 743d
000002f0: 44c4 4a3d fa4b 38bd b2fc 483a a8ae 13be
00000300: 5228 f8bd 8123 ae3c 4767 1fbe 1ae7 0dbe
00000310: 1ba9 2e3d aa6a dcbd 4d94 523d 3850 313c
00000320: f75f 9abd c110 fabc 6bba 28be db37 dfbd
00000330: 2869 3bbc 575d 0ebe d2ea 87bc abdc 04bb
00000340: 53d3 963d db2a b7bc 5bdb a3bd 26e7 363c
00000350: bd19 c23d fe29 74bd 31e0 ebbd a4f9 b23d
00000360: ddff d63d 96dc 913d c878 82bd 1c94 65bd
00000370: 4dbf 3e3c 8e08 20bd d140 c5bc 9000 90bc
00000380: 4e0f ab3c 2314 143d 7604 10bd 0401 f1bc
00000390: b056 5c3d d8e2 18bd ee5d d1bd 1eea 353d
000003a0: da4d e7bd 67cb abbd 4a24 b2bd 17bd 09bd
000003b0: f84a 1cbd 7a45 bf3d 2edc 0d3e f6b3 68ba
000003c0: 2027 31be f4ee 1ebe b492 d23d 1c31 febd
000003d0: 0c5f 83bd 9326 0abe 2e28 df3d 39b3 9bbc
000003e0: 40fd b13d 1c8c b1bc 5815 9c3d 450e 803d
000003f0: b366 a0bd a594 2fbe 7c03 593d fcec 873d
0.06034396 0.082334965 0.053761896 -0.13450755 -0.07370302 0.016961388 -0.030824682 -0.04363958
-0.09523717 -0.14839609 -0.14267854 -0.1635694 -0.13055216 -0.10730337 0.077099845 0.092470095
0.10445542 0.04110021 -0.11405603 0.11612522 -0.14689772 0.008830788 0.0850016 0.009799264
0.11510372 0.113146886 -0.11648088 -0.050610762 0.025437681 -0.024710411 0.0624285 -0.06885746
0.036614187 -0.021272786 -0.0699342 0.12904765 0.015002918 -0.021062523 -0.05363706 0.05134728
-0.06986565 0.051456757 0.013117487 -0.13915168 -0.03692383 0.0065929024 -0.022161914 -0.04453496
-0.10517023 -0.15519291 -0.11385813 0.029527929 0.07575437 0.05370954 0.0409883 -0.1165891
-0.14996155 0.021066222 -0.118954085 0.046329208 -0.051641766 -0.11692924 -0.1638653 0.070828125
-0.33591366 -0.32579166 -1.6464585 -0.44686124 -0.0038675137 -0.3937346 0.09892054 -0.58271104
-0.74223447 -0.5321158 0.09231662 0.51207316 0.13561597 -0.7077203 -0.12612846 -0.26790014
-0.57783407 -0.42081994 -0.10039699 -1.2334161 -0.84095097 0.12437745 -0.7329235 -0.7087363
-1.0019981 -0.95511615 -0.4507119 -0.79908025 -0.60134566 0.053905267 -0.9389964 -1.0378871
-0.7960861 -0.64146787 -0.7980006 -1.0498785 -0.21704498 -0.22017407 -0.8922058 -0.41201487
-0.07112415 -0.08165771 -0.29022235 0.29884806 -0.41486704 -1.767189 -0.30652288 0.021022065
-0.042433284 0.11011626 -0.9361287 -0.59191555 -0.23824258 -0.29262245 -1.8368068 -0.12609045
-0.99525756 -0.83224463 -0.4829725 -0.32157502 0.10809888 0.096521065 0.26850072 -0.41673067
-0.0014335309 -0.025706261 -0.18527883 -0.0925868 -0.051371608 0.05789419 0.07686857 -0.13361281
-0.14477633 0.051625084 -0.11478537 0.11480531 0.054353125 -0.06610692 -0.10631693 0.025108162
-0.2518283 -0.092540614 -0.08137446 0.10539601 -0.09815802 0.055284634 0.08702439 0.02992365
-0.062451545 0.001887633 0.06607099 -0.00050520303 0.044658843 -0.08337586 -0.2035684 -0.1833702
0.09927376 -0.13314874 -0.07103637 -0.068247095 0.0010698877 -0.104676284 -0.16194986 0.03999876
0.08012562 -0.12644139 -0.055661473 -0.05816275 -0.043445196 0.0018470852 -0.0575175 0.032075696
-0.13505566 -0.027887773 -0.20627601 -0.15454657 -0.15254529 0.032596916 0.01719571 0.010599094
0.02234895 -0.07403253 -0.19084668 0.059683543 0.04950358 -0.044994332 0.0007667049 -0.14422095
-0.121170655 0.021257164 -0.15566741 -0.1385769 0.04264174 -0.10762532 0.051410962 0.010822348
-0.07537835 -0.030525567 -0.16477363 -0.108993255 -0.011438645 -0.13902794 -0.016591463 -0.002027313
0.07364526 -0.022359302 -0.08000823 0.0111635085 0.094775654 -0.05961036 -0.115173705 0.087390214
0.10498021 0.071221516 -0.063706934 -0.05604945 0.011642289 -0.03907066 -0.024078758 -0.017578393
0.020881321 0.036152016 -0.035160504 -0.02941943 0.05379361 -0.03732571 -0.10222994 0.044412725
-0.11294146 -0.08388405 -0.08698328 -0.033627596 -0.038157433 0.093394235 0.13853523 -0.0008876914
-0.17300081 -0.15520841 0.10281888 -0.124117106 -0.06414613 -0.13491277 0.108963355 -0.019006358
0.08690882 -0.021673255 0.076212585 0.06252722 -0.07832088 -0.17146547 0.05298184 0.06636998

model.2.bias f4 [64]
00000000: 1275 dabd 48a4 123f 84c9 ecbd 0970 d6bd
00000010: 519c 833d 7830 243d 940b b13d 246b 00bd
00000020: d198 b23b 6e33 24bd cea4 d9bd 5520 86bd
00000030: cfa9 10be 7223 efbd b96c 8e3c ee40 e8bd
00000040: 34ca abbd 2c88 d7bb c1fd 8f3d de38 c8bd
00000050: fd72 16be 1294 8fbd 7e40 2dbe c58d 76bc
00000060: f370 323f c072 153c 77dc 17be 55cf 943d
00000070: 1cf7 8cb9 ecfe 0a3d a009 bbbd a38b bd3c
00000080: 1dd4 593d 2b49 303d 9ecb afbd 165b 30be
00000090: 4a5d 803c fa0f 22be 992b 8c3d 7941 acbb
000000a0: 08e9 183e c4bc bbbd dbeb 8dbd 053b 113f
000000b0: b969 743d 3452 4abc d786 25bd 7be8 203e
000000c0: 6bc7 c8bc 5199 02be 173f f5bb 3753 d33c
000000d0: f489 86bd 6175 1f3d b249 72bd 1fbe a73e
000000e0: 164a a9bd 3ade d4be ae08 c53c f150 4c3d
000000f0: 4f5f 45bd 5345 e6bd 805c d53e f4ce 57bc
-0.10666861 0.57281923 -0.115618736 -0.10470588 0.06426299 0.040085286 0.086447865 -0.031352177
0.005450346 -0.04008811 -0.10627137 -0.065491356 -0.14127277 -0.116766825 0.017385827 -0.11340509
-0.083881766 -0.0065775122 0.070308216 -0.097764716 -0.14692302 -0.07010664 -0.16919133 -0.015048449
0.69703597 0.009121597 -0.14830194 0.07266108 -0.00026886992 0.03393452 -0.09132695 0.023137873
0.053180803 0.04303853 -0.08583759 -0.17222247 0.015669484 -0.15826407 0.06844253 -0.0052568284
0.14932644 -0.091668636 -0.069297515 0.5673068 0.059671137 -0.0123487 -0.040411796 0.15713684
-0.024509152 -0.12753798 -0.0074843275 0.025796516 -0.06569281 0.0389303 -0.059152313 0.32762238
-0.08266084 -0.41575795 0.02405199 0.04988188 -0.048186596 -0.11243691 0.41672134 -0.0131719

model.4.weight f4 [1, 64]
00000000: 491a e0ba 695c c43e e58f e53c f06a 983a
00000010: 8530 d33d 5b3b d63c f969 67bd b349 a63c
00000020: 18d2 93bd a412 1fbe 1590 9a3b 1b69 fa3c
00000030: ebfc 27bd e96e 883d 2f8a 91bd 2718 82bc
00000040: 1d23 21bd 580a 8cbd 0dc3 ddbd b116 36bd
00000050: 9767 613c 319b 5e3d 50f8 70ba 8c4c 95bd
00000060: 2a0f 243f 5c34 21bc 2cee 75bd 1949 513d
00000070: e67d 81bc ae2f e23d b4d1 833d 6dc1 d13c
00000080: 15fe 1c3d 2240 e2bd d0a5 743d dc1e 11bd
00000090: 3bb4 92bd c6a7 d0bd 7f15 2f3d f78f edbc
000000a0: be9b 6dbf 3caf 66bd acc5 d1bc 266a 82bf
000000b0: a0fa f0be 55f9 46bd df6e 2ebd b23d 073e
000000c0: afe4 82bd 54f3 67bd 3d28 4cbd c199 afbd
000000d0: 2a9c 6c3d 5fc0 313d de94 08bc 96a3 993e
000000e0: 026c 8cbd e793 9bbd aff4 b4bd a10d 03bd
000000f0: 8b14 2abc fc8b 71bc dc94 8ebe 2540 25be
-0.0017097677 0.38351753 0.028022716 0.001162855 0.10311989 0.02615135 -0.056497548 0.020298814
-0.072178066 -0.15534455 0.004716883 0.030567696 -0.041012686 0.066617794 -0.071064346 -0.015880657
-0.039340127 -0.068379104 -0.108282186 -0.044455234 0.013757608 0.05434722 -0.0009192275 -0.07289991
0.6408564 -0.009839144 -0.06004159 0.051095102 -0.015807103 0.110442504 0.06436482 0.025604928
0.03832825 -0.110473886 0.059728444 -0.03542982 -0.071632825 -0.1018825 0.04274511 -0.028999312
-0.9281577 -0.05631946 -0.025606953 -1.0188644 -0.47066212 -0.048577625 -0.042586204 0.13207129
-0.06391274 -0.05662854 -0.04984306 -0.08574248 0.057766117 0.04339635 -0.008336274 0.3000762
-0.06856538 -0.075965695 -0.08835732 -0.03199542 -0.010380874 -0.0147428475 -0.27847946 -0.1613775
