app/models/disc_K3_deg1_-4_-13.pth (torch, 20480 bytes, 5 tensors)

model.0.weight f4 [64, 2]
0	0x3f32da67	0.69864506
1	0xc010f60f	-2.2650182
2	0xbf6edc05	-0.93304473
3	0x3fba9974	1.457808
4	0x3f03495a	0.512838
5	0xbe35b51e	-0.17744872
6	0xbf6b7617	-0.91977066
7	0xc0a63713	-5.194223
8	0x3ee91d0d	0.45529976
9	0x3f820387	1.0157326
10	0x401cf486	2.4524245
11	0xbf5a7cb5	-0.8534654
12	0x3f11f825	0.57019264
13	0xbefaaca5	-0.48959842
14	0xbf133e8a	-0.575173
15	0x3fe53bcc	1.7908874
16	0x3f02f590	0.5115595
17	0xbf4ae61b	-0.79257363
18	0xbf9a2795	-1.204333
19	0xc0dfd7a2	-6.9950724
20	0xbf5020aa	-0.8129984
21	0xc01473d0	-2.3195686
22	0x3ede66ee	0.43437904
23	0xbe31ff51	-0.17382552
24	0xbf811ed1	-1.008753
25	0x3e249e60	0.1607604
26	0xbed44784	-0.41460812
27	0x3fda388c	1.7048507
28	0xbf226f98	-0.6345153
29	0x3ff99926	1.9499862
30	0x3f060adc	0.5236032
31	0xbdd19975	-0.10234348
32	0x3f29fa20	0.66397285
33	0xbf40464a	-0.7510725
34	0x3f062b0f	0.5240945
35	0xbfa9e7d6	-1.3273876
36	0x3f909bd6	1.1297557
37	0x3f3de038	0.74170256
38	0x3ec0e590	0.37675142
39	0x3e11857c	0.14211076
40	0xbf676e9a	-0.9040314
41	0xc0d32995	-6.598826
42	0xbf882ca5	-1.0638624
43	0x3f5c722b	0.86111706
44	0x3efe6b6f	0.4969134
45	0xbf5b0dff	-0.8556823
46	0x3f07d292	0.5305568
47	0xbf568239	-0.83792454
48	0x3f03aa1b	0.51431435
49	0xbdd1ce62	-0.102444425
50	0xbfed64e7	-1.8546418
51	0xc15ad1d8	-13.676231
52	0x3f0c4060	0.5478573
53	0xbf5eb8fd	-0.8700102
54	0xbefb9898	-0.49139857
55	0x3f3e8375	0.7441934
56	0x3f531903	0.8246004
57	0x3f68f1f3	0.90994185
58	0x3f2a1150	0.66432667
59	0xbfff8cbd	-1.9964825
60	0x3ee25175	0.44202772
61	0x3f2b5a1f	0.6693439
62	0x3f87acbf	1.0599593
63	0xbf1cdc33	-0.612735
64	0x3ec8de26	0.39231986
65	0x3f8e9eaf	1.1142176
66	0xbcd70e3b	-0.026251903
67	0x3f356e65	0.70871574
68	0x3f0f4922	0.55970967
69	0xbf217668	-0.630713
70	0x3ee56931	0.44806817
71	0xbe17948f	-0.14802764
72	0xbf8fa985	-1.1223608
73	0x3f23a47f	0.63922876
74	0xbffab67e	-1.9586942
75	0xbf058ec5	-0.52170974
76	0x3f0a34d9	0.5398689
77	0xbef7c85c	-0.4839505
78	0x3f108953	0.5645954
79	0xbfb4e872	-1.4133437
80	0xbfb7b96f	-1.4353465
81	0x3f717183	0.9431383
82	0x3f0f33fc	0.55938697
83	0xbf6d661e	-0.92733943
84	0xbf35a8ef	-0.709609
85	0x3ea711b1	0.32630685
86	0x3f600c0a	0.8751837
87	0x3e57a669	0.21059574
88	0x3eb92f08	0.36168694
89	0xbd9924a0	-0.07477689
90	0xbfcab1e6	-1.583554
91	0x3db6ee0a	0.08932121
92	0xbefa89c4	-0.48933232
93	0x3f8fcd17	1.1234463
94	0x3df47210	0.11935818
95	0xbf852f41	-1.0405046
96	0xbf7f9ed3	-0.9985172
97	0x3f8773a1	1.0582162
98	0xbf6bc66e	-0.92099655
99	0xbdf12e49	-0.11776406
100	0xbf151a65	-0.582434
101	0x3eed72be	0.46376604
102	0x3ee87635	0.45402685
103	0x3ed668c3	0.41876802
104	0x3f1fd71b	0.624376
105	0xbf704444	-0.93854165
106	0xbf8d3e8e	-1.1034715
107	0x3f22a6c3	0.6353571
108	0x3f8177bf	1.0114669
109	0xbd81e811	-0.06343091
110	0x3e7d88bf	0.24759196
111	0x3f80e4a9	1.0069782
112	0xbcdd6401	-0.027025225
113	0xbf5e68b7	-0.8687853
114	0x3ee43148	0.4456885
115	0xbf85311b	-1.0405611
116	0xbf137016	-0.57592905
117	0xc0f340b8	-7.60165
118	0x3edca789	0.4309657
119	0xbe4ee304	-0.20203787
120	0x3f03c97a	0.51479304
121	0xbf8fd316	-1.1236293
122	0xc010b09c	-2.2607794
123	0x3fc59ae5	1.5437895
124	0xbdd6ba00	-0.104846954
125	0xbf573a0a	-0.84072936
126	0xbf34951f	-0.7054004
127	0x3fd9e41e	1.7022741

model.0.bias f4 [64]
0	0x408fee52	4.497842
1	0xc0a9b76f	-5.303642
2	0x3f873bdd	1.0565144
3	0x40871866	4.2217283
4	0x3fabdab6	1.342612
5	0x402a7632	2.663464
6	0x3fe82fed	1.8139626
7	0xc0312c04	-2.7683115
8	0x3fb9654e	1.4484041
9	0xbffecf36	-1.9906986
10	0xbef04142	-0.46924788
11	0x3ef24e13	0.4732519
12	0x3f3d5f19	0.7397323
13	0xbfdb53f2	-1.7134993
14	0xc05bd78f	-3.4350317
15	0x3f9b6505	1.2140204
16	0x402f13b6	2.735578
17	0x3ff49b7e	1.9109952
18	0x3f8c314e	1.0952547
19	0x3bc9d7be	0.0061597517
20	0x405bb5f1	3.4329798
21	0xc0c1b9eb	-6.053945
22	0x3fb1082c	1.3830619
23	0x4006b996	2.1050773
24	0x3f73b532	0.9519836
25	0xc02aeb90	-2.6706276
26	0x3fe422ff	1.782318
27	0xbf3734c0	-0.71564865
28	0x3f8eb900	1.1150208
29	0x4064e7b4	3.576642
30	0x3f597bf8	0.84954786
31	0x40b6800f	5.703132
32	0x3fcd8b64	1.6058164
33	0x3e32615a	0.17419949
34	0x3fe5c515	1.795077
35	0x3f302ef3	0.6882164
36	0xc0c65ac7	-6.198581
37	0xbf29efd5	-0.6638158
38	0x400401cd	2.06261
39	0x4050f900	3.2651978
40	0xc07a094f	-3.9068182
41	0x4009d925	2.1538785
42	0x3eba3c62	0.36374193
43	0x3d50b4a7	0.050953534
44	0xbe5481d9	-0.20752658
45	0xbf301168	-0.6877656
46	0xbff99cb6	-1.9500949
47	0x40a91fb9	5.2851224
48	0xc0af02e2	-5.469102
49	0xbf03aea1	-0.5143834
50	0xc031648c	-2.771762
51	0x3f52c263	0.8232786
52	0x4021dafc	2.5289907
53	0xbffdd2e3	-1.9829983
54	0x3fbdfbd7	1.484248
55	0x3fa49401	1.2857667
56	0x40058ed1	2.0868418
57	0x3f93d19c	1.1548343
58	0x400a646e	2.1623797
59	0x3efc8d14	0.49326384
60	0x3fd9c577	1.7013386
61	0xc1641042	-14.253969
62	0x402e6879	2.7251265
63	0xc0815c02	-4.0424814

model.2.weight f4 [64, 64]
0	0xbdb5c063	-0.088745855
1	0x3daf16c7	0.08549266
2	0x3c841fab	0.016128382
3	0x3ec307d0	0.38091898
4	0xbe1137fa	-0.1418151
5	0xbf062e50	-0.5241442
6	0xbe6e1fbf	-0.23254298
7	0xbe2224b8	-0.1583432
8	0xbd4d4fc2	-0.05012489
9	0x3ec975b5	0.39347616
10	0x3ec3b7ee	0.38226265
11	0x3e3100a0	0.17285395
12	0x3dd0b6ce	0.10191117
13	0xbd1a17d8	-0.037620395
14	0xbb19e1b4	-0.0023480477
15	0x3e160e5b	0.14653914
16	0xbe8dfb3f	-0.27730748
17	0xbecf1a91	-0.40449956
18	0x3b0044d9	0.0019572286
19	0xbd9fec3e	-0.078087315
20	0x3e9049dc	0.2818135
21	0x3dbf4bcf	0.09340631
22	0xbe7297c2	-0.23690704
23	0xbe4a283c	-0.1974191
24	0x3d089899	0.033348653
25	0x3ebc0fa0	0.3673067
26	0xbe02247e	-0.12709233
27	0x3cf6518d	0.030068183
28	0xbcfcc183	-0.030853992
29	0xbea65161	-0.32483962
30	0xbe1a33fc	-0.15058893
31	0xbf88ea1f	-1.0696448
32	0xbe35520b	-0.17707078
33	0xbe705a24	-0.23471886
34	0xbe92f42b	-0.2870191
35	0x3e455665	0.19271238
36	0x3c033a5b	0.0080095185
37	0x3dc118b2	0.094285384
38	0xbed9debe	-0.4255275
39	0xbebb56ce	-0.36589664
40	0x3daf91e8	0.08572751
41	0x3e08d7a1	0.13363506
42	0x3db2d1a8	0.08731395
43	0xbe52d277	-0.20588098
44	0x3e1dbc68	0.15403903
45	0x3e25beb5	0.1618603
46	0xb964affa	-0.00021809331
47	0xbd5b3cb6	-0.053524695
48	0x3d6ebcfc	0.0582857
49	0x3e272d79	0.1632594
50	0x3ddff746	0.109358355
51	0x3cff712b	0.031181892
52	0xbea66bcc	-0.32504117
53	0x3d60dcc3	0.054898035
54	0x3d55bb35	0.052180488
55	0xbdbee5bf	-0.09321164
56	0x3ecc7b5d	0.3993787
57	0xbd94db75	-0.072684206
58	0x3e959f99	0.29223326
59	0xbe454147	-0.19263183
60	0xbe8e74d9	-0.27823523
61	0x3e72f4bd	0.23726173
62	0x3d138598	0.036016077
63	0x3dd388d7	0.103288345
64	0xbf6db655	-0.9285634
65	0xbe688d1c	-0.22710079
66	0xbe2deb4b	-0.16984288
67	0x3f050ab6	0.5196947
68	0x3e15942a	0.14607301
69	0xbe106135	-0.14099582
70	0xbf5cf0c7	-0.863049
71	0x3d79e5b0	0.061010063
72	0xbf448a62	-0.76773655
73	0xbfc89b82	-1.5672457
74	0xbf2f4c14	-0.6847546
75	0xbdca0469	-0.098641224
76	0xbc54fcd9	-0.012999737
77	0x3c4cc6d1	0.012498573
78	0x3d810a67	0.06300812
79	0xbe45bf54	-0.19311267
80	0xbf768f88	-0.9631276
81	0xbf82a3cd	-1.0206238
82	0xbdbbbce4	-0.091668874
83	0xbdc087ea	-0.094009236
84	0x3d6ddad0	0.058070004
85	0xbed19f19	-0.40941694
86	0xbf39c109	-0.72560173
87	0xbea7ccaf	-0.3277335
88	0xbe118432	-0.14210585
89	0xc03bcc85	-2.934358
90	0xbe75da3b	-0.2400903
91	0x3d674840	0.056465387
92	0x3dda8b51	0.10671104
93	0xbf96ccaa	-1.1781209
94	0x3df6f660	0.12058711
95	0xbf0aecfd	-0.54267865
96	0x3e4620df	0.19348477
97	0x3da47199	0.080294795
98	0xbf360ff2	-0.7111808
99	0xbbcc269f	-0.00623019
100	0xbf7fdfe1	-0.9995099
101	0xbe24220e	-0.16028616
102	0xbf449836	-0.76794755
103	0xbf29ec3c	-0.6637609
104	0xbd0a2cb5	-0.033734042
105	0xbf18a63f	-0.5962867
106	0x3e201390	0.15632463
107	0xbe44684a	-0.19180408
108	0xbe6bc979	-0.23026074
109	0x3ce26f6a	0.027641017
110	0xbddd6e2c	-0.10812029
111	0x3ed978a9	0.4247487
112	0xbf0b7a67	-0.54483646
113	0xbe66d688	-0.22542775
114	0xbdaa4bd5	-0.08315245
115	0xbd2d7497	-0.042347517
116	0xbf2039b3	-0.6258804
117	0xbdd26ba2	-0.102744356
118	0x3d26ad75	0.040692765
119	0x3d52fa0e	0.051508002
120	0x3fe9dc4e	1.8270357
121	0xbf034a5f	-0.51285356
122	0x3ea52cbd	0.32260695
123	0xbf11800b	-0.56836003
124	0xbf1454b0	-0.5794172
125	0xc04ef30f	-3.2335851
126	0x3f131cda	0.574659
127	0xbe3416db	-0.17586844
128	0xbcb9b969	-0.022671418
129	0xbf3c0a16	-0.7345289
130	0xbe380f73	-0.17974643
131	0x3eb913d1	0.3614793
132	0x3c2f6cb7	0.010707072
133	0x3c1a5646	0.009419983
134	0xbf183aec	-0.5946491
135	0xbd702f65	-0.05863895
136	0xbf6687eb	-0.90051144
137	0xbf9821ff	-1.1885375
138	0xbf9d9787	-1.2311867
139	0xbd87de10	-0.06634152
140	0x3e7fd5dd	0.24983926
141	0xbd5fdd78	-0.05465457
142	0x3cd68960	0.026188552
143	0x3de39bf6	0.111137316
144	0xbf3a5366	-0.72783506
145	0xbf9105c9	-1.132989
146	0x3cc2fb74	0.023801543
147	0x3d797fd0	0.060912907
148	0xbe4f3130	-0.20233607
149	0xbedfb67f	-0.4369392
150	0xbf585510	-0.84504795
151	0x3d6984f6	0.057011567
152	0xbd9c05ca	-0.07618292
153	0xbfb266b1	-1.3937589
154	0xbde2b204	-0.1106911
155	0x3d05ae75	0.03263708
156	0x3cb5283d	0.022113914
157	0xbf7c78c4	-0.98621774
158	0x3df222b2	0.11823024
159	0xbdf598ed	-0.11992059
160	0x3d05cb3c	0.032664523
161	0x3dad8f99	0.08474655
162	0xbf29014d	-0.6601761
163	0x3d01db8d	0.03170352
164	0xbf502ae8	-0.8131547
165	0x3e56dbb3	0.20982246
166	0xbee4a7c4	-0.44659245
167	0x3e0edf5c	0.13952392
168	0xbe9a486e	-0.30133384
169	0xbb54ba3b	-0.0032459635
170	0x3e5227a6	0.20522937
171	0xbe18bdf0	-0.14916205
172	0xbe3a133f	-0.18171404
173	0x3b2d7cdb	0.0026472125
174	0xbc58a494	-0.013222832
175	0x3f1482d7	0.58012146
176	0xbf455dfd	-0.7709654
177	0xbd97dd5d	-0.074152686
178	0x3e741e98	0.23839796
179	0x3d62a126	0.055329464
180	0xbde1a981	-0.110186584
181	0xbe8041fb	-0.2505034
182	0x3d80ac09	0.06282813
183	0x3ded53e6	0.11588268
184	0x3fc7c982	1.560837
185	0xbf5e5bd4	-0.8685887
186	0x3e4d6bec	0.200607
187	0xbe43a452	-0.19105652
188	0xbf552e62	-0.832739
189	0xc09c574e	-4.8856573
190	0x3f714a07	0.9425358
191	0xb88f66be	-6.8379086e-05
192	0x3f214e69	0.6301027
193	0xbeda322d	-0.42616406
194	0xbf0bb6c8	-0.5457578
195	0xbd8264d9	-0.063668914
196	0x3db12623	0.08649852
197	0x3db36d84	0.08761123
198	0xbf2ced6e	-0.6754979
199	0x3d2e9bd7	0.04262909
200	0xbf0b7301	-0.5447236
201	0xbea5af16	-0.32360142
202	0xbf1ecf3d	-0.6203497
203	0xbeadb6fe	-0.33928674
204	0x3dd61078	0.1045236
205	0x3cd99997	0.026562495
206	0xbb9dffde	-0.0048217615
207	0xbedbfecc	-0.42967832
208	0xbf6077f5	-0.8768304
209	0xbea53821	-0.32269385
210	0xbf4d80da	-0.80274737
211	0xbe25c009	-0.16186537
212	0xbdbd6316	-0.09247415
213	0xbe0f6b5d	-0.140058
214	0xbec9ccdb	-0.39414105
215	0xbf1f435b	-0.6221215
216	0xbea7b203	-0.32753
217	0x3f835274	1.0259538
218	0xbeb75fb6	-0.3581521
219	0x3cf247cd	0.029575253
220	0xbefa9f2b	-0.4894956
221	0x3f47f329	0.7810541
222	0xbdf87c3f	-0.12133073
223	0x3e81eb81	0.25374988
224	0x3dd1c410	0.10242474
225	0x3d469a3c	0.048486933
226	0xbf585bca	-0.8451506
227	0xbe671a16	-0.22568545
228	0xbea42c56	-0.32065076
229	0xbdd2fae6	-0.10301761
230	0xbfa29ce9	-1.2704135
231	0xbdf4719d	-0.119357325
232	0xbe96df37	-0.29467174
233	0xbf3b7ee1	-0.73240477
234	0xbd3feba5	-0.046855588
235	0xbe7ef64c	-0.24898642
236	0xbec2fb6e	-0.3808245
237	0xbd0d1031	-0.03443927
238	0xbdde55ee	-0.108562335
239	0x3ebb2dda	0.3655842
240	0xbed0835b	-0.40725216
241	0xbce836b1	-0.028346391
242	0xbd65e501	-0.0561266
243	0xbd4dbce9	-0.050228987
244	0xbe9b615f	-0.30347726
245	0xbf05007e	-0.51953876
246	0xbf140290	-0.5781641
247	0x3e38377e	0.17989919
248	0x3f0b35a2	0.5437871
249	0xbe7fad78	-0.24968517
250	0x3ecdb294	0.40175307
251	0xbf0bf0c5	-0.5466426
252	0xbed36fd1	-0.41296247
253	0xbe2ac00f	-0.16674827
254	0x3ee07c30	0.43844748
255	0xbe325447	-0.17414962

model.2.bias f4 [64]
0	0xbdb4aea6	-0.08822374
1	0x3e74998c	0.23886698
2	0x3ecf511b	0.40491566
3	0x3d401c73	0.04690213
4	0x3f5e63bb	0.86870927
5	0x3be0008a	0.0068360018
6	0x3f061431	0.5237456
7	0x3daf8925	0.0857108
8	0x3e0c62ac	0.13709515
9	0x3daaee1e	0.083461985
10	0x3d86cba4	0.0658181
11	0x3e8a4ec2	0.27013212
12	0x3d43e587	0.047826316
13	0xbdec976f	-0.11552321
14	0x3f6ade0b	0.9174506
15	0x3dd5bbd1	0.10436214
16	0xbece4ce0	-0.40293026
17	0x3e07fa05	0.13278969
18	0x3c5888f8	0.01321625
19	0x3e97494e	0.29548115
20	0xbf05fd2d	-0.5233944
21	0x3c0a6ab8	0.008448295
22	0xbe0b71a1	-0.13617565
23	0xbd8c43e6	-0.06848888
24	0x3ea5a662	0.32353503
25	0xbdf79c2f	-0.120903365
26	0x3d1e4484	0.03863956
27	0xbeb5a1b3	-0.3547493
28	0x3e1dd46f	0.15413068
29	0x3d387a03	0.045038234
30	0x3c53d82e	0.012929959
31	0xbd346a50	-0.0440467
32	0xbe227fb7	-0.15869032
33	0x3e944ddb	0.2896565
34	0xbc378dda	-0.011203254
35	0x3dca65b8	0.098826826
36	0x3d37498c	0.044747874
37	0xbcbe73a9	-0.02324851
38	0x3f006a33	0.5016205
39	0xbc514a0a	-0.012774
40	0xbd5eb7ee	-0.054374628
41	0x3e0c7003	0.13714604
42	0x3eebc3a8	0.4604771
43	0xbd0b67fa	-0.034034707
44	0x3eaf4737	0.3423402
45	0x3ea1717c	0.31531894
46	0xbd351189	-0.044206176
47	0x3ef93b02	0.48677832
48	0x3dd105cb	0.10206183
49	0x3e149771	0.14510895
50	0x3d624efe	0.055251114
51	0xbdc83f80	-0.09777737
52	0x3e1160ff	0.14197157
53	0x3b934eb2	0.004495465
54	0x3e334356	0.17506155
55	0xbe4cfc65	-0.20018156
56	0x3ea49479	0.32144526
57	0x3a96d1e7	0.0011506648
58	0xbea53a6b	-0.32271132
59	0xbe764281	-0.24048807
60	0x3f2cc0c5	0.6748164
61	0x3ef14b62	0.47127825
62	0xbf002ad5	-0.50065356
63	0x3d84f3ba	0.064918

model.4.weight f4 [1, 64]
0	0x3e365e8b	0.17809503
1	0x3f42acc7	0.7604489
2	0x3f1f5243	0.62234896
3	0xbf7c1486	-0.98468816
4	0xc006d669	-2.1068366
5	0x3f26e346	0.6519054
6	0x3fcc14ce	1.5943849
7	0x3f0d72a2	0.5525304
8	0x3dbffd34	0.093744665
9	0xbe7c5e62	-0.24645379
10	0x3f12d2ae	0.5735272
11	0x3e9b32c0	0.30312157
12	0xbfa21630	-1.2663021
13	0xbd916fda	-0.07101412
14	0xc0555327	-3.3332002
15	0x3d1055bc	0.035238013
16	0xbf8103ec	-1.0079322
17	0x3f32d056	0.69849145
18	0xbe636c66	-0.2220932
19	0xbfd33dd5	-1.6503245
20	0xbea8338d	-0.3285183
21	0xbf5069b9	-0.8141132
22	0xbf1162fc	-0.56791663
23	0x3f3ac3b3	0.72954863
24	0xbf7bf8e7	-0.9842667
25	0x3d7d6678	0.0618653
26	0xc0159be4	-2.3376398
27	0xbea297ef	-0.3175654
28	0x3fc1b4ad	1.5133263
29	0x3dec8f29	0.11550743
30	0x3e398369	0.18116535
31	0xbe5d2b1c	-0.21598476
32	0xbeeeaff7	-0.46618626
33	0x3f029605	0.5101016
34	0xbeafd527	-0.3434231
35	0xbf821ad2	-1.0164435
36	0x3ea7b222	0.32753092
37	0xbe9252f1	-0.28578904
38	0x3f9337ce	1.1501405
39	0xbe43641c	-0.19081157
40	0xbe022d31	-0.12712552
41	0xbf3f0fc4	-0.7463343
42	0x3effb604	0.49943554
43	0x3be1a360	0.006885931
44	0x3f6330b8	0.88746214
45	0x3f24dd4f	0.6440019
46	0xbf3acc69	-0.72968155
47	0x400701d4	2.1094866
48	0x3d976886	0.07392983
49	0xbe828dfe	-0.25498956
50	0xbf93500f	-1.1508807
51	0x402e1de9	2.7205756
52	0xbf638e0b	-0.88888615
53	0xbea23f55	-0.31688944
54	0x3f8c98ba	1.0984108
55	0xbeaec56a	-0.3413499
56	0x401e8ef6	2.4774756
57	0xbf2bd38f	-0.6711969
58	0xbfc6ddde	-1.5536458
59	0xbf64d930	-0.893939
60	0x4007855d	2.1175148
61	0x3ff6881d	1.9260288
62	0xbecbf458	-0.39834857
63	0xbe40da3f	-0.18833254
