app/models/disc_K3_deg1_-14_3.pth (torch, 20470 bytes, 5 tensors)

model.0.weight f4 [64, 2]
00000000: 2d98 cc3f c5f8 fdbe 2873 e03f 96d7 52bf
00000010: 012a 563f d09a 1c3f 0847 b7bf 48f6 a8be
00000020: c43f 983e cdeb 1e3f d7a0 90bf 9d1a c13e
00000030: 38ef ef3f 02b1 64bf 6da2 ef3f 37ab 67bf
00000040: d674 8cbd 4c8a 27bb 5d77 0ebf acb2 163f
00000050: d3ca 1d3f a46f 383e 5bbe 18bf 643e fe3e
00000060: 138e 55bf cb7a 083f 11cd 0140 4c78 d23e
00000070: 51e7 f9be 6e8a a73e 57db e73c 4a11 5fbf
00000080: 2783 6dbf 9e51 bf3e 3c99 dd3f d832 55bf
00000090: 8982 a2bf b952 0e3f 984f e13f 85f7 5ebf
000000a0: dca1 b93f 305a c63f d049 54bf 8bc3 f93e
000000b0: 7ba5 be3f 41ae 03bf 7801 ea3d d571 183f
000000c0: 9859 c23f 1e63 41bf a658 763f 8259 57bf
000000d0: 7979 ce3f ed32 42bf e5b6 e63f 8b06 2fbf
000000e0: af86 853e 039e bebd b475 b83f 8159 52bf
000000f0: 234b 55be 9c5a 57bf ab5c 81bf 3205 f83e
00000100: 47bd 83bf c753 ec3e d943 bcbf 3941 09c0
00000110: 2a97 d33f 6892 4fbf f0d9 893d d7fd 353f
00000120: 19ce c53f 55d6 30bf 8c71 b23f 24af 5bbf
00000130: da8a dd3f 8ff1 20bf b680 a7bf 4c94 133f
00000140: 7248 5ebe b7f7 213f 8e8e 143f dac9 0f3f
00000150: 8494 e53f 1d17 58bf d458 4740 dbba 0bbd
00000160: 7ad6 91bf d19e 6a3e 67fc c23f a784 4bbf
00000170: 5642 78bf 166b 023f 3292 c33f f71f 3ebf
00000180: 60e7 46be 8e82 0f3f 9f81 d8bd 97d1 113f
00000190: 812d 0fbf c653 c33e f536 b63f 9e33 40bf
000001a0: b915 97bf a17b e83e 036c c83f 4899 43bf
000001b0: dff4 95bf 3646 863e c4a4 e23f ee10 61bf
000001c0: e350 bbbf 0053 ccbe bc20 54bf bc9c 543e
000001d0: 2707 59be ceb3 263f 550d 4c3f 6d1e 073f
000001e0: 169e e73f 8ba6 62bf 8cde 99bf 481b 9bbe
000001f0: d492 e0bf 0ad8 f13e c96a d13f f92c 60bf
1.598394 -0.4960386 1.7535143 -0.8236021 0.8365784 0.61173725 -1.4318552 -0.33000398
0.2973615 0.62078553 -1.1299084 0.37715617 1.8744879 -0.8933259 1.8721443 -0.9049563
-0.06858222 -0.002556461 -0.55650884 0.5886638 0.6163761 0.18011338 -0.5966546 0.49656975
-0.83419913 0.5331237 2.0281413 0.41107404 -0.48809293 0.327228 0.028302832 -0.87135756
-0.9277825 0.37366956 1.7312388 -0.83280706 -1.2696086 0.55594975 1.7602415 -0.87096435
1.450252 1.5496273 -0.8292513 0.48782 1.4894251 -0.51437765 0.114260614 0.59548694
1.5183592 -0.75541866 0.96229017 -0.84120953 1.613082 -0.75858957 1.8024565 -0.6836936
0.26079318 -0.09307482 1.441092 -0.8216782 -0.20829444 -0.84122634 -1.0106405 0.48441464
-1.0292138 0.46157667 -1.4708205 -2.1446059 1.6530507 -0.81082773 0.067310214 0.71090454
1.5453521 -0.69077045 1.3940902 -0.8581412 1.7307999 -0.6286859 -1.3086154 0.5764816
-0.21707323 0.6326861 0.5803002 0.56167376 1.7935948 -0.8441027 3.1147966 -0.034113746
-1.1393578 0.22912146 1.5233277 -0.79499286 -0.9697622 0.5094465 1.527899 -0.74267524
-0.194242 0.56058586 -0.10571598 0.56960434 -0.5592881 0.38149852 1.4235522 -0.7507876
-1.1803504 0.4540682 1.5657963 -0.76405764 -1.1715354 0.26225442 1.7706532 -0.8791646
-1.463406 -0.39907074 -0.8286245 0.20762914 -0.21194135 0.6511811 0.79707843 0.527808
1.8095119 -0.88535374 -1.2021041 -0.3029425 -1.7544808 0.47235137 1.6360713 -0.8756862

model.0.bias f4 [64]
00000000: 8e1e 9a40 1476 f740 49d8 2340 20e5 e8be
00000010: 40a6 b8bf 04d9 34c0 8057 0841 fbd2 0941
00000020: 8957 1641 7873 2ac0 2920 d73f 61ae 0dc0
00000030: 53e6 40c0 7bdf 8f3f 6a48 26bf 0231 7e40
00000040: 26eb 13c0 63c0 f840 642c 88c0 e7b6 0141
00000050: d5f9 383f 025d 2fc0 14ed 9540 9691 0c40
00000060: 9db9 d640 1f68 b240 6908 db40 d888 d340
00000070: 365c 8340 bed5 da40 fb8d 7541 fce6 4ac0
00000080: d36c 44c0 e466 5f40 9fc4 ed40 1387 3e40
00000090: aa26 c840 0e7e dd40 2f74 c540 572c 8fc0
000000a0: caed 0dc0 5abc 3240 4c41 0041 7254 9940
000000b0: 4fb3 3740 0066 df40 a1cd 4dc0 c006 d540
000000c0: c24a d9bf 6032 cfbf 11cf d140 8375 cd40
000000d0: 8670 5ac0 1e1c dc40 6bda 0ec0 f46e 0341
000000e0: f7a1 063e 4c2b 92bf 1554 13c0 5213 2040
000000f0: c6cf 0441 10df be40 8958 9cc0 c049 f940
4.81623 7.733164 2.560076 -0.45487309 -1.4425735 -2.8257456 8.521362 8.614009
9.396371 -2.6632977 1.680669 -2.2137682 -3.0140579 1.1240076 -0.64954245 3.9717412
-2.3112273 7.7734847 -4.255419 8.107154 0.72256213 -2.7400517 4.68519 2.1963859
6.710158 5.57521 6.8447766 6.6104546 4.105006 6.8385916 15.347163 -3.1703482
-3.069142 3.490655 7.4302516 2.9769943 6.2547197 6.9216375 6.1704326 -4.4741626
-2.2176385 2.792746 8.015942 4.7915583 2.8703191 6.981201 -3.2156756 6.657074
-1.6975939 -1.6187248 6.5565267 6.4205947 -3.413118 6.8784323 -2.2320812 8.214588
0.13147722 -1.1419463 -2.302007 2.5011792 8.300726 5.9647293 -4.8858075 7.7902527

model.2.weight f4 [64, 64]
00000000: 9675 39c0 c9c1 72c0 5a24 f33d 8130 c4bf
00000010: a94b 21bf 1cfb c8bf c8d7 89c0 b934 89c0
00000020: 0c22 ec3e 4dea c9bf 6797 15be b6fd 98bf
00000030: 7230 01c0 3ace e4bf d29e 16be a410 5dc0
00000040: cee7 b5bf 4802 6dc0 bc69 4ac0 b67f 82c0
00000050: baed 18be b5f2 debf 066f 2fc0 cb21 9e3e
00000060: e3ca 5bc0 715f 42c0 ad8c 39c0 d3ea 12c0
00000070: ec50 983f 12fc 52c0 6748 d13f 2a46 20c0
00000080: fde9 ebbf 5660 24c0 9412 6fc0 6881 9a3e
00000090: d7be 43c0 ada4 59c0 7ada 2ec0 3900 69c0
000000a0: 3f70 7cbf 8f42 3e3e 3a29 7ec0 577a c2c0
000000b0: 237c f03e 64fe 5cc0 35df 1cc0 dae4 52c0
000000c0: 3865 50bf 94de 3dbf 8fa9 0d3f 2a08 51c0
000000d0: 04d1 12c0 3576 57c0 5047 6dbf 9a49 8fc0
000000e0: ad5e a0bf 822e b4be 900f 83bf 8a8d ff3d
000000f0: 36b0 81c0 0d84 b63f 1c25 0bc0 063f 75c0
00000100: bc02 6dc0 0d27 ebc0 3ca0 1cbe dffe 723e
00000110: c1ea 0bbf 073e 82bf 8cbb 0bc1 adbf 17c1
00000120: 54c4 3dbd 7446 4fbf 1f08 d43c 139d 24bf
00000130: d2cc a5bf f239 1340 c122 9fbd 298e c5c0
00000140: 19c0 54bf 2a15 edc0 400e febf 90c3 0bc1
00000150: b5e3 11be 2c00 5dbf 7bb1 6bc0 613c 0bbe
00000160: 068a fbc0 6bc4 b8c0 ec6a a5c0 42a7 44c0
00000170: e238 043d c3db e1c0 4c93 f53c 3d8e a4bf
00000180: 50c2 8dbf 807c 2d3f b584 fbc0 6016 dbbc
00000190: f282 c2c0 7247 dec0 3a68 88c0 ecb9 06c0
000001a0: ee3a 55bf e2f9 333d 0e0e 04c1 0d99 cfc0
000001b0: 5c58 a9be 8e66 00c1 645f b5bf 94b1 e6c0
000001c0: bdee d2be 398d 05bf d293 3ebe 49d8 e0c0
000001d0: 6de4 b2bf 7a19 f5c0 e31b 41bf 10f5 1ec1
000001e0: 5a53 083e a894 09bf 7679 14bf 5b00 85bd
000001f0: e876 02c1 b874 babd 08fb b8bf c326 06c1
00000200: f9bf f4be 3a00 a7bf 5455 88be cbf4 f93e
00000210: 5ca3 0cbf e292 eebe d939 dcbf 5578 fabf
00000220: e398 2e3d 4682 94bf 8b18 853e 94fb bdbe
00000230: 52e2 59bf 885b 33be ae64 ccbd 9f35 e83e
00000240: 2073 c6be fb31 bdbf 39ce 75bf b8bf 3dc0
00000250: 4d19 67bc 07c3 10bf 36f0 1bbf c445 a73c
00000260: 33fa 8fbf e033 1ebf 8ee2 b2bf f1f8 31bf
00000270: a05c 5a3e 9bd1 d1bf 5dbd b33e 8f21 36bf
00000280: 6ef9 18bf a57e 6abe 8ec1 bcbf 0db6 013d
00000290: 8ad9 83bf 974a c4bf 3e53 36bf 04d7 9cbf
000002a0: a5fe cebf 6e48 90bc 035f cebf 04ff debf
000002b0: 7bfa 303e 12a5 b8bf 858d 68bf 6ac2 aebf
000002c0: f4af 53bf a5e0 83bf 6f9d 533d 659d b2bf
000002d0: 294d 1fbf 6ede 8abf 9cd4 debd 6339 26c0
000002e0: 9f59 153f 823b 34be ca92 f6bf 74b3 36bd
000002f0: 9787 0fc0 a670 773e 9c0a 91be baad 4cc0
00000300: 65e0 6cc0 9e3b 78c0 e886 6a3e 71f4 84bf
00000310: 8535 dbbe 2bd1 d9bf 962c 8cc0 ce75 8ec0
00000320: 1e6d c63e 12cc b4bf db7a df3e 090a 84bf
00000330: b84b 0bc0 a0ba fe3e 9f9b be3c 86e9 ffbf
00000340: d16a c5bf 80be 62c0 38bf 64c0 7a67 77c0
00000350: ce83 a5bd 9bf6 f3bf 1c18 4ac0 1ebf 583e
00000360: 275a 53c0 8265 42c0 063c 41c0 cba3 16c0
00000370: 4ab2 a13f 8628 56c0 db14 e33f 8714 2ac0
00000380: f319 fabf a68e 34c0 aa1e 64c0 5345 993e
00000390: 4073 53c0 2941 51c0 2a4c 3dc0 f9ba 76c0
000003a0: 1856 68bf 37f5 fd3e f323 87c0 f6da bfc0
000003b0: c2db fb3e 8123 51c0 bcf6 1ac0 9ab9 56c0
000003c0: 5a9c 03bf def6 ffbe 0c8a 2b3f fed4 3ec0
000003d0: 013c 32c0 42a9 4cc0 d120 9ebf b002 8fc0
000003e0: c5ff 1abf f3c6 f6be 7ace 67bf b83f 943e
000003f0: 5c1c 7cc0 ae6d 943f 5711 33c0 db67 6ec0
-2.8978019 -3.7930777 0.11872168 -1.5327302 -0.63006073 -1.5701632 -4.3075905 -4.287686
0.46119726 -1.5774628 -0.14608537 -1.1952426 -2.0185819 -1.7875435 -0.14709023 -3.4541407
-1.4211366 -3.7032642 -3.1627035 -4.0780897 -0.14934435 -1.7417818 -2.7411513 0.30885157
-3.4342582 -3.0370753 -2.8992112 -2.2955825 1.1899695 -3.2966352 1.635022 -2.5042825
-1.8430783 -2.5683799 -3.735509 0.30176854 -3.058523 -3.400676 -2.7320848 -3.6406386
-0.98608774 0.18580078 -3.9712663 -6.077434 0.4696971 -3.4530268 -2.4511235 -3.295218
-0.8140445 -0.7416775 0.5533685 -3.2661233 -2.2940073 -3.3665898 -0.9268694 -4.4777346
-1.2528893 -0.35191733 -1.0239124 0.12478168 -4.05276 1.4259049 -2.17414 -3.8319716
-3.703292 -7.348517 -0.152955 0.23730038 -0.5465508 -1.0175179 -8.733288 -9.484296
-0.04632981 -0.8096688 0.025882779 -0.64302176 -1.2953131 2.3004117 -0.07770301 -6.1736035
-0.8310562 -7.4088335 -1.9848099 -8.735245 -0.1424702 -0.8632839 -3.6827075 -0.13597251
-7.8605986 -5.773977 -5.169302 -3.0727086 0.03228081 -7.0580764 0.029977463 -1.2855908
-1.1074924 0.67768097 -7.8599496 -0.026744068 -6.0784845 -6.9462214 -4.262723 -2.1050978
-0.83293045 0.04393948 -8.253431 -6.487433 -0.33075225 -8.025038 -1.4169736 -7.209177
-0.41197768 -0.52168614 -0.18611076 -7.026402 -1.397596 -7.65936 -0.75433177 -9.93483
0.13313046 -0.53742456 -0.57997835 -0.064942084 -8.15403 -0.091042936 -1.4451609 -8.384463
-0.47802714 -1.3046944 -0.266276 0.48819575 -0.54936767 -0.46596438 -1.7205154 -1.9567972
0.042626273 -1.1602256 0.25995287 -0.37106 -0.8511096 -0.17515385 -0.099801406 0.4535341
-0.38759708 -1.4780878 -0.96017796 -2.9648266 -0.014105153 -0.5654759 -0.6091341 0.020419009
-1.124823 -0.61797905 -1.3975389 -0.6952048 0.21324396 -1.6392092 0.3510541 -0.71144956
-0.597556 -0.22899874 -1.4746568 0.031667758 -1.0300763 -1.5335263 -0.7122077 -1.2253118
-1.6171461 -0.017612662 -1.6122745 -1.7421575 0.1728305 -1.4425375 -0.9084094 -1.365308
-0.8269036 -1.0302931 0.051663812 -1.3954283 -0.6222711 -1.084913 -0.10880396 -2.5972526
0.58339876 -0.17600825 -1.9263546 -0.044604734 -2.2426507 0.24164066 -0.28328407 -3.1981034
-3.701196 -3.8786387 0.22903025 -1.0387098 -0.4281427 -1.7016958 -4.3804426 -4.4518805
0.38755125 -1.4124777 0.4364842 -1.0315562 -2.1764965 0.4975176 0.023267565 -1.9993141
-1.5423223 -3.5428772 -3.574171 -3.8656907 -0.080817804 -1.9059633 -3.1577215 0.21166655
-3.3023775 -3.0374455 -3.0192885 -2.3537471 1.2632535 -3.3462234 1.774074 -2.657503
-1.9539169 -2.8212066 -3.5643716 0.29935703 -3.3039093 -3.269602 -2.9577737 -3.855162
-0.9075637 0.49601147 -4.2231383 -5.9954786 0.491911 -3.267792 -2.4213095 -3.3550782
-0.5141045 -0.49993032 0.6700752 -2.98175 -2.7849123 -3.1978307 -1.2353765 -4.469078
-0.60546523 -0.4819866 -0.90549433 0.28954864 -3.939231 1.1595972 -2.7979333 -3.7250888

model.2.bias f4 [64]
00000000: 9f18 b03f 03e6 20be 610d 0c3e b93f af3f
00000010: 028d bfbe 6701 9d3e ab90 493f 22c0 0a3f
00000020: 66ab a13f 5ecf 1e3f 17a4 a33f 8a57 943f
00000030: d796 a73f 0fc5 ac3f fb28 f4be ff92 863e
00000040: e4c2 70bf 3859 ab3f d8a0 203f b855 29bf
00000050: 0c33 423f ebcb 8d3f 2498 303f 7b42 243f
00000060: 48c0 973f e02b 0a3f 1997 753f efcf 9c3f
00000070: c991 613f 299a c23e 88a9 893f c3ee 703f
00000080: 8bba a33f 1762 a03f d6a9 7b3f d5f5 213d
00000090: 6d58 6b3f 69c6 8f3f db4a 9c3f f899 a83f
000000a0: b70a 983f beea 5b3e b3fc a83f ea7b 103f
000000b0: 58d5 e7bd e66f 813f dbd7 e93e 1f44 973f
000000c0: 940e a53f 594a 383f af1e 9fbe cadd 213f
000000d0: 7b7a 893f ecc2 a53f a927 af3f 3c2b 913f
000000e0: fa8c 8d3f 78a8 233e 3895 9f3f cc88 933f
000000f0: a8fd c53f 08e6 993f 4302 933f 7a24 a53f
1.3757514 -0.15712743 0.13676979 1.3691322 -0.37412268 0.30665132 0.7873637 0.5419942
1.2630432 0.6203517 1.2784451 1.1589215 1.3092908 1.3497638 -0.47687516 0.26284024
-0.9404738 1.3386602 0.6274543 -0.6614642 0.7585914 1.1077856 0.6898215 0.6416394
1.1855555 0.539732 0.9593368 1.2250956 0.88113075 0.3800824 1.0754862 0.9411432
1.2791303 1.2529935 0.98306024 0.039541084 0.919318 1.1232425 1.2210344 1.3171988
1.187827 0.21476266 1.3202118 0.5643908 -0.11319989 1.0112274 0.45672497 1.1817664
1.2895074 0.71988446 -0.31078097 0.6322905 1.0740503 1.295011 1.3683978 1.1341319
1.1058648 0.15982234 1.2467413 1.1526122 1.5468035 1.2023325 1.1485065 1.2901757

model.4.weight f4 [1, 64]
00000000: 8566 b740 df5e 93c1 210f 31c0 3347 9f40
00000010: 6d2d 893e 6e50 20c0 ec9d 7f40 36a8 4540
00000020: c6b9 0fc1 dc0e 2b40 d6f9 9a40 61ce fcc0
00000030: 8433 ecc0 ef01 9c40 e0a3 a7c1 644c 5fc0
00000040: 8b09 de3f e919 06c1 85b6 1a3f c9a1 5dbf
00000050: 50a1 26c1 4c47 96c0 a7fe 1d40 6c4a 44c0
00000060: ae52 15c1 34fa 1540 4284 11c1 b24a c2c0
00000070: 6782 ca40 219f 76c1 d2d0 0ac1 2011 9140
00000080: eb72 a940 2dba f6c0 8fcf 09c1 37da f2bf
00000090: fff0 25c1 725d 06c1 e921 f9c0 e141 29c0
000000a0: 26ba a340 7f99 bbc0 0327 9540 8b8e 903f
000000b0: 9bb5 3bbf 4bff a640 6708 803f 28d9 a240
000000c0: c087 eec0 fcc6 2340 673d a4c1 c428 5c40
000000d0: dcc2 a9c0 192d be40 e6af 9f40 025d b240
000000e0: 946f d0c0 aec6 d8c0 01e7 9940 df7e b240
000000f0: 4c57 4440 eb57 a840 ea94 6b40 6179 9240
5.7312646 -18.421324 -2.7665484 4.9774413 0.2679247 -2.504909 3.9940138 3.0883918
-8.982855 2.672782 4.8429976 -7.9001927 -7.3812885 4.875236 -20.955017 -3.4890375
1.7346662 -8.381326 0.6043475 -0.8657499 -10.414383 -4.696203 2.4686677 -3.0670424
-9.332685 2.3433962 -9.0947895 -6.071618 6.3284183 -15.41385 -8.6759815 4.5333405
5.295278 -7.7102265 -8.6131735 -1.8972844 -10.371337 -8.397814 -7.7853894 -2.644646
5.116473 -5.8624873 4.661012 1.1293501 -0.7332398 5.2186637 1.0002564 5.0890083
-7.454071 2.55902 -20.529982 3.4399881 -5.3050365 5.943005 4.990222 5.5738535
-6.5136204 -6.774253 4.8094487 5.577987 3.0678282 5.260732 3.680964 4.5773168
