app/models/disc_K3_deg1_-6_-9.pth (torch, 20470 bytes, 5 tensors)

model.0.weight f4 [64, 2]
000000 e3 83 fe 3d c1 89 24 3f 7c 46 85 3f ba 4f 2a bf
       0.12427499 0.64272696 1.0412135 -0.66527903
000010 31 8b 72 bf 86 25 c4 3e 6d ab 4c bd d3 17 4b bc
       -0.9474364 0.38309878 -0.049968172 -0.012395817
000020 c8 b7 23 bf 4c a9 b9 3d 91 c7 a1 3e 5a 32 64 be
       -0.639523 0.09065494 0.3159757 -0.22284833
000030 d9 97 56 be f5 c5 c6 3e 37 d9 95 be 75 64 b5 c0
       -0.20956363 0.38822904 -0.29267284 -5.668513
000040 cb 04 47 3f 33 11 9b be 4b f4 83 3e 5d 3f 1e c0
       0.7774169 -0.3028656 0.25772318 -2.4726174
000050 8d f8 91 be 82 f6 e9 3e 63 d7 23 bf c3 75 96 3e
       -0.28509942 0.45695883 -0.6400053 0.2938672
000060 4e 10 0c 3f 80 51 3d be eb d7 9a 3c 2f 83 8b be
       0.5471238 -0.18488121 0.018901786 -0.27248523
000070 b8 c6 aa be 94 5f fd 3e 64 73 0c bf dc c5 66 be
       -0.33354735 0.49486983 -0.5486357 -0.22536415
000080 48 76 4d 3d 7f 24 95 3d a3 68 93 3f d6 3f c8 3d
       0.05016163 0.07282352 1.1516308 0.09777801
000090 2c 9a e7 3e a2 87 53 3e 07 1f ed be 9f 66 85 bf
       0.4523481 0.20657209 -0.46312734 -1.0421942
0000a0 af 0a 2a bf cc f9 3d 3d f0 00 25 3f 08 e4 0f bf
       -0.6642255 0.046380803 0.64454556 -0.56207323
0000b0 b4 2a 5e bf c5 f0 4d c0 fe 13 65 be 37 27 ea bd
       -0.8678391 -3.2178204 -0.22370908 -0.11433261
0000c0 21 c7 1f bf 1e 4b 22 bf 6c be 72 be b6 bc 03 c0
       -0.6241322 -0.6339587 -0.23705453 -2.058393
0000d0 a2 11 12 bf dc fb bd be f6 d1 8d 3e 6a 3a 98 bf
       -0.57058156 -0.37106216 0.2769925 -1.1892827
0000e0 0e eb ef 3d f9 c7 3a 3e a9 c2 27 3f 30 25 f4 3e
       0.11714755 0.18240346 0.655314 0.47684622
0000f0 84 93 10 3f 42 ba 8a be 7a 53 ef 3e 25 b9 b5 be
       0.5647509 -0.27095228 0.46743375 -0.35492817
000100 2e 51 81 be e7 23 37 bf 7f c8 9c bd a2 05 2c bf
       -0.25257248 -0.7153916 -0.07655429 -0.67196095
000110 07 a0 30 3d 17 a7 d0 3e 4d 45 03 bf e2 a7 1a 3e
       0.043121364 0.4075248 -0.5127762 0.15103105
000120 b6 68 9a bd 32 4b 37 3f 24 f2 69 3f e4 20 88 3d
       -0.07539503 0.71599114 0.913851 0.066468984
000130 c0 0b 46 be 68 a9 6f bf af 80 d8 3f 68 d5 80 bf
       -0.1934042 -0.9361787 1.6914271 -1.0065126
000140 fe f7 25 3f 03 99 f6 3e df 70 aa 3e 30 9f aa 3e
       0.6483153 0.48163614 0.3328924 0.33324575
000150 97 51 28 bf 0d 2b 02 bf c4 dc 96 3e 5a 9e b5 3e
       -0.65749496 -0.5084694 0.29465306 0.35472375
000160 d2 99 08 40 9e 5b f3 be f1 d6 af be 88 a1 44 bf
       2.1343884 -0.47530836 -0.34343675 -0.7680898
000170 af 3f 68 be 50 3a 32 3e 36 60 0c bf 9d fc 82 be
       -0.22680543 0.17405057 -0.54834306 -0.25583354
000180 31 b6 d4 3e 76 ae 36 3d dc f1 bb 3e 9a f0 ba be
       0.4154525 0.044599973 0.36707962 -0.3651169
000190 db a7 10 bf a6 99 11 3f 32 22 21 bf b1 7b b7 3e
       -0.5650613 0.56875074 -0.629428 0.35836557
0001a0 c1 ee 39 3f d6 cb 0d bf 25 4c b6 be 09 d9 f8 bd
       0.72629935 -0.55389154 -0.3560497 -0.12150771
0001b0 a9 79 0e bf a2 5e e5 3e 62 4e 08 3f 46 16 b9 be
       -0.5565439 0.44798762 0.532446 -0.36149806
0001c0 70 06 83 3e d3 64 82 bf 54 27 b2 3e 6a 37 c4 bd
       0.2559085 -1.0187019 0.3479563 -0.09580882
0001d0 34 a3 9c be e1 b4 41 be 00 64 3f 3e 77 90 2e bf
       -0.30593264 -0.18916656 0.1869049 -0.68189186
0001e0 cc ef 81 3f f0 bc e7 bd 9a 0c 60 b9 b9 56 ff 3e
       1.0151305 -0.11315334 -0.00021366999 0.49870852
0001f0 0e e5 08 bf 7d be 0e 3f ea cc 31 3f dd d3 b8 3e
       -0.5347451 0.5575941 0.694533 0.3609914

model.0.bias f4 [64]
000000 98 c7 2b 3f f2 49 e3 3f ea a0 98 bf c1 a3 6b bf
       0.6710143 1.7756941 -1.1924107 -0.92046744
000010 00 01 13 bf 3d 79 a8 be 08 75 73 bf f2 45 7d 3f
       -0.574234 -0.32904997 -0.9510045 0.98934853
000020 3a 31 21 3f 25 c2 4e 40 b8 46 d5 bd 36 b5 1b bf
       0.6296574 3.2305996 -0.10413879 -0.6082338
000030 b3 6e ff be 4c ce a7 be 49 bc 36 bf d1 c2 98 bd
       -0.49889144 -0.3277458 -0.7138105 -0.07459033
000040 ca 74 0f 3f 28 eb 6f bd 2e a5 0a 3f 3b 53 1d c0
       0.5603758 -0.05857387 0.54158294 -2.458205
000050 be e9 05 3f 01 36 0d 3f 53 b8 a3 c0 df a6 36 bf
       0.5230979 0.5516053 -5.1162505 -0.71348375
000060 2c d4 36 3e 8c 68 9c 3f 29 6c 16 bf e9 48 1d 40
       0.17854375 1.2219405 -0.5875879 2.457575
000070 d3 08 c8 bd d7 35 e3 3e 31 8a d5 3e 7e 95 91 be
       -0.09767308 0.44377014 0.41706994 -0.28434366
000080 7f d7 ae be 5b 60 cb bc d1 4a 20 bf ef d6 6a 3e
       -0.34148785 -0.02482622 -0.6261416 0.22933553
000090 de 08 95 be 5a 38 9e be 5e 33 08 bf d3 b4 77 40
       -0.29108328 -0.30902368 -0.5320338 3.8704116
0000a0 93 e7 0e be 25 27 de 3e d1 4e 1e 3f 8a e7 3c bf
       -0.13955526 0.4338924 0.61839014 -0.737908
0000b0 8d ad 0a 40 a1 d8 f4 3e 84 f2 1e bf 08 2a e1 bd
       2.1668427 0.47821525 -0.620888 -0.10994345
0000c0 a6 4d 2f bf 51 6b 97 bd d0 47 c5 3d 4f 3c b3 bd
       -0.6847786 -0.07393516 0.09632838 -0.08751737
0000d0 65 bf 57 3f 8c ae 53 bf b6 c5 a2 3e 41 f9 91 3e
       0.8427642 -0.8268821 0.31791466 0.28510478
0000e0 fa de c3 3f 93 0d 32 3f d3 cd 39 bf 65 30 2d 3e
       1.5302422 0.6955196 -0.7257969 0.16912992
0000f0 35 65 c6 3e 57 10 1f 3f 98 5a fa 3e 00 68 0c bf
       0.3874909 0.6213431 0.48897243 -0.5484619

model.2.weight f4 [64, 64]
000000 31 59 97 3d 97 15 6a bc 54 28 1b bb d0 a7 d7 bc
       0.07390059 -0.014287374 -0.002367516 -0.026325136
000010 7c 94 c4 bd 5a ac 07 be 4b c4 c5 bc 55 e8 50 3e
       -0.09598634 -0.1324934 -0.024141451 0.20401128
000020 13 90 1e 3d d9 0d 6f 3d 00 9f 7a bc 76 64 0b be
       0.03871162 0.058362816 -0.015296698 -0.13612542
000030 c3 50 94 3b 37 6e 3a 3e 3b b2 32 be 08 ec 22 be
       0.004526229 0.18206106 -0.17450802 -0.15910351
000040 c2 8f 27 bd 30 87 cc 3b 5a 5e 1c be ac d8 aa 3c
       -0.040908583 0.0062417015 -0.15270367 0.02085527
000050 c8 b8 e0 3c 9b ca 1b 3d 0d b8 3a 3e 35 de 1c bd
       0.02743186 0.038035017 0.18234272 -0.03829785
000060 95 51 4a 3d a3 9c 0a 3e f0 33 c8 bd 01 6c e0 3c
       0.04939421 0.13536315 -0.09775531 0.02739525
000070 5c f4 cd bb 43 e8 57 3d 9e e3 f1 3c 21 14 ea 3d
       -0.0062852334 0.052711736 0.029527482 0.114296205
000080 f1 cc 0b 3d 0a 0d 16 3e bb bd f2 bd eb b1 8a 3d
       0.034130994 0.14653412 -0.118525945 0.067722164
000090 84 69 19 be d3 35 9e bd e0 00 27 bd 9a ba 47 3e
       -0.14981657 -0.0772511 -0.04077232 0.19504777
0000a0 73 22 d0 bc 1c 8d ee bd eb 09 d7 3c 96 65 36 3d
       -0.025407052 -0.11648008 0.026249846 0.044530474
0000b0 cb 34 f8 bc 51 dc c9 bd 2b f3 a9 3a dd 50 65 3d
       -0.030298611 -0.09856475 0.0012966146 0.05598532
0000c0 07 36 be ba 6a 09 9a 3d 08 05 ff bd 9e 0b b2 3c
       -0.0014511951 0.07521327 -0.124521315 0.021734055
0000d0 e6 ff 04 bd 98 cf 19 be 5f 95 87 3c 7d b2 a6 bd
       -0.032470606 -0.15020597 0.016550718 -0.08139513
0000e0 c8 72 7d 3d 27 3c 3b bd 5a 18 97 bd 0d 23 b5 bd
       0.061877042 -0.045711663 -0.073776916 -0.08844576
0000f0 54 8b be bd b2 f2 30 bd 0a 70 24 bd 67 b7 a0 3d
       -0.093039185 -0.043200202 -0.04014591 0.07847481
000100 2c 07 02 be 39 f9 29 bd d7 8f 87 bd a8 1a c1 bd
       -0.12698048 -0.041497443 -0.06619232 -0.094289124
000110 f6 d3 a1 3d 9c b9 56 bd b0 66 20 bd 46 ac 07 3d
       0.079017565 -0.052423105 -0.03916043 0.033123277
000120 f6 a0 68 3d a9 4b 8f bd f8 ab c5 3d 2d 7b 2f 3b
       0.05679413 -0.06996853 0.09651941 0.00267763
000130 49 47 0f 3e 98 2e 96 3d f4 06 4f bb 19 b0 b6 bc
       0.13992037 0.07333106 -0.0031589838 -0.022300767
000140 39 a6 d3 3d 43 59 0e bd ce b0 b0 3d 69 64 bf bd
       0.10334439 -0.034753095 0.08627473 -0.093453236
000150 42 10 88 bc e7 ce ce bc ce 3c 02 be 0c f9 45 bc
       -0.016609315 -0.025245143 -0.12718508 -0.012083303
000160 c4 84 ce bb 33 94 80 bc 11 56 18 bd bb ef 15 bd
       -0.006302448 -0.015695667 -0.037191454 -0.036605578
000170 ac 37 90 bd aa bf d1 3c 55 07 82 bd e4 ad 8f 3c
       -0.070418686 0.025604088 -0.06349055 0.017538972
000180 12 63 65 bd c5 0a a5 bc db 2a 3e bd a1 25 cc 3c
       -0.056002684 -0.020146737 -0.04642759 0.024920287
000190 c0 a8 93 3a c4 2e 00 be 4b cd bc 3d 03 99 2f bd
       0.0011265501 -0.1251784 0.09218844 -0.042870533
0001a0 cd f8 8e 3d 27 87 7a 3d 24 04 4f 3d ac da 56 bd
       0.06981049 0.061164048 0.05054106 -0.052454636
0001b0 7e 6b 83 3d 85 09 db bc 4b 60 4d 3d 4d 1c eb bd
       0.06416987 -0.026737938 0.05014066 -0.11480007
0001c0 7a 1c 2c bb 96 c8 15 3e f7 95 04 be 4b 32 03 be
       -0.002626209 0.14627299 -0.12947832 -0.12812154
0001d0 10 91 8a bc bf ae 1b bc dc 5a b6 3d 7d 79 99 bc
       -0.016914874 -0.009502112 0.08904049 -0.018734688
0001e0 35 fb fc 3d b7 75 86 3d b4 b0 8b bd 67 d2 75 bd
       0.123526014 0.06565421 -0.06820813 -0.06001511
0001f0 e7 07 75 bd 40 8a cd bd 0d 30 96 39 91 6e 6a 3d
       -0.05982199 -0.10036135 0.0002864603 0.05723435
000200 4e 7e 24 ba a7 c3 ab be f7 a7 96 be e8 df ac 3c
       -0.00062749244 -0.33547708 -0.29425022 0.02110286
000210 dd 5c 83 be ae 88 57 be 47 19 cd 3d 3a 28 88 3d
       -0.25656787 -0.21048233 0.10014587 0.066482976
000220 4e c2 6b be 68 76 14 be 34 9f 18 be 36 11 53 be
       -0.2302334 -0.14498293 -0.14904481 -0.20612034
000230 1a 3b 24 be 19 a8 bf 3d ce 5a ce bd 81 b1 45 be
       -0.1603817 0.09358234 -0.10075913 -0.19305994
000240 21 9e 00 be fc 38 2d be 1c c7 c1 ba b1 d6 aa 3d
       -0.12560321 -0.16916269 -0.0014784071 0.083417304
000250 ad 33 93 be 76 73 3c bd 31 cb 5f 3e 8f 51 48 bc
       -0.28750363 -0.04600855 0.21854855 -0.012226476
000260 b4 cd 33 3d d9 74 1d be 7f 4a ce bd f4 25 3b bc
       0.043897346 -0.15376605 -0.10072803 -0.011422623
000270 ac ac 99 bd e8 75 64 bd 9a 40 8c bd 49 d7 99 bd
       -0.07503638 -0.055776507 -0.06848259 -0.075117655
000280 22 34 6d bd 02 9a 5e 3d c4 36 21 3c c6 fe 2e be
       -0.057911046 0.054346092 0.009839717 -0.17089376
000290 1f e2 00 be 6d da 7c bd 91 18 11 3e 15 ec 6c be
       -0.12586258 -0.061731745 0.14169528 -0.23136933
0002a0 fa 22 c6 bd da c7 29 3d b6 91 7a bc 4a 9a 32 3d
       -0.0967464 0.04145036 -0.015293529 0.043604173
0002b0 e5 c8 e1 be 17 da 0d 3d b2 c6 33 bd 50 03 2e bc
       -0.44098583 0.034631815 -0.043890662 -0.010620907
0002c0 59 8e 9c 3d 6e a8 0e 3e a1 26 04 3d ba 65 30 be
       0.07644338 0.13931438 0.032263402 -0.17226306
0002d0 15 ea 58 be f9 98 ed bc 5a 8d 2e be ab 8c 82 bc
       -0.21183045 -0.029003607 -0.17046109 -0.015936216
0002e0 b5 a1 7b be 95 df 5d bd 29 4c ed 3c dc ed 86 3d
       -0.24573405 -0.054168303 0.02896698 0.06588337
0002f0 ce 99 18 be 71 f1 c6 bc 1a 71 e0 3c 5b 9a df 3a
       -0.14902422 -0.02428505 0.027397681 0.0017059551
000300 84 20 94 3d 1b 16 1e be cf d8 71 bd f9 c7 46 bc
       0.07232764 -0.1543812 -0.059044655 -0.012132638
000310 20 74 64 bd 23 0d 16 be 8d 81 e9 bd ce a3 ee 3c
       -0.055774808 -0.14653449 -0.11401663 0.029130843
000320 11 92 11 be 68 83 b7 bd a3 79 a7 3d d2 26 bd 3d
       -0.14215876 -0.08960611 0.08177497 0.0923592
000330 0e d1 97 ba a9 07 33 be c5 77 11 bc 22 33 8b 3d
       -0.0011582689 -0.17483391 -0.008878653 0.06796862
000340 be 65 af bd 24 e2 1b bd 85 55 9b 3d cd a7 2e 3e
       -0.08564328 -0.03805746 0.07584671 0.17056198
000350 73 ca 98 3d 38 1e ae bd bc e7 ae 3e d8 8f ea bd
       0.07460489 -0.085018575 0.34161174 -0.11453217
000360 70 b7 34 3d 94 10 cd 3e 50 59 4a 3d 71 c0 15 3e
       0.044120252 0.4005171 0.04940158 0.14624192
000370 7a ef 80 3b b5 7d 6e b9 26 eb 79 bd ed ca af bd
       0.003934798 -0.00022744278 -0.06101527 -0.08583627
000380 c0 6c 4f bc 1f 3f 5d bd d3 71 f2 3d 37 dc 39 3c
       -0.012660205 -0.054015275 0.118381165 0.011344007
000390 aa 69 ed 3d d2 73 82 bd fb 21 74 3e 73 81 a0 bb
       0.115924194 -0.06369747 0.23841088 -0.004898244
0003a0 04 c1 a2 3d 38 c7 bf bd 0f 0c bd bd 89 dc 9f ba
       0.07946971 -0.0936417 -0.092308156 -0.0012196462
0003b0 7a de b3 be 1b 07 aa bd f4 4e 77 bc b2 a7 ac 3d
       -0.35130674 -0.083021365 -0.0150945075 0.08430423
0003c0 b1 a9 ec bd a8 39 e0 3b 27 e4 d1 3c f1 d7 80 3d
       -0.115558036 0.0068428107 0.025621487 0.062911876
0003d0 0c 93 a0 3d a0 c5 d9 bd 3b 3e 50 bd 83 4c 04 3d
       0.07840547 -0.10633397 -0.050840598 0.03229953
0003e0 43 9a 34 3d ce 7b 39 3d 41 e4 f9 3d 5f 13 d9 bd
       0.044092428 0.045284085 0.12201739 -0.10599398
0003f0 4a 53 00 be 89 b9 0b bd c9 c5 19 3d f2 c3 24 3d
       -0.12531772 -0.034112487 0.03754214 0.04022593

model.2.bias f4 [64]
000000 dc 44 8e 3d e1 99 fe 3b 56 2c 2d 3c f9 05 8a 3d
       0.06946728 0.0077698086 0.010569653 0.067394204
000010 bf 1f 2f bd 31 18 5b 3e 56 c2 a6 bd 86 03 b0 3c
       -0.042754885 0.21395947 -0.081425354 0.021486055
000020 ec dd 3f bc 83 c2 92 bd 83 df 17 3c 3c a8 5f 3b
       -0.011710625 -0.071660064 0.009269598 0.0034127375
000030 fa d3 01 3b 81 bd 3b bf a0 62 3a bd de d1 34 bd
       0.0019810186 -0.73336035 -0.045504212 -0.044145457
000040 8e e2 89 bd d9 8f ad bd 94 8e 14 bd ce 07 8c be
       -0.06732665 -0.084747024 -0.036268786 -0.27349705
000050 7f eb 81 3d 91 6a 5c 3d 04 9b fb bc 30 b9 1d be
       0.063437454 0.053812567 -0.030713566 -0.15402675
000060 82 47 59 3e 4b 2d cb 3c 34 ef b7 3b 7d 92 d3 3d
       0.21218684 0.02480187 0.005613232 0.10330675
000070 aa d8 1e 3f c2 48 4d 3d c6 57 ef 3d d6 ee 02 be
       0.62049353 0.050118215 0.11686663 -0.12786421
000080 45 3b c1 3c f8 fd fd 3d b5 5d ca bc 8f d7 04 be
       0.023587832 0.12401956 -0.024702886 -0.12972854
000090 06 77 84 bc 55 f2 7c bd 51 78 19 bd 1c 38 15 bd
       -0.016170036 -0.061754543 -0.03746826 -0.036430463
0000a0 8e 98 3f bd 4a 38 3a 3e 30 8e 1b 3f 70 eb fe bc
       -0.046776347 0.18185535 0.60763836 -0.031118125
0000b0 64 ec a8 bd 87 60 c9 bc 9e a9 84 bc ea 6b ab be
       -0.08248213 -0.02458216 -0.016194161 -0.3348077
0000c0 b6 40 18 3f 69 09 a6 3d a7 b4 d3 bd 84 c1 15 3e
       0.5947374 0.081072636 -0.10337191 0.14624602
0000d0 eb 22 f2 3b 41 2b d3 be 90 e9 3e 3c a5 92 88 bd
       0.0073894165 -0.41243938 0.011652365 -0.06668595
0000e0 ca f1 71 3d 4a 53 bb 3c 7b b7 0d be 45 9f 5d 3d
       0.05906848 0.022866864 -0.13839523 0.05410697
0000f0 5e 96 a0 bc 83 e7 0c 3e a3 22 93 3d 7c c7 9b bd
       -0.01960295 0.1376019 0.07184341 -0.07606408

model.4.weight f4 [1, 64]
000000 df 23 30 3d 70 49 49 ba 41 05 37 be 4b e0 53 3d
       0.04300296 -0.00076784845 -0.17873098 0.051727574
000010 df 71 6a bc bd 3c c4 be 67 a7 79 be fc 27 1d 3d
       -0.014309376 -0.3832759 -0.24380265 0.03836821
000020 96 5b 6a bb 06 b2 6f bd a5 a1 04 3e 88 79 88 3d
       -0.0035760156 -0.058519386 0.12952287 0.06663805
000030 f2 4a 8d 3d 51 9c 36 3f ea 7f 96 3d 41 48 a3 bd
       0.0689906 0.7133227 0.073486164 -0.07972766
000040 f3 e4 33 be bc 7c d0 3c 34 17 0a 3e fb 98 ef bd
       -0.17567806 0.025450103 0.13485414 -0.116991006
000050 e7 21 82 3d 09 3b 6a 3d ec 71 f6 bd 30 84 df bd
       0.063541226 0.057185207 -0.120334476 -0.10913885
000060 62 27 88 3e 0c 9d 0a 3e 72 5e 8a 3c a5 8b e9 3e
       0.26592547 0.13536471 0.016890738 0.45614353
000070 c4 2e df be f6 73 8e bd 94 df e0 3c 76 62 07 bc
       -0.43590367 -0.069557115 0.02745036 -0.008263221
000080 a6 0c e7 3a af 1e 9c 3e 40 28 d6 3d b0 27 42 bc
       0.0017627671 0.3049216 0.10456896 -0.011850283
000090 91 eb 84 bd 64 b3 b7 3c 71 56 63 3d 01 a7 aa bb
       -0.06490243 0.022424407 0.05550236 -0.0052078967
0000a0 d1 8a 52 be 9c c7 94 be f4 3b 8b be 56 59 34 bd
       -0.20560767 -0.2905854 -0.27194178 -0.04403051
0000b0 35 37 38 3d c0 62 e7 3c 8f 6e ad bd bc 67 b2 bd
       0.044974525 0.02824533 -0.08468353 -0.08711192
0000c0 5f 29 af be 0b e6 cf bd a6 bd 0d bf a0 b7 d5 3d
       -0.3421125 -0.10151299 -0.55367506 0.10435414
0000d0 ff 5b 1e bf d0 64 8c 3e 26 21 2f 3d 41 49 01 3e
       -0.61859125 0.27420664 0.042756222 0.126256
0000e0 b4 8c 93 3d 0a c4 b9 bd 2c ce da 3c 6d 49 67 3d
       0.07204571 -0.090705946 0.026709639 0.05646651
0000f0 31 ef e0 bc 4b 78 8d 3d aa 79 ca bd da b4 1d 3d
       -0.027457805 0.0690771 -0.09886487 0.03850255
