app/models/disc_K3_deg1_-8_-12.pth (torch, 20480 bytes, 5 tensors)

model.0.weight f4 [64, 2]
0	0x3fbe1322	1.4849589
1	0xbe8e5566	-0.2779953
2	0xbf4203e1	-0.7578717
3	0xbefead88	-0.4974177
4	0xbf09c18c	-0.53810954
5	0x3ec40d2b	0.38291296
6	0xbfd572a5	-1.6675612
7	0x3f1198ce	0.56873786
8	0x3f6228fa	0.88343775
9	0xbf0b7edb	-0.5449044
10	0x3f874613	1.056826
11	0xbf11b3cc	-0.56914973
12	0x3f07b1cb	0.53005666
13	0xbed0ff38	-0.40819716
14	0xbd33ef6d	-0.043929506
15	0xbf5b6a60	-0.8570919
16	0x3f8751ab	1.0571798
17	0xbf164c38	-0.5871005
18	0x3e80e182	0.2517205
19	0xbed0c745	-0.4077703
20	0xbf0b16f7	-0.54331917
21	0xbf39226e	-0.7231816
22	0xbeaad160	-0.33362865
23	0x3ed20cf5	0.4102551
24	0x3f59fd59	0.851522
25	0xbf1c251e	-0.60994136
26	0xbf1ab634	-0.6043427
27	0x3ebcd850	0.36883783
28	0xbe90c382	-0.2827416
29	0x3f18f9d4	0.5975621
30	0xbe396819	-0.18106116
31	0xbf8c96de	-1.0983541
32	0xbf23aa8e	-0.6393212
33	0x3edbcc85	0.42929474
34	0x3f3b585e	0.7318171
35	0x3e43bf1b	0.1911587
36	0x3fc7327b	1.556228
37	0x3d899dab	0.06719526
38	0xbefeb58d	-0.49747887
39	0x3de84574	0.11341372
40	0x3f49d51a	0.7884079
41	0x3ec8de42	0.3923207
42	0x3f2cf909	0.675675
43	0xbf047eb1	-0.51755816
44	0xbf4ea3bc	-0.8071859
45	0x3efaa5c8	0.48954606
46	0x3eab2816	0.3342902
47	0xbed4e0be	-0.41577715
48	0xbf15f91d	-0.5858324
49	0x3d719c21	0.058986787
50	0xbeb74032	-0.35791165
51	0xbf1995fd	-0.5999449
52	0xbdd28150	-0.10278571
53	0x3f3427fe	0.70373523
54	0xbf2dc998	-0.6788573
55	0xbf005d43	-0.50142306
56	0xbeb6a1fa	-0.35670453
57	0x3e22e12a	0.15906206
58	0x3ee2952d	0.44254437
59	0xbf12cc59	-0.5734306
60	0x3f5a45ba	0.85262644
61	0xbea1ccfe	-0.3160171
62	0x3ebb45d2	0.36576706
63	0xbe44c9ac	-0.19217557
64	0xbec3146a	-0.38101512
65	0x3e980d51	0.2969766
66	0xbece019c	-0.40235603
67	0x3ec53cd1	0.38522962
68	0xbdfb04b7	-0.12256759
69	0xbf569160	-0.83815575
70	0x3f4b1a10	0.79336643
71	0xbf39ed40	-0.7262764
72	0x3f463a12	0.7743236
73	0xbf2e22e3	-0.6802198
74	0xbf2ebaea	-0.6825396
75	0xbdf33abe	-0.118764386
76	0xbdc52f8d	-0.0962821
77	0x3e7c4a66	0.24637756
78	0x3f31135e	0.69170177
79	0xbef6ba13	-0.48188838
80	0x3e6c1bf9	0.23057546
81	0x3f1d6cac	0.61493945
82	0x3fcc5537	1.5963506
83	0x3ca60a9c	0.02026873
84	0x3ef67a3a	0.48140126
85	0xbe122ca8	-0.14274848
86	0x3f380a55	0.71890765
87	0xbe813227	-0.25233576
88	0x3ec9e4f8	0.39432502
89	0xbe68308e	-0.22674772
90	0x3f21e2b8	0.6323657
91	0xbe6a5d3c	-0.22887129
92	0xbee7f0cb	-0.45300898
93	0xbe57a110	-0.21057534
94	0xbf492491	-0.7857142
95	0x3e1f4f94	0.155577
96	0xbf20acbc	-0.6276357
97	0x3eaad201	0.33363345
98	0x3f7f66b1	0.9976607
99	0xbead86b3	-0.3389183
100	0xbf139a0d	-0.5765694
101	0xbf367b49	-0.7128187
102	0x3f38d049	0.7219282
103	0xbead0dd2	-0.33799607
104	0x3e56698e	0.20938703
105	0x3ee6e47a	0.4509619
106	0x3ed4422d	0.41456738
107	0xbeda4fe9	-0.42639092
108	0x3f17b6c4	0.59263253
109	0xbee35dea	-0.44407588
110	0xbda92ba1	-0.08260275
111	0xbf09ed0b	-0.53877324
112	0xbf27a0cf	-0.6547975
113	0x3f159dd3	0.58443946
114	0xbdf31a24	-0.1187022
115	0x3e8b0d45	0.2715856
116	0xbf35a9e5	-0.70962363
117	0x3e89405c	0.26806915
118	0xbf27810d	-0.6543129
119	0x3ee81825	0.4533092
120	0xbe18bbd8	-0.14915407
121	0xbf3b2f4a	-0.7311903
122	0xbf088dc8	-0.5334134
123	0xbe96b6cf	-0.29436347
124	0xbe89a660	-0.26884747
125	0x3e340ba8	0.17582572
126	0xbebd1712	-0.36931664
127	0x3efd7a7a	0.49507505

model.0.bias f4 [64]
0	0x40020329	2.0314429
1	0xbe9303bd	-0.2871379
2	0xbedf96bf	-0.43669698
3	0xc0700e8f	-3.7508886
4	0x400c9349	2.1964896
5	0x4043167e	3.0482478
6	0x3f69a9fc	0.91275
7	0x3f9b57be	1.2136152
8	0x40300444	2.7502604
9	0x3e7a5031	0.24444653
10	0xbeb28f56	-0.34874982
11	0xbf22c150	-0.6357622
12	0x401e9c52	2.478291
13	0x3de539e7	0.111926846
14	0xbeeabee5	-0.45848766
15	0x3f868a85	1.0511023
16	0xbfa929ab	-1.3215841
17	0x3fa61a15	1.297671
18	0x3f36a7ad	0.713496
19	0xbdd749cf	-0.10512125
20	0xbf0a423c	-0.54007316
21	0x3fd4a999	1.6614257
22	0xbff4924a	-1.9107144
23	0x3f14fdd3	0.58199805
24	0x3d63f236	0.055650912
25	0xbf2a2068	-0.664557
26	0x3dbee3b7	0.09320777
27	0x3e23d0b0	0.15997577
28	0x3ec0db07	0.37667105
29	0x3fc37acd	1.5271851
30	0x3f659f12	0.8969585
31	0xbee9264d	-0.45537034
32	0xbf2d6471	-0.67731386
33	0x3f462b27	0.77409595
34	0x3f8a3998	1.0798826
35	0x4041fb5c	3.0309668
36	0x402c9c53	2.6970413
37	0xbcac7bfa	-0.02105521
38	0xbf0a9589	-0.5413442
39	0x3fc1b72e	1.5134027
40	0x3e57fa0d	0.2109148
41	0x3fa561d8	1.2920485
42	0xbf0d9245	-0.55301315
43	0x3eed467d	0.4634284
44	0xbe7e345c	-0.24824661
45	0x3ea7c8e4	0.32770455
46	0x3eef45d0	0.4673295
47	0xbeacdc7c	-0.33761966
48	0x3e3bb262	0.18329766
49	0x3fab1ef0	1.3368816
50	0xbf107f3f	-0.5644416
51	0x3f716720	0.9429798
52	0x3e2c1160	0.16803503
53	0x3f44fee0	0.7695141
54	0x3f98e69d	1.1945378
55	0x3e33541e	0.17512557
56	0x3f4d6bd9	0.8024269
57	0xbf1b7136	-0.6071962
58	0xbf610e4e	-0.8791245
59	0xbfb62ba3	-1.4232067
60	0x3ef94deb	0.4869226
61	0x3f4a8b5f	0.79118913
62	0x3f4e4a27	0.805819
63	0x3fd2f447	1.6480798

model.2.weight f4 [64, 64]
0	0xbf0dd209	-0.55398613
1	0x3dfaf542	0.122538105
2	0xbe314926	-0.1731306
3	0xbf794fe0	-0.97387505
4	0xbf1b9e8e	-0.6078881
5	0xbfcb66f4	-1.5890794
6	0xbe97cde1	-0.2964926
7	0xbd9a5011	-0.07534803
8	0xbf5cb164	-0.86208177
9	0x3e3035b4	0.17207986
10	0xbdbdbc5e	-0.09264444
11	0xbaf73b66	-0.0018862307
12	0xbec84d87	-0.3912165
13	0xbe175052	-0.14776734
14	0xbd499793	-0.049216818
15	0x3e0c4b13	0.13700514
16	0xbe054055	-0.13012822
17	0x3cf09f41	0.029372813
18	0xbe756cb5	-0.2396725
19	0xbe8c81b9	-0.2744272
20	0xbc6c1449	-0.014409133
21	0xbd0207f9	-0.031745885
22	0xbeb73337	-0.3578126
23	0xbe3a564b	-0.1819698
24	0xbdca7a02	-0.098865524
25	0x3cffd2e6	0.031228494
26	0xbc33892a	-0.010957995
27	0xbd503f3b	-0.05084155
28	0xbcf1b304	-0.029504307
29	0x3de58fd9	0.112090774
30	0xbe75229c	-0.23938984
31	0xbdc17e26	-0.09447889
32	0xbe5e9ec7	-0.21740256
33	0xbdc81fbb	-0.09771677
34	0x3d9fc886	0.07801919
35	0xbf37e552	-0.7183429
36	0xbf520ad0	-0.8204775
37	0xbd494aaa	-0.04914347
38	0xbdb07a6d	-0.08617101
39	0xbec56ac8	-0.3855803
40	0x3d72c2f0	0.059267938
41	0xbf015867	-0.50525516
42	0xbd00deeb	-0.03146259
43	0xbdba5b6a	-0.09099467
44	0x3dbeb87d	0.09312532
45	0x3c12ad5e	0.008952467
46	0xbe7d2c02	-0.24723819
47	0xbe657f72	-0.22411898
48	0xbe46665e	-0.19374987
49	0xbea81695	-0.3282973
50	0x3d810dbd	0.063014485
51	0xbec57cec	-0.3857187
52	0x3d8ab0ca	0.06772001
53	0x3e31185a	0.17294446
54	0x3e09ccfb	0.134571
55	0xbde25114	-0.11050621
56	0x3d0eea56	0.03489145
57	0x3d95413a	0.072878316
58	0xbe34adc1	-0.17644407
59	0xbe77b6f3	-0.24190883
60	0xbdd74b14	-0.10512367
61	0xbe093260	-0.13398123
62	0xbe5466f7	-0.20742403
63	0xbd63928c	-0.05555968
64	0xbcd956f6	-0.026530724
65	0x3d8046aa	0.06263478
66	0x3de0d9c3	0.10979035
67	0x3dc69925	0.09697179
68	0xbc2482ed	-0.010040981
69	0xbdcce514	-0.10004631
70	0x3c8fa342	0.017533902
71	0xbd527bec	-0.051387712
72	0xbdafe166	-0.08587913
73	0xbbfc64ab	-0.0077024302
74	0xbca409a4	-0.020024128
75	0xbd63e3ca	-0.05563716
76	0xbe0c38e4	-0.13693577
77	0x3df86432	0.12128486
78	0x3da0370d	0.07823
79	0xbcd46452	-0.025926743
80	0x3d8a9f1e	0.067686304
81	0x3df738c6	0.120713755
82	0x3bcfc7bb	0.0063409484
83	0xbc28338c	-0.010266196
84	0xbd4245a8	-0.04742971
85	0x3bbd2145	0.0057717883
86	0xbd006ee1	-0.031355742
87	0x3df58920	0.11989045
88	0xbd360d9b	-0.04444657
89	0xbdb2671d	-0.087110735
90	0xbdd404a3	-0.10352447
91	0x3d02df19	0.031951044
92	0x3ccbb8b9	0.024868356
93	0xbdd18ff4	-0.10232535
94	0xbd2b41e5	-0.04181089
95	0xbd92fc7f	-0.07177066
96	0xbd462943	-0.048379194
97	0xbc182584	-0.009286288
98	0xbd867771	-0.065657504
99	0x3d1f1578	0.038838834
100	0xbc24f5e0	-0.010068387
101	0x3dbacc30	0.09120977
102	0xbdfeb9d6	-0.12437789
103	0xbdba1a14	-0.09087005
104	0x3dd2f53d	0.10300682
105	0xbddfb623	-0.10923412
106	0xbdb259f4	-0.087085634
107	0xbd26538b	-0.040607017
108	0x3d207b96	0.03918036
109	0xbd495fb7	-0.049163546
110	0xbce50eee	-0.02796122
111	0xbe16cfc7	-0.14727698
112	0x3d6192ab	0.055071514
113	0x3cb5b5b9	0.022181379
114	0xbd87e0bd	-0.06634662
115	0xbdd703f0	-0.10498798
116	0xbdb72cfb	-0.08944126
117	0xbde57f06	-0.112058684
118	0xbd7d49f2	-0.061838098
119	0x3ded6923	0.11592319
120	0x3bdcf4f2	0.006743067
121	0x3c9c3437	0.019067867
122	0xbdfadaf8	-0.12248796
123	0x3c80aaa1	0.015706362
124	0xbde31f30	-0.11089933
125	0x3ddafba2	0.106925264
126	0x3dcdde38	0.100521505
127	0xbc6470cb	-0.013942908
128	0xbda3cf5f	-0.07998537
129	0xbe46bde2	-0.19408372
130	0xbde76411	-0.11298383
131	0xbd8db2e7	-0.069188885
132	0xbdefb83d	-0.117050625
133	0xbe401e76	-0.1876162
134	0x3ba9fee1	0.0051878546
135	0xbd406564	-0.046971694
136	0xbdf619bb	-0.120166264
137	0xbc4dde8a	-0.0125652645
138	0xbd08dd03	-0.0334139
139	0x3da2d126	0.07950048
140	0xbd89daf4	-0.06731215
141	0xbe16ce89	-0.14727224
142	0xbce5f8a4	-0.028072663
143	0xbda3bec0	-0.07995367
144	0xbda8c937	-0.08241504
145	0xbdc6af7e	-0.09701441
146	0x3d9c0d73	0.07619753
147	0xbd4c2f98	-0.049850076
148	0x3ddb5d8f	0.10711204
149	0xbd15a4cd	-0.03653412
150	0xbda3b35c	-0.079931945
151	0x3d8f53ae	0.069983825
152	0xbd6dfb47	-0.058100965
153	0xbbdfc7a9	-0.0068292213
154	0xbdab8fff	-0.083770745
155	0xbd4a452c	-0.049382374
156	0xbcaafbc2	-0.020872
157	0x3ce766f9	0.028247343
158	0xbd57773d	-0.05260395
159	0x3d94c6ce	0.072644815
160	0x395f9421	0.0002132212
161	0x3d22b2de	0.039721362
162	0xbe1e4f76	-0.1546
163	0xbd8fa924	-0.07014683
164	0xbe8e6a76	-0.27815598
165	0xbcd2a4b7	-0.025713308
166	0x3d260896	0.040535532
167	0xbdc8e42f	-0.098091476
168	0x3ddd2a90	0.10799134
169	0xbdb8ff6b	-0.09033092
170	0x3e082ebc	0.13299078
171	0xbdec5025	-0.11538724
172	0xbc933f91	-0.017974647
173	0x3d093524	0.033497944
174	0x3caa974d	0.020824099
175	0xbd7adc09	-0.061244998
176	0xbdeec437	-0.11658519
177	0xbe3feca7	-0.1874262
178	0xbe5069a4	-0.20352799
179	0xbd35a1a9	-0.044343624
180	0x3c168b71	0.009188519
181	0xbcd96946	-0.026539456
182	0x3e2e370b	0.17013185
183	0x3bfa52b1	0.007639252
184	0xbe0ef844	-0.13961893
185	0x3dd39601	0.10331345
186	0x3d3bc3e6	0.04584112
187	0xbc46680d	-0.012109769
188	0xbdb2567c	-0.08707902
189	0x3c4383d1	0.011933283
190	0x3d2a9b0d	0.041651774
191	0xbd52dc7c	-0.0514798
192	0xbd654b36	-0.05597993
193	0x3d0f2800	0.034950256
194	0xbe165622	-0.14681295
195	0xbf553f40	-0.83299637
196	0xbe673375	-0.22578223
197	0xbec04d37	-0.3755891
198	0xbe5e4525	-0.21706064
199	0xbc6d5ae9	-0.014487007
200	0xbd45e609	-0.04831508
201	0xbd818d88	-0.06325823
202	0x3dd05425	0.10172299
203	0xbe358653	-0.17727022
204	0xbe44efae	-0.19232056
205	0xbe43d959	-0.1912588
206	0xbd4fb375	-0.050708253
207	0x3e335fac	0.17516965
208	0xbec713bd	-0.38882247
209	0xbcfcabf2	-0.030843709
210	0xbd9b4e05	-0.075832404
211	0xbeb7e332	-0.35915524
212	0xbdeb81fb	-0.11499401
213	0xbe9fba71	-0.3119693
214	0xbf24a20c	-0.64309764
215	0xbdec438a	-0.115363196
216	0xbec9ca8d	-0.39412346
217	0xbd827801	-0.06370545
218	0x3da65a50	0.081226945
219	0x3be9a28c	0.007129973
220	0xbdacce1b	-0.08437749
221	0xbea64a22	-0.32478434
222	0xbd4bd63e	-0.049764864
223	0xbe0a6fb2	-0.13519171
224	0xbea01f7b	-0.31274018
225	0xbdc7b552	-0.09751381
226	0x3d9a0005	0.07519535
227	0xbf97477d	-1.1818691
228	0xbeac087b	-0.3360022
229	0xbe341802	-0.17587283
230	0xbe702b90	-0.23454118
231	0xbe0637c7	-0.13107215
232	0x3e3061c8	0.172248
233	0xbe2c10fa	-0.16803351
234	0xbd9c07c7	-0.07618671
235	0xbe3ab15f	-0.18231724
236	0xbdda5356	-0.10660426
237	0xbdccbc3d	-0.09996841
238	0xbeaeca7a	-0.34138852
239	0xbeba7caf	-0.3642325
240	0xbdf66f71	-0.120329745
241	0xbd870ca8	-0.06594211
242	0x3c589949	0.01322014
243	0xbd820113	-0.06347861
244	0x3e45153f	0.19246386
245	0xbe3deb50	-0.18546796
246	0xbe02b3a7	-0.12763844
247	0xbd9d1387	-0.0766974
248	0xbd034409	-0.032047305
249	0xbe44bd0d	-0.19212742
250	0xbe6556b4	-0.22396356
251	0xbea04975	-0.31306043
252	0x3e389e23	0.18029074
253	0xbe93158b	-0.28727373
254	0x3dc9d790	0.098555684
255	0x3df39f40	0.11895609

model.2.bias f4 [64]
0	0xbe42e5f0	-0.19033027
1	0x3d7d220f	0.06180006
2	0xbe0917ba	-0.13387957
3	0x3e181295	0.14850838
4	0x3d05a9da	0.032632686
5	0x3e00c0c8	0.1257354
6	0xbcf04dae	-0.029333916
7	0x3d00792d	0.031365562
8	0x3e106779	0.14101972
9	0xbd8f42ae	-0.0699514
10	0xbb58bda5	-0.0033072021
11	0x3d96d9d3	0.073657654
12	0x3a7536f3	0.00093541964
13	0x3dcbafe0	0.09945655
14	0xbc6fd495	-0.014638086
15	0x3d998779	0.074965425
16	0x3e869668	0.26286626
17	0x3efcff6a	0.49413615
18	0xbdaaf387	-0.083472304
19	0x3d691e32	0.056913562
20	0xbe480ebb	-0.19536869
21	0xbd9f8ae3	-0.077901624
22	0xbe12f2ec	-0.1435048
23	0x3d9576b9	0.07298035
24	0x3f2147b7	0.63000053
25	0xbe058aad	-0.13041182
26	0x3ed83ce0	0.42233944
27	0xbeb10913	-0.34577236
28	0x3f34c538	0.7061343
29	0xbbe75dcb	-0.0070607415
30	0x3e1b66f6	0.15175995
31	0xbc5dd957	-0.013540587
32	0xbc967235	-0.018365005
33	0xbe1fb622	-0.15596822
34	0x3acee42c	0.0015784553
35	0x3d67c063	0.05657996
36	0xbc11cc9f	-0.008898883
37	0x3ea83e40	0.32859993
38	0x3e349abe	0.17637154
39	0x3e0567db	0.13027899
40	0x3cab4468	0.020906642
41	0xbd45da63	-0.048303973
42	0xbd089539	-0.033345435
43	0x3d51fbf3	0.051265668
44	0xbb819fa1	-0.003955797
45	0x3e2fc8e9	0.17166485
46	0xbd88f132	-0.06686629
47	0xbd290046	-0.041260026
48	0x3e7f76ed	0.2494771
49	0x3df7daf0	0.12102306
50	0x3bf20294	0.0073855612
51	0x3d60d3fa	0.054889657
52	0xbc6531a0	-0.013988882
53	0xbe11038f	-0.14161514
54	0xbd6afaa4	-0.057367936
55	0x3c309f5d	0.010780183
56	0xbdbf7e34	-0.09350243
57	0x3f14f6fc	0.5818937
58	0xbd4c03c1	-0.049808268
59	0x3e373d3f	0.17894457
60	0x3f229bac	0.63518786
61	0xbdbd48bb	-0.09242388
62	0x3e060f80	0.1309185
63	0xbd962ec2	-0.07333137

model.4.weight f4 [1, 64]
0	0xbeb284c8	-0.3486693
1	0x3d402c20	0.04691708
2	0xbcec4850	-0.028843075
3	0xbec4cfb1	-0.38439706
4	0xbe0bb93f	-0.13644885
5	0x3d8fca2e	0.070209846
6	0xbd98143b	-0.07425734
7	0x3d3d8f69	0.046279345
8	0xbe06cbfa	-0.13163748
9	0xbed13fa5	-0.4086887
10	0xbdc09a24	-0.094044
11	0xbced17c8	-0.028942004
12	0xbdace135	-0.08441392
13	0xbe235496	-0.15950236
14	0x3cb215fd	0.021739
15	0x3cde67ae	0.027149048
16	0x3f97311c	1.1811862
17	0x3f287e17	0.658174
18	0xbdceb429	-0.100929566
19	0xbd8a762f	-0.06760823
20	0xbf002751	-0.5005999
21	0xbddd0e90	-0.10793793
22	0xbd329186	-0.043595813
23	0x3d7b662f	0.061376747
24	0x3ef97fb9	0.48730257
25	0xbf2d69e6	-0.67739713
26	0xbf448f50	-0.7678118
27	0xbf234452	-0.63776124
28	0xbf481bea	-0.78167593
29	0xbe8dbdf5	-0.27683988
30	0x3e79b1b7	0.24384199
31	0xbf30325d	-0.6882685
32	0x3dcae18d	0.09906302
33	0xbe0a5106	-0.1350747
34	0xbe799e78	-0.24376857
35	0x3c153d06	0.009108787
36	0x3d954f1b	0.07290479
37	0x3f080736	0.53136003
38	0x3e3b5ba8	0.18296683
39	0x3d4efc8e	0.050533824
40	0x3dbc9997	0.092089824
41	0xbd5bb512	-0.05363948
42	0xbdfa0d84	-0.12209609
43	0xbbea1d5e	-0.007144614
44	0x3e08baba	0.1335248
45	0x3de15da5	0.110041894
46	0xbd7c47cb	-0.061591905
47	0x3dc982d1	0.098394044
48	0x3e9b1f98	0.30297542
49	0x3d035183	0.032060158
50	0xbe0b1675	-0.13582785
51	0xbdc3d4ab	-0.095620476
52	0x3d88ca44	0.06679204
53	0xbd6fb1ff	-0.05851936
54	0xbce44ad8	-0.02786772
55	0xbcb665b0	-0.022265285
56	0x3aa483ab	0.0012551447
57	0xbf929eda	-1.1454728
58	0xbebd0ee8	-0.36925435
59	0x3ec5942d	0.38589612
60	0xbeae8972	-0.34089237
61	0xbe1db000	-0.1539917
62	0x3ded7aad	0.11595664
63	0x3cc58efb	0.02411603
