app/models/disc_K3_deg1_-2_15.pth (torch, 20470 bytes, 5 tensors)

model.0.weight f4 [64, 2]
-1.0704107 -29.695333 0.8851537 -0.6402445 0.2750377 -15.225151 -1.9137955 7.2014394
0.8949225 -2.3640783 -0.6805956 15.595882 -1.003492 15.009859 -0.09218482 -23.664747
1.1855282 -0.47219098 0.3776162 -2.4078338 -1.0300499 -14.677742 -1.7348517 -9.551418
1.0496342 -1.5233829 0.81034434 1.5692333 0.35445508 -7.477634 -0.8371669 10.211115
1.2465303 0.32203066 -1.1029277 -29.727097 1.911825 2.974786 -0.40379646 6.0432253
-1.8759601 -9.516487 0.22989362 -11.950419 0.6822912 1.7178853 0.44403875 -8.902659
-0.7747318 11.54731 -0.94688094 7.666101 -0.22854829 -23.555855 0.8587933 -0.33977175
-0.5047297 15.61898 0.38611203 -3.078717 -0.72264224 8.135895 1.1069925 5.2165823
-1.8767776 -0.3840774 -1.2144233 -29.52053 0.71380585 3.5589128 -2.1093132 9.047781
-2.366686 -8.920774 -1.8494635 -4.450056 -0.7012574 10.679785 0.5868819 1.5856218
0.4031958 1.194774 -0.7857099 -27.319365 -1.029177 12.409618 1.2483149 -1.7343156
-2.176964 -10.974975 1.0206604 -1.7555549 -0.5931274 5.4914665 0.55955976 4.285176
-0.6810883 12.215855 0.3176392 -4.349376 0.08965211 -12.503761 1.1930065 0.8474627
-1.0859672 12.269338 -1.8351631 4.3259373 -0.95099217 15.436175 1.8899844 5.719438
-1.9724883 4.237354 -1.9153821 -9.082388 0.7474356 -0.48842657 -0.7395544 9.356585
-2.305287 7.4393682 0.9516601 2.2359626 -0.7697555 16.628956 -1.8795409 9.561243
00000000: 3803 89bf 0b90 edc1 6f99 623f 10e7 23bf
00000010: bed1 8c3e 389a 73c1 40f7 f4bf 3172 e640
00000020: a419 653f 0f4d 17c0 833b 2ebf bc88 7941
00000030: 6d72 80bf 6228 7041 65cb bcbd 6751 bdc1
00000040: 63bf 973f 04c3 f1be e956 c13e f319 1ac0
00000050: add8 83bf 08d8 6ac1 9f0f debf 9cd2 18c1
00000060: 6a5a 863f 36fe c2bf ba72 4f3f a3dc c83f
00000070: 237b b53e c748 efc0 9250 56bf ba60 2341
00000080: 4e8e 9f3f 34e1 a43e bc2c 8dbf 18d1 edc1
00000090: aeb6 f43f e562 3e40 69be cebe 1a62 c140
000000a0: 761f f0bf 8843 18c1 3c69 6b3e eb34 3fc1
000000b0: a3aa 2e3f aae3 db3f 0c59 e33e 4b71 0ec1
000000c0: d354 46bf c8c1 3841 ca66 72bf b350 f540
000000d0: 9008 6abe 6472 bcc1 e1d9 5b3f 90f6 adbe
000000e0: f735 01bf 58e7 7941 7ab0 c53e b309 45c0
000000f0: 15ff 38bf a02c 0241 eeb1 8d3f 3eee a640
00000100: 403a f0bf cba5 c4be 3972 9bbf 0c2a ecc1
00000110: fbbb 363f 3ac5 6340 fdfe 06c0 b6c3 1041
00000120: c977 17c0 7ebb 0ec1 38bb ecbf dc66 8ec0
00000130: 9b85 33bf 66e0 2a41 e43d 163f a8f5 ca3f
00000140: ae6f ce3e 5bee 983f 4924 49bf 0f8e dac1
00000150: 12bc 83bf cc8d 4641 c8c8 9f3f 0efe ddbf
00000160: 6153 0bc0 7f99 2fc1 00a5 823f 06b6 e0bf
00000170: 33d7 17bf 18ba af40 4f3f 0f3f 2920 8940
00000180: ce5b 2ebf 2474 4341 9ba1 a23e 172e 8bc0
00000190: 879b b73d 680f 48c1 70b4 983f 51f3 583f
000001a0: f900 8bbf 354f 4441 a0e6 eabf 146e 8a40
000001b0: 3974 73bf 93fa 7641 02eb f13f a305 b740
000001c0: 7f7a fcbf 6798 8740 3e2b f5bf 7651 11c1
000001d0: f157 3f3f 0c13 fabe 7053 3dbf 92b4 1541
000001e0: d289 13c0 4e0f ee40 ff9f 733f 031a 0f40
000001f0: b20e 45bf 1a08 8541 cc94 f0bf dafa 1841

model.0.bias f4 [64]
2.6238613 2.6196299 8.720422 -10.956221 3.7737582 -7.461218 -9.669228 9.667463
4.1219583 1.0130899 8.4634495 6.0960565 4.0041547 1.2210423 2.7252743 -6.989653
4.2360163 2.4461062 6.9642234 -3.1416867 4.234823 2.842126 4.25244 3.9502273
-7.2608724 -6.756285 7.4137177 1.9064627 -5.8070855 1.415482 -5.915926 6.87874
-3.5585656 1.9674559 3.9918835 -12.598992 4.9802213 3.883006 -6.5293646 3.3640172
1.5493174 4.933253 -9.004271 5.8562746 9.351302 4.4650307 -3.9351234 2.4470103
-6.84782 1.4974629 4.9609947 3.7490568 -9.409393 -9.382608 -9.551283 2.7767742
-8.937116 6.534425 9.240469 -6.5643916 -12.78855 1.3200113 -8.450517 -11.769108
00000000: 58ed 2740 04a8 2740 d986 0b41 ae4c 2fc1
00000010: 4185 7140 4cc2 eec0 28b5 1ac1 eead 1a41
00000020: 15e7 8340 eeac 813f 4a6a 0741 e512 c340
00000030: 0922 8040 1d4b 9c3f e56a 2e40 3dab dfc0
00000040: 728d 8740 018d 1c40 ebda de40 6511 49c0
00000050: ac83 8740 64e5 3540 fd13 8840 86d0 7c40
00000060: 1159 e8c0 7d33 d8c0 2d3d ed40 f806 f43f
00000070: a5d3 b9c0 842e b53f 444f bdc0 a31e dc40
00000080: 8abf 63c0 98d5 fb3f 057b 7f40 7995 49c1
00000090: f95d 9f40 2c83 7840 8ef0 d0c0 0f4c 5740
000000a0: 0850 c63f 35dd 9d40 7e11 10c1 9a66 bb40
000000b0: ef9e 1541 88e1 8e40 10d9 7bc0 d19b 1c40
000000c0: 5721 dbc0 ddac bf3f 78c0 9e40 8cf0 6f40
000000d0: e08c 16c1 2a1f 16c1 0ed2 18c1 abb6 3140
000000e0: 6dfe 0ec1 021a d140 f6d8 1341 7f0f d2c0
000000f0: e79d 4cc1 21f6 a83f 5135 07c1 444e 3cc1

model.2.weight f4 [64, 64]
2.4263122 -1.843596 -14.4348755 -22.729246 -9.153028 2.524685 2.3613553 -15.367927
-5.4277887 -0.82233906 -2.4075606 -0.41243187 -10.3696375 -1.6235932 1.5964384 1.7597984
-4.7484097 1.7664285 -9.25778 1.2561069 -0.14451551 5.1665955 -1.9884585 1.2413995
2.2486615 -1.445451 -4.3985624 -0.39180687 1.9466908 -1.0525042 1.1371893 -0.89160764
1.119765 -0.38845453 -1.3315843 -16.56023 0.25388002 0.32509476 2.295882 -2.5107644
-7.7120833 1.6291332 -1.2416556 -28.778214 -0.59011626 -18.935392 1.2166152 0.5901411
1.3432964 -0.3411388 -14.131835 -5.034464 -2.5715559 -19.282541 2.2968562 0.49179152
1.7634586 -0.3154118 -0.799477 -0.8542276 -27.934313 -0.586398 2.997368 -13.565799
2.7997031 -8.272552 0.60927415 -0.8423602 -0.58090764 -8.118038 -1.0585148 1.5291712
-1.0192474 -0.19843845 1.1210179 0.06624518 -0.6140512 -0.941357 -0.35087073 -0.62428546
-1.0685647 2.7778344 0.05292718 -1.3668861 -0.048632126 1.795258 0.51179785 0.46918818
-2.3513973 -0.24126616 1.9887788 -3.3274314 -6.67423 -0.2807518 -0.61494213 0.52803135
-1.0407453 2.9795563 0.7750678 -0.9912314 -0.30760795 -0.6204731 -4.138107 0.570708
2.0264502 2.237604 0.66574115 -0.12683792 -0.27521017 -0.42654282 -0.99724096 0.69920087
-11.798067 -0.5841841 3.1297567 -0.5504724 1.6766506 -0.33855984 -1.7495099 -0.7121901
-1.4096355 -0.115437694 -0.617193 -1.0221596 -0.16841424 -0.64948916 -7.395058 -1.3900353
-0.2548183 -0.4866195 -7.3726735 0.00744832 -0.48215663 0.3449605 0.09786137 -3.228088
-0.20650811 -0.63506067 -1.73414 -0.6472663 -0.22346352 -0.8606478 1.5607022 0.007161883
-0.27701974 -2.007149 -0.86832476 0.31433257 -0.66390157 2.4253347 0.254726 1.0766588
-0.009653075 -0.4521502 -2.1635592 -0.35896963 0.08187304 0.0172702 -0.27307987 0.42792535
-0.006030633 -0.72180504 0.5375144 0.051131353 0.2735012 0.40715083 -0.010137036 -0.14546359
-0.76538926 -2.7052228 -0.47792238 0.5267471 -0.062436424 0.16812597 0.24836932 0.8666392
0.2018345 0.45196396 3.1821501 -0.44356596 -0.7668615 0.09609966 -0.00010958115 -1.2096462
0.28271663 -0.02855557 0.6233987 -0.47083965 0.011256463 -0.9746997 0.057674874 -0.36454016
4.0634017 0.07923365 -0.9107906 -0.22351703 -1.7659844 -0.011991524 -0.24220759 0.67334676
0.29249927 -0.11705586 0.16901526 -0.5520523 -0.021834165 0.4107622 -6.22784 -0.5355082
0.32616132 3.7456348 -0.028654857 -0.6172682 -0.44002065 0.42617252 -0.27062547 -3.6980445
0.19159146 -0.13771921 0.12481128 0.3050478 -0.026386727 -1.8607429 0.6222305 -0.101336055
-0.35022062 3.960013 -0.11239542 -0.31223825 -0.80969757 -0.9040139 0.18298423 -0.032153428
0.29598674 2.4206572 0.19142194 -0.28250712 -1.0020359 0.27329186 -0.84559685 0.019206164
0.28002846 -2.6474974 -0.26838872 0.24708183 0.11689129 1.5100282 -0.04137708 0.22180371
-1.8322983 -0.76574844 -0.7087976 0.25697866 -0.017776668 0.2313859 0.20082188 0.064159706
00000000: b348 1b40 f4fa ebbf 40f5 66c1 7fd5 b5c1
00000010: cd72 12c1 7094 2140 7220 1740 07e3 75c1
00000020: 72b0 adc0 d084 52bf 7915 1ac0 452a d3be
00000030: 09ea 25c1 e7d1 cfbf 1858 cc3f 1341 e13f
00000040: f9f2 97c0 541a e23f de1f 14c1 1cc8 a03f
00000050: e0fb 13be c054 a540 cf85 febf 2ee6 9e3f
00000060: 12ea 0f40 8a04 b9bf 06c1 8cc0 e99a c8be
00000070: 2a2d f93f 75b8 86bf 6b8f 913f 6640 64bf
00000080: 7654 8f3f 83e3 c6be 5b71 aabf 5a7b 84c1
00000090: 90fc 813e d272 a63e bbef 1240 5db0 20c0
000000a0: 63c9 f6c0 7087 d03f 92ee 9ebf c839 e6c1
000000b0: dc11 17bf af7b 97c1 0cba 9b3f 7d13 173f
000000c0: 23f1 ab3f bfa9 aebe ff1b 62c1 541a a1c0
000000d0: 5f94 24c0 a542 9ac1 b1ff 1240 19cc fb3e
000000e0: 03b9 e13f a87d a1be 86aa 4cbf a9ae 5abf
000000f0: 7979 dfc1 2e1e 16bf e1d4 3f40 830d 59c1
00000100: 562e 3340 5f5c 04c1 64f9 1b3f eba4 57bf
00000110: 5db6 14bf 7ce3 01c1 6a7d 87bf e2bb c33f
00000120: b376 82bf 7333 4bbe 847d 8f3f 8eab 873d
00000130: 7632 1dbf c6fc 70bf 54a5 b3be 2cd1 1fbf
00000140: bac6 88bf 0ac8 3140 2cca 583d 20f6 aebf
00000150: 7b32 47bd 04cb e53f 2f05 033f 6f39 f03e
00000160: 4b7d 16c0 7a0e 77be 4e90 fe3f a3f4 54c0
00000170: 4b93 d5c0 b3be 8fbe d96c 1dbf 102d 073f
00000180: 2437 85bf 0db1 3e40 d86a 463f 57c1 7dbf
00000190: ca7e 9dbe 53d7 1ebf 5f6b 84c0 eb19 123f
000001a0: 5cb1 0140 e734 0f40 036e 2a3f cde1 01be
000001b0: 59e8 8cbe d263 dabe 2f4b 7fbf d4fe 323f
000001c0: e2c4 3cc1 178d 15bf ef4d 4840 c2eb 0cbf
000001d0: 7d9c d63f b757 adbe f1ef dfbf 1752 36bf
000001e0: f06e b4bf 996a ecbd 5c00 1ebf 20d6 82bf
000001f0: c874 2cbe ec44 26bf 51a4 ecc0 adec b1bf
00000200: 8b77 82be 3126 f9be f1ec ebc0 0911 f43b
00000210: 3cdd f6be aa9e b03e 8b6b c83d fe98 4ec0
00000220: dd76 53be 5693 22bf 4df8 ddbf 3fb3 25bf
00000230: 9fd3 64be 6a53 5cbf 17c5 c73f 3bae ea3b
00000240: 88d5 8dbe 2175 00c0 884a 5ebf 33f0 a03e
00000250: 74f5 29bf af38 1b40 726b 823e f5cf 893f
00000260: ee27 1ebc 3b80 e7be c177 0ac0 deca b7be
00000270: 0dad a73d 3c7a 8d3c 20d1 8bbe 0819 db3e
00000280: 9e9c c5bb 37c8 38bf 8b9a 093f 1c6f 513d
00000290: 5908 8c3e 1376 d03e d015 26bc 68f4 14be
000002a0: 8df0 43bf 5f22 2dc0 3eb2 f4be e6d8 063f
000002b0: 56bd 7fbd 3729 2c3e 8754 7e3e 11dc 5d3f
000002c0: b4ad 4e3e d267 e73e 59a8 4b40 141b e3be
000002d0: 0951 44bf e6cf c43d efce e5b8 b0d5 9abf
000002e0: 3cc0 903e 5fed e9bc 0f97 1f3f e511 f1be
000002f0: 076d 383c eb85 79bf 7d3c 6c3d 02a5 babe
00000300: 6307 8240 4045 a23d 9329 69bf a6e1 64be
00000310: c70b e2bf 1978 44bc 4405 78be 7460 2c3f
00000320: 77c2 953e fcba efbd 5612 2d3e 4d53 0dbf
00000330: 90dd b2bc 6c4f d23e 774a c7c0 1117 09bf
00000340: 9efe a63e 7bb8 6f40 97bd eabc 4a05 1ebf
00000350: 634a e1be 4933 da3e 6c8f 8abe c3ac 6cc0
00000360: 8d30 443e 4406 0dbe 0e9d ff3d 3a2f 9c3e
00000370: fa28 d8bc d32c eebf 804a 1f3f 4789 cfbd
00000380: 1e50 b3be da70 7d40 922f e6bd b1dd 9fbe
00000390: 5748 4fbf 746d 67bf 3860 3b3e 50b3 03bd
000003a0: 938b 973e 0cec 1a40 1d04 443e c6a4 90be
000003b0: b642 80bf e9ec 8b3e 0979 58bf 3f56 9d3c
000003c0: e45f 8f3e 9970 29c0 3f6a 89be 0503 7d3e
000003d0: b364 ef3d 9b48 c13f 037b 29bd 8320 633e
000003e0: c088 eabf 1708 44bf c273 35bf b592 833e
000003f0: 60a0 91bc 6df0 6c3e 40a4 4d3e 2a66 833d

model.2.bias f4 [64]
-0.17113459 -0.4473163 0.28498214 -1.2281332 0.084652245 0.30405936 0.37768525 -0.8853936
0.17189467 -0.10707499 1.5198445 0.69089216 0.027999362 0.2863351 0.1787046 0.22592716
0.570458 0.2338934 -0.91623306 -0.23561157 0.7191019 0.48317263 -0.3525254 -0.89441466
0.4016871 -1.5259053 -0.062036928 -2.107619 1.7646993 0.08330869 -0.82930297 -0.04291379
0.66567534 -0.18896565 1.0989372 -0.10769316 0.5229642 1.7163804 0.39411888 0.6700407
0.078495815 1.013691 0.31795147 0.81352794 0.41842356 0.20726328 1.1120591 -1.2444048
1.1306164 0.77831966 0.319687 0.08300749 -0.07896879 0.41206285 -1.0327748 0.9743446
-0.11981593 2.0109236 0.14002657 -0.0941869 0.29554126 1.0428231 -0.2373578 0.1335803
00000000: e83d 2fbe a406 e5be 2ee9 913e 7833 9dbf
00000010: 285e ad3d abad 9b3e f65f c13e 28a9 62bf
00000020: 2805 303e 224a dbbd 448a c23f 4fde 303f
00000030: eb5e e53c 849a 923e 57fe 363e 7359 673e
00000040: 8909 123f c081 6f3e 408e 6abf 2944 71be
00000050: 1017 383f 6762 f73e 367e b4be 5cf8 64bf
00000060: eea9 cd3e dd50 c3bf 6f1a 7ebd 3be3 06c0
00000070: abe1 e13f bf9d aa3d 334d 54bf 5fc6 2fbd
00000080: b369 2a3f 3680 41be f9a9 8c3f 3b8e dcbd
00000090: fbe0 053f 5ab2 db3f f3c9 c93e ca87 2b3f
000000a0: 6ac2 a03d a0c0 813f 89ca a23e 5e43 503f
000000b0: 9d3b d63e d33c 543e f457 8e3f a848 9fbf
000000c0: 0ab8 903f f53f 473f 04ae a33e d5ff a93d
000000d0: 64ba a1bd e7f9 d23e f731 84bf a66e 793f
000000e0: 0e62 f5bd f9b2 0040 2063 0f3e 10e5 c0bd
000000f0: 2f51 973e 3a7b 853f ec0d 73be 46c9 083e

model.4.weight f4 [1, 64]
-25.252525 -3.6036353 -2.228851 -1.5577077 -16.185358 1.6948708 1.0794177 0.43563405
0.46480992 0.36640954 15.610698 -3.0021675 1.3960562 2.247248 -2.2533972 0.7276369
-2.6919384 -2.40805 0.18389416 -4.064861 4.650135 1.9991312 -27.736622 0.39268208
2.1190634 2.8755116 -2.845428 0.71569437 -10.608078 0.5967979 -4.0905523 -27.632397
-3.1474612 -26.653757 -7.3158326 -4.0935736 -1.5892295 12.0982065 -3.8139896 1.3572972
-16.576082 1.8220717 0.85039383 1.3137062 -2.6290634 -7.924992 2.5279858 3.4346867
-6.012291 -2.9104187 0.56398374 2.1348321 -6.581836 -3.5311866 2.851922 -3.5971768
-16.169382 -18.223246 -7.8711658 -2.8286564 -2.6308522 -4.294501 -2.1267402 1.8359952
00000000: 2c05 cac1 f6a1 66c0 7fa5 0ec0 f762 c7bf
00000010: 9d7b 81c1 87f1 d83f 5c2a 8a3f 6d0b df3e
00000020: 91fb ed3e 089a bb3e 6bc5 7941 8323 40c0
00000030: f8b1 b23f e9d2 0f40 a937 10c0 6946 3a3f
00000040: b848 2cc0 7e1d 1ac0 c04e 3c3e 5713 82c0
00000050: e8cd 9440 88e3 ff3f 9ae4 ddc1 a00d c93e
00000060: bc9e 0740 6208 3840 7e1b 36c0 bf37 373f
00000070: b0ba 29c1 bfc7 183f cee5 82c0 260f ddc1
00000080: 0170 49c0 e53a d5c1 4d1b eac0 8efe 82c0
00000090: df6b cbbf 4192 4141 6818 74c0 eabb ad3f
000000a0: d19b 84c1 a539 e93f 69b3 593f 8627 a83f
000000b0: 9342 28c0 8999 fdc0 85ca 2140 e8d1 5b40
000000c0: b064 c0c0 4d44 3ac0 3d61 103f 17a1 0840
000000d0: 679e d2c0 f6fe 61c0 e485 3640 2538 66c0
000000e0: e55a 81c1 35c9 91c1 97e0 fbc0 b508 35c0
000000f0: e25f 28c0 8d6c 89c0 831c 08c0 e401 eb3f
