app/models/disc_K3_deg1_-5_3.pth (torch, 20460 bytes, 5 tensors)

model.0.weight f4 [64, 2]
000000 51 11 9f be f3 e8 dc 3e 72 66 1a bf 22 b2 66 c0
       -0.310679 0.43146476 -0.6031257 -3.6046224
000010 6f 6b 96 3f c4 42 88 bf c9 37 1d 3f 7c b0 e9 bf
       1.1751536 -1.0645375 0.61413246 -1.8256984
000020 ce 55 86 be bb 5d 0e 3f 61 4a 30 3e 34 58 91 c0
       -0.2623734 0.5561177 0.17215873 -4.542017
000030 96 dc 24 be 66 78 82 3f 1f d8 bc 3f 23 8c 78 bd
       -0.16099772 1.0192993 1.4753455 -0.06068052
000040 3d 5a 6f 3e 85 2a 3a 3e 54 22 72 3f c3 e5 47 3f
       0.23374267 0.18180282 0.9458363 0.78084964
000050 ee 47 a9 3f 9f b2 fe be e0 21 22 3e a7 89 98 c0
       1.3225076 -0.49745652 0.15833235 -4.7668033
000060 a9 e0 83 bf 79 e7 19 3f a9 50 42 3e 0e d0 9a c0
       -1.0302936 0.60118824 0.18976082 -4.8378973
000070 b2 2d b4 bf a4 e2 24 3f cf 86 87 3e 23 ac 3a 3f
       -1.4076445 0.64408326 0.26470038 0.7291891
000080 f2 5a 76 bf 78 1e d0 be 8c 49 9e be 99 1f 88 3e
       -0.9623252 -0.40648246 -0.30915487 0.26586607
000090 12 0f 8e 3e 07 72 30 3f d9 3f 03 bf ad 19 53 3f
       0.27745873 0.6892399 -0.512693 0.82461053
0000a0 9b 4f 9d 3e d5 c5 45 3f f5 53 14 3e 05 8d 70 c0
       0.30724797 0.7725499 0.14485152 -3.7586071
0000b0 b1 12 6e 3e ab 96 5f 3f 9a db b4 3e a6 98 8a 3e
       0.23249318 0.87339276 0.35323793 0.27069587
0000c0 1c ce ee 3f 57 f8 bc 3b 81 2c b5 3e 3e 32 29 bf
       1.865665 0.005766909 0.35385516 -0.6609229
0000d0 d2 f8 54 3c c6 1b 62 40 1c 1e 51 bf b7 a8 ec 3e
       0.0129987765 3.5329452 -0.8168657 0.4622247
0000e0 95 74 5b 3e 57 5c 50 3f 94 ea 85 3e ba a0 ea 3e
       0.21431191 0.813909 0.2615553 0.4582575
0000f0 f9 a3 7f bf 9f 02 24 3f 86 c0 5a 3e 96 71 ac be
       -0.9985958 0.640665 0.21362504 -0.3368041
000100 f8 63 62 3e e0 c7 90 3f 04 87 af 3f 54 bf 47 bf
       0.22108448 1.1310997 1.3713078 -0.7802632
000110 53 df 16 3e 31 5a 7e c0 1a 27 a5 3e 9a 2b c0 bf
       0.14733629 -3.9742548 0.32256395 -1.5013306
000120 12 d6 81 3e bf e7 27 be 4a a4 a2 3e fd 4c d2 c0
       0.25358635 -0.16396998 0.31765968 -6.571898
000130 e2 1c 12 bf 4b 8c 99 bf b1 4d f7 be f4 90 9a c0
       -0.5707532 -1.1995939 -0.4830146 -4.8301945
000140 3a 8c b7 bf b4 72 a1 3e 4c 25 0c 3e 6c 21 3d c0
       -1.4339669 0.31532824 0.13686103 -2.955165
000150 21 99 8f 3e 16 aa bf 3e f1 99 5f 3e aa e2 84 3e
       0.28046516 0.37434453 0.21836068 0.2595418
000160 26 86 52 bf e3 94 1e 3f 2b c0 49 bf 80 6b 43 c0
       -0.82235944 0.61945933 -0.7880885 -3.0534363
000170 d2 96 70 3e 8e 26 82 c0 d1 c0 36 bf bd 07 b8 c0
       0.23495033 -4.0672064 -0.71387964 -5.7509446
000180 3a 1c aa 3e 0a f4 09 3f de 96 e7 3c 25 cc c3 3f
       0.3322466 0.53888 0.028270181 1.5296675
000190 bf 3d 1b 3f b9 bc 95 c0 18 dc 7e 3e 62 bd 40 3f
       0.6064109 -4.6792874 0.24888647 0.75288975
0001a0 94 97 21 3e 50 01 8d c0 65 05 32 3e d0 20 a0 c0
       0.15780479 -4.40641 0.1738487 -5.0040054
0001b0 00 aa 83 bf a7 70 31 bd 5c 46 c5 be cb b7 dc 3f
       -1.0286255 -0.043320324 -0.38530242 1.7243589
0001c0 b8 9a a7 bf da 25 d8 3e a9 67 8c bf b7 07 cc 3e
       -1.3094091 0.42216378 -1.0969135 0.39849636
0001d0 1c d4 37 bf dc aa fd bf b2 40 7d bf 3e b5 4b 3f
       -0.7180803 -1.9817767 -0.9892684 0.7957343
0001e0 86 9f 19 be be 8c 68 c1 e5 07 36 3f e4 3e 79 c0
       -0.1500226 -14.534361 0.71105796 -3.8944635
0001f0 f7 30 92 be 5f c9 c2 3f e1 b5 b1 3e 89 60 ee 3e
       -0.28552982 1.5217704 0.34709075 0.46558025

model.0.bias f4 [64]
000000 c9 ea df 3f ed 77 ab 3f 0c 71 70 bf 45 e3 b5 40
       1.7493526 1.3395973 -0.93922496 5.683993
000010 b7 f7 82 bf f1 3c 87 3f ec d5 05 bf c0 8f de bf
       -1.0231847 1.0565473 -0.52279544 -1.7387619
000020 bf 4d 61 bf 0f 97 b5 bd d3 58 db 3f 80 c6 01 40
       -0.88009256 -0.08866703 1.7136482 2.0277405
000030 a6 66 26 3f bf b8 89 3f 3a 8c 1f c0 69 82 bd bf
       0.6500038 1.0759505 -2.4929338 -1.4805423
000040 30 c4 78 bc f9 80 ec 3f 70 26 d0 bf c6 90 5c c0
       -0.0151834935 1.8476859 -1.626173 -3.4463363
000050 87 86 f9 bf dc 13 8f 3f ef bd 90 bf 98 0f a8 3f
       -1.949418 1.1177936 -1.1307963 1.3129759
000060 e4 47 cd 3e ce 7c a0 bf 35 97 ea bd 77 80 18 3f
       0.4009391 -1.2538087 -0.11454622 0.5957102
000070 ad df 0c bf ac cd a6 bf 55 d4 41 bf 5d 78 2d 3d
       -0.550288 -1.3031516 -0.7571462 0.042351115
000080 16 cf 81 bf fd e5 32 40 5a 42 9e 3f 8c 57 05 40
       -1.0141323 2.7952874 1.2363999 2.0834684
000090 ee 88 00 3f d8 2d 49 3f 60 cc 47 bf f5 a8 eb be
       0.5020894 0.78585577 -0.78046227 -0.4602734
0000a0 3a bb a0 bf a6 0f 0a 3f 1a 20 0e 3f f6 7f 3c bd
       -1.2557137 0.5393013 0.55517733 -0.04602047
0000b0 f2 6e 87 bf 61 83 23 c0 00 7b 24 40 e5 7d 09 c0
       -1.0580733 -2.5548937 2.5700073 -2.148309
0000c0 ac b5 7e 3f b0 5a c9 3f 15 f8 ea 40 e1 26 a8 bf
       0.9949596 1.5730801 7.3427835 -1.3136865
0000d0 55 37 8e 3f 72 ca 9f 3f 58 ac 19 bf 29 03 5f c0
       1.1110636 1.2483656 -0.600286 -3.4845679
0000e0 8a c6 da bf 6a 92 a5 bf d6 a0 3a c0 ff 5f b0 bc
       -1.7091839 -1.2935307 -2.9160666 -0.02153015
0000f0 61 d8 a9 40 55 49 ff 40 4b 8c 0d c0 c4 37 96 3f
       5.3076634 7.9777017 -2.2116878 1.1735768

model.2.weight f4 [64, 64]
000000 a3 f3 47 bb b0 a5 7f be 11 e1 3e be 94 d8 69 be
       -0.003051021 -0.24965549 -0.18640544 -0.22836524
000010 fb d5 a4 3c fb fa c7 be fa 96 8f bd 4e 01 0b bf
       0.020121565 -0.3905867 -0.07011218 -0.54298866
000020 36 00 de 39 e0 76 8e 3c 09 c9 64 bf 3e a8 89 bf
       0.00042343297 0.017390668 -0.89369255 -1.0754468
000030 c9 60 f6 3d 49 0c ac be a7 74 5c bf 30 0e 52 3c
       0.12030179 -0.33603123 -0.861155 0.012820765
000040 c0 8a aa 3e 15 95 49 3e 8d f5 1d 3d b0 af 25 c0
       0.33308983 0.19685777 0.038564254 -2.588848
000050 98 3c e7 bd 04 00 83 bf 97 59 7e bd 98 cb 78 3d
       -0.11290854 -1.023438 -0.06209716 0.060741037
000060 0e 90 df bf 05 ab 4c bf 92 24 ff bd ea e3 b8 bc
       -1.7465837 -0.79948455 -0.12458147 -0.022569615
000070 66 34 04 be 9d a2 57 3d 16 3a 0a be d3 31 4f be
       -0.12910613 0.052645314 -0.1349872 -0.2023385
000080 8b dd 8e 3d d6 46 09 c0 09 c9 a9 bf 75 1a df be
       0.0697585 -2.1449485 -1.3264476 -0.43574873
000090 d2 e4 eb bd 38 42 75 3e 7d 30 ef be b7 9c a7 be
       -0.115182534 0.23951042 -0.4671668 -0.3273675
0000a0 24 b7 36 bf 52 f4 6c bf 86 28 4b 3d 55 5f c4 bc
       -0.713732 -0.92560303 0.049599193 -0.02397124
0000b0 63 ab 0f be 95 77 08 be 8e d9 07 c0 d8 7e b5 be
       -0.14030223 -0.13326867 -2.1226535 -0.35448337
0000c0 90 63 de 3d 9e 6d 19 3d ac ef 6a c0 8b c7 52 3d
       0.10858834 0.037458055 -3.6708784 0.05145983
0000d0 31 98 d9 be 6d 54 87 be d5 3d 5c be e0 7b d8 be
       -0.42498925 -0.264316 -0.21507962 -0.4228201
0000e0 19 57 64 bf ef 0f 2f bf ea 94 65 be 24 2c 69 bd
       -0.891954 -0.6838369 -0.22420087 -0.05692686
0000f0 0b 00 ec 3c f4 e2 e5 be 15 0e a1 bd d5 66 c2 bd
       0.028808614 -0.44899714 -0.07864014 -0.0949227
000100 16 a1 42 3e cd ec dc 3e c9 a3 ae be eb d1 8e 3d
       0.19006762 0.43149415 -0.34109333 0.069736324
000110 4a d4 19 be ed 9d a0 bf 3e 66 b4 3d c9 26 9a be
       -0.15022388 -1.2548195 0.08808564 -0.30107716
000120 d3 ba b6 be 76 33 45 3d f9 dd a3 bc d8 48 02 bf
       -0.3568941 0.04814478 -0.020003306 -0.508924
000130 3c e4 d6 3d 22 5d a3 bf bb 53 18 be 1f 98 ae bc
       0.10492751 -1.2762797 -0.1487569 -0.021312771
000140 35 b7 ae 3e b4 d2 76 3e 93 84 05 3d d2 8a f6 be
       0.3412415 0.24103814 0.032597136 -0.48152786
000150 15 5d 8d b9 40 90 e4 be fb 37 92 3c 77 8b eb 3d
       -0.00026962967 -0.44641304 0.01784896 0.1150121
000160 9a 0e f8 bd 6b 3b 0e bf 65 30 cf 3c 5b 3e 8d 3d
       -0.1211216 -0.55559415 0.025291631 0.06896659
000170 21 85 bc bc ea da 74 3d a4 9b 83 3d 62 7a c7 be
       -0.0230127 0.059779085 0.064261705 -0.38960558
000180 7e b4 ba bd be e3 10 3e 67 4a 19 bf df 0d e1 be
       -0.091164574 0.14149377 -0.59879154 -0.43955895
000190 97 ff 15 be 4b cc 2c bf e6 54 f3 bd 68 57 51 bf
       -0.14648281 -0.67499226 -0.118814275 -0.81773996
0001a0 bb 01 0f be 04 bb 1e bf 23 44 86 3d 4f 16 67 3d
       -0.13965504 -0.62004113 0.06555965 0.05641776
0001b0 eb fc 83 3d fe a8 08 c0 ae 16 35 3f 6b bf 0d c0
       0.06444725 -2.1353145 0.7073773 -2.2148082
0001c0 02 1f a3 3d 9f 4d 39 3e f4 af 29 be a5 74 c3 bd
       0.07964899 0.18096016 -0.16571027 -0.095437326
0001d0 8b bb 9b bf 66 68 97 bf 9f dc 39 3e 49 84 a7 be
       -1.2166609 -1.1828735 0.18150567 -0.32718113
0001e0 e7 b4 bd bd b0 8f 10 be 0e 58 2c c0 2b 14 03 3e
       -0.0926302 -0.14117312 -2.6928744 0.12800662
0001f0 5d 38 88 3d c9 7d a4 be 73 35 30 be f4 ee cc 3d
       0.066513754 -0.32127216 -0.1720789 0.10006514
000200 77 dd 79 bd 26 5d 63 3f ad 8b c2 3d 92 7d e1 bd
       -0.06100222 0.8881401 0.09499297 -0.11010279
000210 f7 33 27 be d2 cc 45 40 66 29 1c bf e6 e5 6d be
       -0.16328417 3.0906262 -0.6100067 -0.2323223
000220 c2 05 3b bf ac 56 f5 bd 90 27 fc 3c 0b fa a0 3f
       -0.7305566 -0.11979422 0.030780584 1.2576307
000230 c9 5e 44 3d f1 0a 4f 40 dd ae 3a be 67 f6 9a bf
       0.047941957 3.2350428 -0.18230768 -1.2106446
000240 14 f8 d1 be d7 32 8d be 62 ca df bf 96 0f f0 bd
       -0.4100958 -0.2757785 -1.7483637 -0.11721723
000250 8c 65 d6 bf b1 38 a7 3f 46 7e a0 bf b7 55 a5 be
       -1.674974 1.3064176 -1.2538536 -0.32291958
000260 6b 8a 39 be 01 82 14 be 71 95 eb bf e0 66 16 3d
       -0.18119209 -0.14502718 -1.8404981 0.036719203
000270 5d 61 55 bf 16 7c 79 bf 07 14 02 be af 1b 2f be
       -0.8335169 -0.97454965 -0.12702952 -0.17100404
000280 c8 6c a2 bf 77 21 7d bd 76 a2 c0 3f a6 1e ba 3c
       -1.2689447 -0.061799493 1.5049579 0.022719692
000290 79 45 9e be 97 a8 91 40 0a 80 2f 3f 9f bd 0c 40
       -0.30912378 4.55183 0.6855475 2.1990736
0002a0 44 9b ce bd b3 c6 99 3f 25 0e eb be 73 6a 2a bf
       -0.10088208 1.2013763 -0.4590923 -0.6656868
0002b0 45 9c f5 bd 97 80 b3 3f 95 72 6e 3f 47 c5 34 40
       -0.11992697 1.4023618 0.9314359 2.8245409
0002c0 35 ef da be 40 ef 67 be 90 a1 0c bb 41 67 b4 bf
       -0.42760625 -0.2264986 -0.0021458603 -1.409401
0002d0 d4 b7 31 40 0b 03 42 40 60 08 8e be 05 e5 7f bf
       2.776845 3.0314357 -0.27740765 -0.9995883
0002e0 aa c1 08 bd 2b 78 27 be c5 38 5d 3f af ed 64 bd
       -0.033387817 -0.16354434 0.8641475 -0.055890735
0002f0 2c 36 a9 c1 67 dd 12 be d2 ba 9b bf fa 06 8f be
       -21.151451 -0.14342271 -1.2166388 -0.2793501
000300 f8 6e 40 bd f2 d5 79 3f 25 30 3f bd 99 6c 40 c0
       -0.046980828 0.9759208 -0.046676774 -3.0066283
000310 fb 97 bf be e7 3e 54 bf 90 c0 23 bf 26 69 5f 3d
       -0.3742064 -0.8290848 -0.639657 0.054543637
000320 7d 0b da be 3e 65 ee 3d a6 9f 12 be 58 91 31 c0
       -0.4258689 0.11640404 -0.14318714 -2.774496
000330 64 8c 85 be 6d 3a 46 bf 8e 98 08 bf d6 1d e2 3c
       -0.26083672 -0.774329 -0.5335778 0.027602118
000340 d7 2a a0 3e dc df 5d bc 59 23 2b 3d 85 89 52 bf
       0.31282684 -0.013542142 0.041781757 -0.8224109
000350 68 89 74 3d 5e 0f e4 bf 8c f5 b4 3d 1f f2 af bd
       0.059701353 -1.781719 0.08835897 -0.08591103
000360 56 dd f9 3c cf 0a 3e bf 06 b3 a9 be 53 46 24 be
       0.030501049 -0.7423524 -0.33144397 -0.16042452
000370 7c 38 f1 bc 3d a6 64 bd f5 4c 71 be a5 39 1a bf
       -0.02944588 -0.0558226 -0.23564513 -0.6024421
000380 23 d4 14 be c7 33 0e be 20 6b 02 c0 61 c9 cf bf
       -0.14534049 -0.13886939 -2.0377884 -1.6233331
000390 38 19 bf be e9 4d d4 3f 04 c4 72 3e 6e d2 05 40
       -0.37323928 1.6586276 0.23707587 2.0909686
0003a0 d1 e4 0e bd af 25 b7 bf 85 fe 12 be be 16 11 be
       -0.034886185 -1.4308375 -0.14354904 -0.14168832
0003b0 68 cc a4 be 3e 61 96 3f 9e a5 4e c0 52 34 14 40
       -0.321872 1.1748426 -3.2288585 2.3156934
0003c0 4b 03 85 be f1 20 15 3e 1c 77 d0 c0 ac b5 72 3b
       -0.25979075 0.14563347 -6.5145397 0.0037034554
0003d0 ca fa a7 bf 2a cb 4b bf 67 cb 99 3c b3 5c b7 bf
       -1.312341 -0.7960688 0.018773748 -1.4325165
0003e0 bc b6 57 be 0e cc 9f be 3d aa 3d 3f 5d 72 c2 be
       -0.21065801 -0.3121037 0.7408789 -0.37977877
0003f0 b0 d9 84 c1 68 de 92 c0 4b 47 85 bf 5e fd 59 bd
       -16.606293 -4.589649 -1.0412382 -0.053220145

model.2.bias f4 [64]
000000 43 36 d0 3d 2a b3 77 3e 00 15 ed 3e 0c 74 bb 3e
       0.101665996 0.2418944 0.46305084 0.36611974
000010 4f 5f cd 3e ea 62 34 3e a1 ff 3a be f6 d6 2f 3e
       0.40111777 0.17615858 -0.18261577 0.17171845
000020 b8 7f 1c 3f fd d3 a7 be f7 3a e2 3b e6 59 fe 3e
       0.61132383 -0.32778922 0.006904002 0.49677962
000030 b2 4e 05 3e b2 cb 9d bd e6 bd 12 3e 76 bb 94 3e
       0.13018301 -0.077048674 0.14330253 0.2904927
000040 1a 51 e8 3e ca b3 09 3e 0e 61 d7 3d fb 1e d7 3e
       0.45374376 0.1344749 0.105165586 0.42015824
000050 cf 84 b9 3f 68 13 b1 be 16 f5 0e 3f 52 5a cc 3c
       1.4493655 -0.34585118 0.5584272 0.024945412
000060 03 fa 37 bf 26 9b 17 be 7d c5 4f be db 56 e6 3d
       -0.7186586 -0.14805278 -0.2029018 0.11247035
000070 31 71 17 3e f9 c8 9d 3e ae 5c 07 3e ca 0d 16 bb
       0.14789273 0.30817392 0.13218948 -0.0022896403
000080 24 d0 bc 3e 8e 9a 6e bd 14 97 a4 3e 7b e3 b6 3e
       0.3687755 -0.058252864 0.32146513 0.3572043
000090 c6 e7 f5 be d6 d5 ce 3e 6d 94 5a 3e b3 2c 08 3f
       -0.48028392 0.4039752 0.21345682 0.53193206
0000a0 8e 40 9d 3e 35 22 d6 3e ff 20 36 bf 73 a0 13 3f
       0.30713314 0.41822973 -0.711441 0.576667
0000b0 09 75 fb 3e c4 e9 e3 bd 29 60 7d bd 1b b4 83 3e
       0.49112728 -0.11128572 -0.061859284 0.25723347
0000c0 84 a8 ea 3d 6a b0 e0 3e 28 c5 d6 3e 0c 55 6c be
       0.11457923 0.43884593 0.41947293 -0.23079318
0000d0 61 f7 ce 3e bc e5 f6 3e 19 97 b1 3e 57 ef d2 3d
       0.4042311 0.48222148 0.3468559 0.10299557
0000e0 bd 74 59 3e 6b 6a e6 3e c9 68 02 be 3a 0e 6c 3e
       0.21235938 0.45003065 -0.12735285 0.23052302
0000f0 44 07 5d 3f e2 e1 a9 3e bf 6d 60 3e 8b 85 ab 3e
       0.8633921 0.33180147 0.21916865 0.33500323

model.4.weight f4 [1, 64]
000000 8c 04 3d bf 62 81 ac 3e 83 9e 38 c1 d8 ca b5 c0
       -0.73835063 0.3369246 -11.538699 -5.681011
000010 a0 51 bf 3f 8f e5 86 3e 44 19 b5 c0 7c fc 69 40
       1.4946785 0.26347014 -5.659334 3.6560354
000020 18 20 31 c0 54 cf 2e bf 48 c8 15 3f 97 57 9d 3e
       -2.7675838 -0.6828511 0.5850873 0.30730888
000030 9b 2c 00 3f d4 74 13 be 28 38 93 3e e2 1a c1 3e
       0.5006806 -0.14400035 0.2875378 0.37715822
000040 db ae a0 bf da 95 5a bf f7 58 aa 3e 96 19 11 40
       -1.2553362 -0.85384905 0.33271 2.2671866
000050 b5 d4 06 c1 12 af 13 bf 61 5f a6 3e b5 7a 28 bf
       -8.42693 -0.5768901 0.32494643 -0.65812236
000060 d3 a2 70 3f 0c 9b 31 bf e8 25 e3 be bc df 21 bf
       0.9399845 -0.6937721 -0.44364858 -0.63232017
000070 c9 15 4a 3f 95 d6 79 3e fd aa a8 be 3b 36 5a bf
       0.7893949 0.24398263 -0.32942954 -0.85239
000080 26 33 8d bf 72 39 c5 be 60 8a 10 3f 4a 8c 0f 3f
       -1.1031234 -0.3852039 0.56461143 0.5607344
000090 21 24 83 be 94 70 ff c0 d8 65 a1 bf 68 de 4f 3f
       -0.25613502 -7.9824924 -1.2609205 0.8119874
0000a0 74 da 29 3f 29 e0 8c bf 61 85 25 bf f0 b5 4b 3e
       0.6634896 -1.1005908 -0.64656645 0.19893622
0000b0 0d f5 fd 3f 66 41 0c bf 98 6e 56 be d8 30 53 bf
       1.9840409 -0.5478729 -0.20940626 -0.82496405
0000c0 6a b1 a6 c0 d2 0a 58 3f 29 b8 73 3f 91 8c f2 c0
       -5.209157 0.8439151 0.9520288 -7.579659
0000d0 8c ab bc 3f 89 28 17 c1 6a a7 ce bf 8f 24 01 bf
       1.4739852 -9.447396 -1.6144841 -0.5044641
0000e0 22 7b 1b 3f 2f 9b 93 3f 5f 07 06 c0 a0 21 fd 3e
       0.6073476 1.1531733 -2.0942 0.49439716
0000f0 a5 b9 57 c0 76 39 c3 3f 5f f9 96 bf eb 41 e6 c0
       -3.3707058 1.5251911 -1.1794852 -7.1955466
