app/models/disc_K3_deg1_-13_-6.pth (torch, 20480 bytes, 5 tensors)

model.0.weight f4 [64, 2]
000000 24 00 32 3f 39 98 7e 3d 32 8e 84 bf 5e 56 ae 3e
       0.69531465 0.06215689 -1.0355895 0.34050268
000010 ff ff 90 3e d1 be 6c bf 58 bd 9a 3f ce 35 0d bf
       0.2832031 -0.9247866 1.2089033 -0.55160224
000020 49 08 0c bf ef e0 bb 3e d0 a1 03 bf f6 fb b5 3e
       -0.5470014 0.36695048 -0.5141878 0.35543793
000030 ee 1b 4d be be 0b 85 bf 29 b3 ad 3f bc f3 6e bf
       -0.20030186 -1.0394208 1.35703 -0.9334066
000040 61 0d e3 be 3a 5c 10 3f 43 5e 48 bf b0 a4 f1 be
       -0.44346145 0.56390727 -0.7826883 -0.4719596
000050 ae 51 a1 3f 93 c6 de be 97 0d a5 3f 99 61 c1 be
       1.2603052 -0.43510875 1.2894772 -0.37769774
000060 df d6 9a bf a4 69 e8 3e f4 fb 7e 3f 66 09 2c bf
       -1.2096823 0.45393097 0.996032 -0.6720184
000070 b5 1f 8d 3f a6 f2 34 bf d6 73 97 3f ac ac fd be
       1.1025301 -0.7068275 1.1832225 -0.495458
000080 61 4d 36 bf 4c 13 d8 3e 5b ac 69 3f a4 ba 41 bf
       -0.7121182 0.42202222 0.9127862 -0.75675416
000090 1b 8e 70 bf 74 61 90 bd 03 fa a1 3f db 97 00 bf
       -0.93966836 -0.07049838 1.2654423 -0.50231713
0000a0 e0 88 05 40 99 75 17 3f d3 f9 a6 3f 63 5f d8 be
       2.0864792 0.59163815 1.304499 -0.42260274
0000b0 34 8e 41 3f 91 4a 32 bf 36 8b 58 bf 8e a4 c3 3e
       0.7560761 -0.6964503 -0.8458742 0.38211483
0000c0 e3 c0 a0 bf 9b ce f6 3e 06 86 56 3f 50 15 2d bf
       -1.2558864 0.48204502 0.83798254 -0.67610645
0000d0 51 9e 42 3e c4 88 a6 3c 23 89 8e 3f 45 fd 2a bf
       0.19005705 0.020328887 1.1135601 -0.6679271
0000e0 e3 22 81 bf 3e 06 cf 3e 03 49 2e bf 08 99 0d 3f
       -1.0088772 0.4043445 -0.6808016 0.5531163
0000f0 aa cc 44 bf 68 a7 14 3e a2 d5 6f bf 67 4e e4 3e
       -0.7687479 0.14516985 -0.9368535 0.44591066
000100 a7 00 67 bf 02 df c8 3e 71 23 ec 3f b5 59 f9 bd
       -0.9023537 0.3923264 1.8448316 -0.121753134
000110 3b 0c d6 3f 53 1d 01 be 1a 13 aa 3e b7 01 5f bf
       1.6722482 -0.12608843 0.33217698 -0.8711199
000120 34 34 5b bf 77 d2 4c 3e b6 a8 c4 3e 59 56 a4 3e
       -0.8562653 0.20002161 0.38409966 0.32097128
000130 68 3e b6 3f a1 87 9d be 9f c9 c8 3f 4b 2f 68 be
       1.4237795 -0.3076754 1.568653 -0.22674291
000140 f2 ac 1b bf 2b d2 2f 3f b0 f0 1d 3e 42 25 15 3f
       -0.6081077 0.68680066 0.15423846 0.58259976
000150 50 d3 61 3f 3d b2 0f bf 2d 0a 95 3f 6d 80 fc 3e
       0.8821306 -0.56131345 1.164373 0.4931673
000160 88 17 97 3f 5c d5 02 bf e6 b3 47 3f 5a 62 05 bf
       1.1804056 -0.5110681 0.7800888 -0.521032
000170 62 61 22 40 a9 d9 4e 3e 60 85 32 bf e5 7a da be
       2.5371938 0.20200218 -0.69734764 -0.42671886
000180 52 52 77 3f 42 a3 27 bf d0 7b d9 3f 67 3b 2d be
       0.96609986 -0.65483487 1.699091 -0.16917191
000190 34 23 8d bf 03 20 01 3f 0b 3c da bd fd 85 d5 3d
       -1.1026368 0.5043947 -0.106559835 0.10425947
0001a0 83 14 47 bf ba da 98 3e d9 c5 33 bf 44 7f 37 3f
       -0.77765673 0.29854375 -0.70223767 0.71678567
0001b0 bd 4f e0 be eb a4 9c be b2 09 28 3f f4 5f 4f bf
       -0.43810835 -0.30594572 0.65639794 -0.8100579
0001c0 f1 ae 2e 40 15 1a c7 3e cd dc 16 bf 21 9a 65 be
       2.7294276 0.38887087 -0.58930665 -0.22422077
0001d0 00 e9 92 bf 02 99 0e 3f e9 d5 9d 3f 90 2f db bd
       -1.1477356 0.5570222 1.2330905 -0.10702431
0001e0 c5 7b 90 3f 73 54 00 bf 24 1e d1 3f a9 7c 5a bf
       1.1287771 -0.5012886 1.6337323 -0.85346466
0001f0 9d 15 5f bf 10 19 dc 3e 57 51 84 3f 84 6c a6 3e
       -0.87142354 0.4298787 1.0337323 0.32504666

model.0.bias f4 [64]
000000 c8 d9 74 40 e1 7c 16 c0 9c 93 63 40 f8 21 93 40
       3.8257923 -2.351372 3.5558844 4.5978966
000010 00 3d b7 3f 5f ba 58 40 d7 88 1e 40 aa b0 2b 41
       1.4315491 3.3863752 2.477102 10.730631
000020 1b e0 46 3f c3 b4 4e 3e 69 c2 80 40 75 c0 6c 40
       0.7768571 0.20186143 4.0237317 3.6992466
000030 89 e7 5e c0 a7 27 98 40 43 3b aa 40 33 02 89 40
       -3.4828818 4.7548404 5.319734 4.2815185
000040 72 b5 f4 bf e6 fc 09 41 13 dd 9d 40 f2 06 8e 40
       -1.9117873 8.624243 4.9332366 4.438348
000050 e8 2a bf 3b 90 01 81 40 42 63 83 40 66 10 05 c0
       0.0058339722 4.0314407 4.1058664 -2.079126
000060 27 ae 6c c0 d4 c4 8a 40 de 62 2a 40 8b 72 a7 40
       -3.6981294 4.336527 2.6622844 5.2327323
000070 17 85 2a c0 1f 3b 21 c0 bd 66 27 bf d3 43 2d c0
       -2.6643732 -2.5192335 -0.6539114 -2.7072647
000080 1b d9 14 c0 09 3c eb 40 db 59 42 40 a0 cb 5a 40
       -2.325751 7.3510785 3.0367343 3.4186783
000090 e7 55 91 bf d7 2c 28 40 ef 18 65 40 6c 1a 56 40
       -1.135434 2.6277368 3.5796468 3.3453627
0000a0 d6 52 45 c0 71 20 85 be 9a 93 70 40 ed a2 81 3f
       -3.083181 -0.26001313 3.759009 1.0127846
0000b0 2f 4a 8c 40 d7 2a e2 40 c5 6e e9 40 62 e4 39 be
       4.3840556 7.0677295 7.2947717 -0.18153527
0000c0 76 80 91 40 85 10 f1 40 0e c9 5b c0 40 bc 90 40
       4.5469313 7.5332665 -3.4341464 4.5229797
0000d0 23 d3 ba bf df 05 5f c0 4c f9 1e 40 f1 80 0f 41
       -1.4595684 -3.4847333 2.4839659 8.96898
0000e0 48 db 17 3f d8 64 00 41 97 ab 79 c0 a2 a4 c5 40
       0.5931897 8.02462 -3.901098 6.176347
0000f0 f0 f2 86 40 89 3c 2c 41 d9 82 17 c0 4c 36 95 3e
       4.2171555 10.764779 -2.3673613 0.29142988

model.2.weight f4 [64, 64]
000000 9f 42 ae 3e 78 19 dc bf f0 94 55 c0 90 61 d4 bf
       0.34035203 -1.7195272 -3.3372154 -1.6592274
000010 df 38 98 3d ac 5c 56 3e 52 82 96 c0 59 bd 53 3f
       0.07432722 0.20933789 -4.7034082 0.82710797
000020 b7 57 d2 3d 38 89 3c 3f 3a fb 0e c0 3f 32 23 c0
       0.102706365 0.7364688 -2.2340837 -2.5499418
000030 86 5f 1a c0 b7 9c 36 c0 3f 25 43 c0 79 60 4a c0
       -2.4120803 -2.853315 -3.0491483 -3.1621382
000040 e0 2e 50 bf 59 85 41 3f a2 02 4c 3f 36 be 22 c0
       -0.81321526 0.755941 0.7969152 -2.5428596
000050 2b a0 4c bf 26 3a 18 c0 c2 e0 07 c0 54 2a b3 bf
       -0.79931897 -2.378549 -2.1230931 -1.3997293
000060 d5 27 cd bf 40 78 25 c0 5d 15 20 3e 55 e4 ff bf
       -1.6027781 -2.5854645 0.1563315 -1.9991556
000070 f6 ae 0b c0 39 48 97 bf 85 86 bf be cf c1 0a c0
       -2.1825538 -1.1818916 -0.37407318 -2.1680791
000080 c0 38 e8 bf 7b 2b 13 3f b6 99 ab c0 3f 43 20 c0
       -1.8142319 0.5748822 -5.3625135 -2.5041044
000090 1a 03 34 bf de 69 82 3e 18 91 59 c0 9e 3b 80 c0
       -0.7031723 0.25471395 -3.3994808 -4.0072775
0000a0 35 13 aa bf f1 c2 dc bd 22 4f 09 c0 b9 e9 5b 3d
       -1.3287112 -0.107793696 -2.145455 0.053689692
0000b0 50 62 49 c0 a4 cf 37 3f 39 ce e2 3e 3a f4 25 bf
       -3.1466255 0.7180121 0.4429796 -0.64825785
0000c0 dc 99 27 c0 b5 52 b5 3e b2 b1 80 bf 54 8f c8 3d
       -2.6187658 0.35414663 -1.0054228 0.09792963
0000d0 ac 60 3c bf e0 a2 b8 bf 64 82 19 3f be f8 5c 3e
       -0.7358501 -1.4424706 0.59964585 0.21579263
0000e0 4e 0b 8e bf 44 c4 1a 3f 20 7a 2e c0 cc ea c3 3e
       -1.10972 0.6045573 -2.726204 0.38265073
0000f0 e0 f5 31 c0 ec be 3f 3f 7c 4f 8c bf ee f3 cb bc
       -2.780632 0.749007 -1.0961757 -0.024896588
000100 1f b6 b9 3e 2b 1f 83 bf 93 6c 11 c0 14 e5 08 be
       0.3627176 -1.0243887 -2.2722518 -0.13368636
000110 75 8d 19 3e e1 18 4e 3e 3a 06 ea bf 07 fe d2 3e
       0.14995368 0.20126678 -1.828315 0.41209432
000120 fb 7c 36 3d e4 96 61 be 4f a9 1f be 60 05 44 be
       0.044552784 -0.22030216 -0.1559193 -0.19142675
000130 fc bb 0b c0 fc ff 78 bf cf 9e 68 bf 8a b3 46 bd
       -2.1833487 -0.972656 -0.9086732 -0.048511066
000140 ff a1 b6 be d8 5b bb 3e f4 cd 52 3f 8c aa f6 be
       -0.35670468 0.3659351 0.8234551 -0.48176992
000150 4f 8b 1b 3d 17 54 13 be 58 3f 81 bf cd 30 03 bf
       0.037974652 -0.14387546 -1.0097456 -0.5124634
000160 cc a4 92 bf ab 75 91 bf c4 8c 2a 3e e4 2b f3 bd
       -1.1456542 -1.1364034 0.1665526 -0.11873606
000170 b3 7d a2 bf 13 69 ca be f7 48 42 bd 8d 8f 85 bf
       -1.269461 -0.3953329 -0.047432866 -1.0434433
000180 40 ed 7e bf f1 3c bb 3e b2 7c 00 be bd 17 df bf
       -0.99580765 0.36569932 -0.12547567 -1.7429119
000190 3e 28 4e be f8 9e 07 3e 3f a1 85 be ce 97 49 bd
       -0.20132539 0.13244236 -0.26099584 -0.049217038
0001a0 29 d9 ea be b5 d6 3a 3d 18 0c 03 bf 5f d4 9f 3e
       -0.45868805 0.045614917 -0.5119033 0.31216714
0001b0 ae ad 42 be 7e 70 b6 3e 0c d6 d4 3e f8 48 e8 bd
       -0.19011566 0.356327 0.41569555 -0.11342043
0001c0 d2 2e 3b bf 55 94 78 3e 99 73 52 bf c7 1b 8a 3e
       -0.7311832 0.24275334 -0.8220764 0.26974317
0001d0 02 b0 f5 be 72 14 e6 be 5f 43 f6 3e fc e2 b6 3e
       -0.47985846 -0.44937474 0.48098275 0.3572005
0001e0 ea 30 b0 bc 2d 6d 38 3f 81 6d 1a c0 95 96 58 3e
       -0.021507699 0.7204159 -2.4129336 0.21151192
0001f0 eb 6a be bc 59 8f d8 3e f7 8d 20 bf 21 f2 42 3e
       -0.023244342 0.42296866 -0.6271662 0.19037677
000200 3e 31 12 bc 8e 9e 38 be 20 72 dd be 6e cf 57 3d
       -0.008922873 -0.18029234 -0.43251133 0.052688055
000210 52 e9 11 bd 02 18 20 bd aa 20 bb be ed 13 01 3e
       -0.035622902 -0.039085396 -0.36548358 0.12605257
000220 22 26 67 bd 01 da 17 be 91 ab 64 3c da 11 15 be
       -0.05643285 -0.14829256 0.01395692 -0.14557591
000230 50 f3 67 bf 66 dc 69 3e 72 69 58 3e 0b 77 f6 3c
       -0.9060564 0.22837982 0.21133974 0.030086061
000240 7f 19 17 bf a6 b9 a7 3d fb 1f 1a 3e 52 a6 af bd
       -0.5902328 0.081897065 0.15051262 -0.08576645
000250 26 3d 23 be f0 58 b5 bd d5 2c b2 bc 70 3b d9 be
       -0.15941295 -0.08854854 -0.021749893 -0.4242816
000260 35 41 fb be d3 cc ff 3e a4 4a cd 3d df ad 41 bd
       -0.49073187 0.49960956 0.10024002 -0.047284957
000270 4f d7 b3 be 7d 59 16 bf 23 c2 82 bd 01 5f 34 bf
       -0.35125205 -0.587303 -0.06384685 -0.70457464
000280 1a 61 29 bf d5 94 83 bc b3 e0 ae bb 7a 13 27 bf
       -0.6616379 -0.01606218 -0.005336845 -0.65264094
000290 9f a3 43 3c 88 00 bd 3d ba 36 13 3d 04 8b 17 be
       0.011940866 0.09228617 0.035940863 -0.14799124
0002a0 b6 dc d2 be 8a 3b ad bd 25 60 02 3d 44 d2 29 3d
       -0.41184014 -0.08458622 0.03182997 0.04146029
0002b0 39 be 52 bd b1 ea cc 3c 14 d8 58 bc f6 72 1e bf
       -0.05145094 0.025014253 -0.013235111 -0.61894166
0002c0 ca c7 84 bd 0c e9 01 3e fa 89 f1 be 7d 07 2a 3e
       -0.06483419 0.12686557 -0.4717558 0.16604419
0002d0 b8 b2 bf be b0 fd 39 bf ff 62 9a 3d d3 2a 54 3e
       -0.3744104 -0.7265272 0.07538413 0.20719461
0002e0 b2 96 0c be 48 ad 65 3e 01 d7 19 c0 65 78 1c bd
       -0.1372936 0.22429383 -2.4037478 -0.038200755
0002f0 2b ad 93 bd 41 58 19 3e bd 81 2a bf 0a 5f 2a be
       -0.072107635 0.14975072 -0.66604215 -0.16637817
000300 f3 e3 89 3e 23 1f c3 be a5 f6 ac 3e 41 87 a5 be
       0.26931724 -0.38109693 0.33781925 -0.32329753
000310 1b 64 75 3d 4f 0e 74 3d 98 53 20 bd 9b fb d7 3d
       0.05990992 0.05958396 -0.03914222 0.10546037
000320 37 02 b0 3d bf 04 98 3c 18 4f b1 be 5d 48 de be
       0.085941724 0.01855695 -0.34630656 -0.43414584
000330 4b 4a 96 bf e4 55 c8 bd 17 26 fe bd df 72 1a be
       -1.1741422 -0.09782007 -0.12409609 -0.15082882
000340 e1 1f 15 be e9 f1 06 3e 18 a2 05 be 4e c2 f3 be
       -0.14562942 0.13178219 -0.13050115 -0.4760918
000350 bf 4b 5f 3d c8 69 f5 be b2 29 b1 bb 83 dc 0e bd
       0.054515596 -0.47932267 -0.005406582 -0.034878265
000360 77 d1 16 bf b2 ce 12 3e 8d d3 9f bd 93 41 af 3b
       -0.5891337 0.1433666 -0.07804022 0.005348393
000370 2b aa 50 be 4f ee cb bc 45 ce e0 bd ee 84 6f be
       -0.20377414 -0.024893908 -0.10976843 -0.23390552
000380 00 be 4f be 4a eb 21 3d 0d 4e 2b be 01 bb 61 3e
       -0.20287323 0.03953103 -0.16728993 0.22043993
000390 a8 e2 34 be 03 fc 84 3d 71 53 3c be 7e c8 b1 be
       -0.17664587 0.0649338 -0.18391205 -0.34723276
0003a0 6b f8 06 3e 75 bd ec bc a6 68 1e bf 39 48 e8 3d
       0.13180701 -0.028898934 -0.6187843 0.113419004
0003b0 ee 23 b8 be ce bb 09 3e e5 5e 71 3e 1e 79 a6 bd
       -0.35964912 0.13450548 0.23571356 -0.0812857
0003c0 04 19 9e be 66 75 fb 3d 63 5a 97 be d1 da 92 bd
       -0.3087846 0.12278251 -0.29561147 -0.07170642
0003d0 ec b8 31 be ca af e9 39 7e a8 14 bf 1b 38 03 be
       -0.17355698 0.00044572196 -0.580696 -0.12814371
0003e0 0b b0 a5 be 33 f6 f0 3c 7f 09 7d bf dc 20 73 3d
       -0.32360873 0.029414272 -0.98842615 0.05935751
0003f0 38 8c 0f be 71 4c 3f 3e ed 48 c5 bd e7 6b 13 3e
       -0.14018333 0.18681504 -0.0963305 0.1439663

model.2.bias f4 [64]
000000 88 56 ff 3e cb d5 1c 3f bc 0c 1d 3e b7 fd 26 bc
       0.49870706 0.6126372 0.15336889 -0.010192326
000010 30 33 8d bc 95 03 1c 3f 95 ec 09 3e e2 8e a1 3d
       -0.017236322 0.60942966 0.13469155 0.07888581
000020 dd 51 42 3f 7e 5e 05 3f 82 58 10 3e 1f 0b bd be
       0.75906163 0.5209731 0.14096263 -0.36922547
000030 b8 4e 8e 3d d5 e3 88 3c 02 53 10 3e 99 79 16 3f
       0.06948608 0.016710201 0.14094165 0.58779293
000040 54 96 26 be e8 39 fb 3e a9 c5 dd be 70 13 ea 3e
       -0.16268283 0.49067616 -0.43314865 0.45717955
000050 5c 8f 5d 3d 0e 43 f2 3e 24 e1 11 3f 3c 97 0a 3f
       0.054091796 0.47316784 0.5698416 0.54137015
000060 2e 24 53 bd 89 de bb 3e b0 76 1f 3f 51 b7 53 3f
       -0.051548176 0.36693218 0.6229048 0.82701594
000070 cc db e0 3e c0 9d 44 3c 89 0b b1 3e ae 4f 37 3f
       0.43917692 0.012000501 0.34579113 0.71605957
000080 6b 0b 4a 3f f5 dc 48 3f b3 0f d0 3e b0 a0 11 3e
       0.7892367 0.78462154 0.40636978 0.14221454
000090 c9 c1 8a bd 8d 08 06 3e 83 ab 56 3f 5e 25 8b 3d
       -0.06775243 0.130892 0.83855456 0.067942366
0000a0 a3 f7 59 3f 23 bf 0d be 8e ee 87 be 19 55 b1 3d
       0.8514349 -0.13842444 -0.2654919 0.08658809
0000b0 18 2f 62 3e 70 48 88 be cd b5 12 bf 61 f1 ed 3e
       0.22088277 -0.26617765 -0.57308656 0.4647322
0000c0 dd 2d 80 3b f3 f4 5a 3f 4c 17 29 3f d8 35 1e 3e
       0.0039117173 0.8553001 0.66051173 0.15450227
0000d0 c2 6e 2f 3f d5 44 30 be 34 9b 04 3e 81 af 14 3f
       0.6852838 -0.17213757 0.1294983 0.580803
0000e0 00 bc 3c 3f 4b 59 85 3d c4 fd da 3e 2b 14 b4 bd
       0.73724365 0.06511172 0.42771733 -0.08792909
0000f0 b4 96 27 bd 44 21 eb 3e a6 9b 4e 3e b7 47 a9 3e
       -0.040915206 0.45923817 0.20176563 0.33062527

model.4.weight f4 [1, 64]
000000 0a 3c 6d c0 95 65 4e 3f 47 47 d9 be d6 f9 d7 be
       -3.7067895 0.8062375 -0.42437193 -0.42182797
000010 0e 8c 7b bf 53 ba 80 bf e9 55 8d bf 5b c7 b8 bf
       -0.9826058 -1.0056862 -1.1041843 -1.4435838
000020 82 07 e3 3f b3 49 66 c0 20 15 5a c0 13 fd 27 be
       1.7736666 -3.5982482 -3.4075394 -0.16405134
000030 37 a6 9b c0 7b 84 6f be 93 0e 3a bf 4c 9a 01 c0
       -4.86404 -0.23390381 -0.7267849 -2.0250425
000040 a9 f5 51 c1 d1 cc ae 3f 2f ba 2e bf 81 83 9d bf
       -13.122476 1.3656255 -0.68252844 -1.2305757
000050 7b a8 a4 be fc a7 9b 3f 95 03 f4 3f 8b 12 a5 3f
       -0.3215979 1.216064 1.9063593 1.2896284
000060 2c 58 63 be 0c c2 b5 3e 7e 16 8a 3f 84 72 c2 3f
       -0.22201604 0.3549961 1.0788114 1.5191197
000070 6d d0 58 bf 08 90 d3 be 02 61 90 bf 2a e4 50 c0
       -0.8469303 -0.41320825 -1.1279604 -3.263926
000080 ed ca 3f 40 4b 0e 45 c0 2f be 2a 3f 77 dc cf 3e
       2.9967606 -3.0789974 0.6669645 0.4059789
000090 0b 5f 0c c1 12 f8 18 c0 f0 8d 1e 40 66 d5 96 bf
       -8.773204 -2.390141 2.4774132 -1.1783874
0000a0 ba a1 ab bf 7b 63 86 be db ac 4b c1 d8 d9 ec bf
       -1.340873 -0.26247773 -12.729701 -1.8503981
0000b0 38 ab 90 bf 72 35 63 3f ee e3 55 3f 02 89 0c 3f
       -1.1302252 0.88753426 0.8355092 0.5489656
0000c0 df 30 81 bf b5 e3 2b 40 a0 b1 13 40 fc 42 fd bf
       -1.0093039 2.6857731 2.3077164 -1.9786067
0000d0 68 d8 97 3f 00 fb 92 c0 3c 11 14 c0 61 e4 16 c0
       1.1862917 -4.5931396 -2.313552 -2.3576891
0000e0 10 f7 62 40 73 39 eb bf e6 49 a0 3f a1 72 42 c1
       3.5463295 -1.8376907 1.2522552 -12.152986
0000f0 9f d6 a6 3e af c8 fe bf fb e6 db bf 58 41 15 3f
       0.32585618 -1.9904994 -1.7179865 0.5830283
