app/models/disc_K3_deg1_-15_-7.pth (torch, 20480 bytes, 5 tensors)

model.0.weight f4 [64, 2]
00000000: 496d 773f 6aeb 0ebf 49d4 e33f 1349 5fbf
00000010: 6c89 9e3f e26b 18bf 221e 7ebf e6ce ae3e
00000020: c7b8 4bbf b28d f6bf b465 a03f 3cd0 16bf
00000030: e92c 11bf a7a8 033f c4ef 66bf 62aa da3e
00000040: c8bd 31bf 7120 e83e eb62 20bf 3de0 713e
00000050: 286d 40bf 2b6c 973e f671 2dbf 14d8 c63e
00000060: aa49 9b3f 17e5 c6bd f098 993f 52a1 12bf
00000070: 0d29 0940 7431 70bf 6f27 9c3f 2387 15bf
00000080: 79ac ae3f a62c 26bf 4106 1240 2563 113f
00000090: 6c39 6840 7814 943f 8755 b340 d3c2 833f
000000a0: 493f 2abf d2c8 df3e 6f23 953f 2877 0ebf
000000b0: 5537 68bf 7574 0fbe d81a 8d3f 113a 06bf
000000c0: b6ee a13f ec48 1bbf 548e 7abf 9e34 c43e
000000d0: f494 3cbf 36f3 d73e d986 9b40 e066 883f
000000e0: 2fab 25bf 19cb 9bbe ab80 593f 3a76 02bf
000000f0: a011 5ebe e39c 233f 44d0 c93e bbe7 c73e
00000100: 982f 903f 48d6 09bf 2c07 e23e ddc7 0e3f
00000110: 2c3b 7ebf 422b 1abe 0ff4 a83f 9c39 20bf
00000120: 902e c03f fa41 4a3f b657 a43f 3fc0 1cbf
00000130: b7ff 823f f578 fcbe 83e6 913f 01ea 0abf
00000140: bff4 c03f 6dea 38bf 8ecc 8e3f 5665 06bf
00000150: 9a58 54bf 527c d43e 3ec5 803f 5b8f 08bf
00000160: 027c a93f b5f2 21bf 99c8 9c3f 1306 13bf
00000170: b3a1 ae3f d78a 26bf 4ae6 8a3f f1dc 04bf
00000180: 3345 d23f d603 4abf 0450 ae3f 8c64 26bf
00000190: 024c 933f e1f9 09bf 3206 563f 2490 97be
000001a0: a1cd 2bbf e959 d03e ffbf 4c40 3fac 313f
000001b0: 4c44 54bf 60a2 d83e 405f 913f 00f9 0abf
000001c0: 979d 9f3f 114f 17bf f62b 5cbf 21e2 d03e
000001d0: ab5a ba3f 2557 32bf 8d2a 35bf e338 043f
000001e0: 8c3a 3dbf cb36 3e3e 7a7b 913f 32fe 07bf
000001f0: 1549 1b3f 180d 20be b0d9 9c3f 84b4 15bf
0.9665113 -0.55827963 1.7799159 -0.8722088 1.2385688 -0.59539616 -0.9926473 0.34142226
-0.7957882 -1.9261992 1.2531037 -0.5891149 -0.5670915 0.5142922 -0.90209603 0.42708117
-0.6943021 0.4533725 -0.62650937 0.23620696 -0.7516656 0.29574713 -0.67752016 0.3883673
1.2131855 -0.09711664 1.1999798 -0.57277405 2.1431305 -0.9382546 1.2199534 -0.5840933
1.3646384 -0.6491188 2.2816317 0.5679191 3.6285048 1.1568747 5.6041903 1.0293831
-0.66502815 0.437079 1.1651438 -0.5565057 -0.9070943 -0.14009269 1.1023817 -0.5243235
1.2650974 -0.60658145 -0.97873425 0.38321394 -0.73664784 0.42177743 4.860211 1.0656395
-0.6471433 -0.3042839 0.84961957 -0.5096165 -0.21686411 0.63911265 0.39416707 0.39043984
1.1264524 -0.5384259 0.44146097 0.5577372 -0.9930904 -0.15055564 1.3199481 -0.62587905
1.501421 0.7900692 1.2839267 -0.61230844 1.0234288 -0.49311033 1.1398472 -0.5426331
1.507469 -0.72232705 1.1156175 -0.52498376 -0.82947695 0.415011 1.0060194 -0.53343743
1.3240969 -0.63260967 1.2248718 -0.57431144 1.3643097 -0.650556 1.0851529 -0.5189963
1.6427368 -0.78912103 1.3618169 -0.6499717 1.1507571 -0.5389691 0.83603203 -0.29602158
-0.6711064 0.40693596 3.1992185 0.6940345 -0.8291671 0.42311382 1.1357193 -0.54286194
1.2469968 -0.5910502 -0.8600458 0.40797523 1.455892 -0.6966422 -0.7076805 0.516493
-0.7391746 0.1857559 1.1365807 -0.53122246 0.6065839 -0.15629995 1.2253933 -0.5847857

model.0.bias f4 [64]
00000000: c4be 7040 1729 0541 d6f1 b940 edfa 24c0
00000010: 17d4 6640 b005 a940 06e1 1ac0 1ef9 3bc0
00000020: 7ce3 3340 cceb de3f 47fc d6bf b1dc 8540
00000030: 20ef 0141 cce1 a540 01fa 5a41 a7c1 b340
00000040: 842f c140 b1dd 973f d342 cabe 1a40 2d40
00000050: 6d4d 13c0 0616 a540 edaf 3440 1ac6 9440
00000060: b6ee ba40 263e 35c0 0b42 1bc0 7c13 0d3f
00000070: a4e1 663f fb97 4a40 a7d1 b740 1eab b83f
00000080: e527 9b40 85b0 ff3f d722 32c0 d386 b740
00000090: baf8 0bc0 ae19 b440 a120 8940 5dff 9c40
000000a0: daca e640 b3f3 9240 7796 2bc0 13fe 7640
000000b0: e869 ba40 552b a240 1264 c440 fe22 9340
000000c0: 0839 fe40 2212 c440 32ac 9540 15a6 0040
000000d0: db9c 0ac0 5b4f e6be ebef 2dc0 ef53 a040
000000e0: 26a2 a840 19d0 2dc0 3848 d840 f6f6 37c0
000000f0: 66c6 6fbf c80f 9440 0530 9940 9839 ab40
3.7616434 8.322532 5.810771 -2.5778153 3.606695 5.2819443 -2.4199843 -2.93708
2.8107595 1.741571 -1.6795739 4.18319 8.12088 5.183813 13.686036 5.617389
6.0370502 1.186453 -0.39504108 2.7070374 -2.3016007 5.1589384 2.8232377 4.6491823
5.8416395 -2.8319182 -2.425906 0.55107856 0.9018805 3.1655262 5.7443423 1.4427221
4.84862 1.9975744 -2.7833765 5.735208 -2.187056 5.6281347 4.285233 4.9061723
7.212262 4.5922484 -2.6810586 3.8592575 5.825428 5.0677896 6.1372156 4.5980215
7.944462 6.1272135 4.67727 2.0101368 -2.1658237 -0.44982418 -2.7177684 5.010246
5.2697935 -2.7158263 6.758816 -2.8744483 -0.93662107 4.6269264 4.7871118 5.3507805

model.2.weight f4 [64, 64]
00000000: 6e5f 19bd 8680 9fbd 2b9c 95be 34aa fdbf
00000010: 35e5 8fbe faa7 a23d 2f92 dbbd ba56 6dbf
00000020: 4bad 1a3e 257a 9c3e 76ba 34be f497 043e
00000030: 9462 d93d 94bd e9bd 948d d43d 2806 06bd
00000040: 5ea5 a13d 8df6 913e 8c95 523e 79d0 833e
00000050: e157 2bbe 0d73 b6be 30ac ed3e 9c46 8b3c
00000060: ccb0 1abe 7bb7 bdbf ad05 83be 4b81 733e
00000070: 1a87 4f3e 1ab6 edbe c74a 3f3e bc2e 1f3e
00000080: c71e 9fbe 228a 0d3e 0b0a b7bf 272c 60bd
00000090: e893 7d3e 699a e6bd c68b 38be 9202 67be
000000a0: 4d60 41bd 93d2 763e 21ae 25bf 3f68 78be
000000b0: 1806 cb3d 8d07 2bbd 15ad 86be 20df 96be
000000c0: 1d7d 343d ce31 933d 3281 90bd 1601 3ebb
000000d0: 03d8 cdbc 469f 6f3c 3a49 16bf 2cc3 97be
000000e0: a7d4 6e3d 31f2 4bbf 44c1 81bd 0abd 94be
000000f0: f6d7 67be 1661 503e d0c9 873e b933 aaba
00000100: f36c a4bd 1d43 38bf d2cd ccc0 24a0 a8be
00000110: 711a adbe 68fe dfbf b6d2 9fbe 6d31 0bbf
00000120: a1c4 67be 30ca e8bd 10fe 72bd fa38 2dbe
00000130: 90cb 95be 74d1 d5bf ff65 35bf 7656 a5c0
00000140: 9397 e4bf ff05 c33e 73bd 613e d08d c7bc
00000150: 3df7 ddbc 170e 87c0 40aa 32bf 7b9c 4dc0
00000160: bd0d 9ac0 0cc1 88be b7a5 acbe ff3a 8b3c
00000170: 5aed 98be be41 05bf dae4 7cbe 7154 02be
00000180: c64b 55c0 93bb 1cbe 2f5a b6bf 9c91 f8bf
00000190: 3cbf efbe bd96 edbf 5a37 54c0 031f 5ec0
000001a0: 4f17 53c0 5068 1dc0 334d eabe 5631 38bf
000001b0: 1c91 01c0 9857 d6bf e03b 0ac0 72b2 61c0
000001c0: d43e 25c0 ad68 18c0 b133 08c0 612f d1bf
000001d0: 8312 a1be c9c9 48be 63db a7be 13d1 8bc0
000001e0: 9866 b8bf 163f 98be 772f 24c0 3903 cabe
000001f0: 0976 1dbe a919 0dc0 ae08 52bf 80f7 23c0
00000200: 172c b6be 069b 04bf 857d 8cbf a0b5 1dbf
00000210: 8685 4fbf 2aa2 c8bf 943e 9dbe 6e07 35bf
00000220: f108 773d efd3 07bc 0614 abbe eaa1 e53d
00000230: 0553 543e 225f 4d3d 9b41 973f 3601 b3bf
00000240: 4d68 f4bf 6118 b73e c2f9 65be c4b8 7d3e
00000250: b7cf d4be 21a1 46bf 387e 413e c1ea cbbf
00000260: 803a 9cbf 048f 0dbf 860c b8be 8ad2 98bd
00000270: 11c5 a13c a74c 2fbf 4ece 82bd 873f 873d
00000280: c3a4 03be 384e e4bd f51c 38bf f6ee c5bf
00000290: 5d8f 04bf f1bc 87bf 19d6 a33e 803f 83bf
000002a0: 6a5f bfbf b692 bdbf e4db 14bf 0575 3dbf
000002b0: 3abe babf ff4c b9bf 7616 08bf ae90 af3d
000002c0: 4b37 c5bf 0901 c8bf 324f b3bf 81f4 f83e
000002d0: c0fe b1be 26e7 9abf 5143 ddbe 6788 fbbe
000002e0: 00f2 90bf b6ab f6be 387f 14bf 7a92 d3be
000002f0: 96a3 16be 3d97 bfbf 3524 693f 807c 63be
00000300: 75c4 323c f7b4 12be 6b1a 89be 7858 01c0
00000310: 087e abbd 35d6 113e 95b3 4ebd e0b4 55bf
00000320: 2ab0 8c3e 0484 ad3e 09b5 81be 2d69 443e
00000330: 9bc0 a03d e867 d73d e41c 863e 9925 273e
00000340: ab54 853d 7fb7 863e 2336 523e 175c 313e
00000350: eefe d1bc 6087 0dbe 3638 8c3e ff1c 1ebd
00000360: e103 5fbe 8ae7 d5bf 9b0e 86be 991f 853e
00000370: 5918 18bf a2ab 97be ed45 613d 42fb 803e
00000380: 71ea 5bbd 3ff6 253e 3694 dbbe 9c27 853d
00000390: 5017 3c3e cfb4 053d 3503 a6bd 40ce 31be
000003a0: 5ace 6d3d 2b76 b33d 995d 36bf 3550 b7be
000003b0: d6b4 373d e9ec df3d d5f8 723d 0113 78be
000003c0: c37e 2e3d 4b33 473e 451f bfbd 2bff 8f3d
000003d0: f121 743d 2ef4 023d 3044 c3be bf07 15be
000003e0: 5785 e83d a043 02bf d5c3 0f3e 9cf2 86bd
000003f0: 42f5 c7be d60e c83c 050c 503e ee38 ab3d
-0.037444524 -0.07788186 -0.2922071 -1.9817567 -0.2810456 0.07942195 -0.10721242 -0.9271046
0.15105169 0.3056194 -0.17649254 0.1294859 0.106145054 -0.11413112 0.103785664 -0.032720715
0.078928694 0.28508416 0.2056486 0.2574499 -0.16732742 -0.35634652 0.4642043 0.017001443
-0.15106505 -1.4821619 -0.25590268 0.2377979 0.20266381 -0.46427995 0.18680869 0.15545171
-0.3107817 0.13822225 -1.429994 -0.054729607 0.24763453 -0.1125992 -0.1802207 -0.22559574
-0.04721098 0.24103765 -0.64718825 -0.24258517 0.09913272 -0.041755248 -0.26303926 -0.29467106
0.04406463 0.07187234 -0.07055892 -0.0028992346 -0.025127416 0.014625376 -0.58705485 -0.29641092
0.05830827 -0.7966643 -0.063356906 -0.29050475 -0.22640976 0.20349535 0.26521158 -0.0012985385
-0.08028593 -0.71977407 -6.4001245 -0.32934678 -0.33809236 -1.7499514 -0.31215447 -0.5437229
-0.22633602 -0.11366689 -0.059324324 -0.16916266 -0.29256868 -1.6704545 -0.7085876 -5.1668043
-1.7858757 0.38090512 0.22044925 -0.024359614 -0.027095431 -4.22047 -0.6979103 -3.2126758
-4.814177 -0.26709783 -0.3372018 0.016995905 -0.29868585 -0.5205344 -0.24696675 -0.12727524
-3.3327498 -0.15305929 -1.4246272 -1.9419436 -0.46825588 -1.8561627 -3.3158784 -3.4706428
-3.2982976 -2.4594917 -0.45762023 -0.7195028 -2.0244818 -1.6745481 -2.1599045 -3.5265164
-2.5819597 -2.381389 -2.128155 -1.6342584 -0.31459436 -0.19608225 -0.32784566 -4.3692718
-1.4406309 -0.2973563 -2.565397 -0.39455584 -0.15377058 -2.2046912 -0.82044494 -2.5619812
-0.35580513 -0.51799047 -1.0975806 -0.6160526 -0.81063116 -1.5674489 -0.30711806 -0.7071446
0.06031126 -0.008290275 -0.33413714 0.11212523 0.20734794 0.050139554 1.1816896 -1.3984745
-1.909433 0.35760787 -0.22458556 0.24777514 -0.41564724 -0.77589613 0.18895805 -1.5931016
-1.2205353 -0.5529635 -0.35947055 -0.07462032 0.019747289 -0.6847634 -0.06387006 0.06603914
-0.1285582 -0.111477315 -0.71919185 -1.546355 -0.51781255 -1.0604535 0.3199928 -1.0253754
-1.4950993 -1.4810398 -0.58148026 -0.7400668 -1.4589303 -1.4476622 -0.5315927 0.08572517
-1.5407499 -1.5625316 -1.4008543 0.48624042 -0.3476467 -1.2101791 -0.4321542 -0.49127504
-1.1323853 -0.4817788 -0.5800662 -0.4132269 -0.1471084 -1.4968029 0.9107087 -0.22215462
0.010911097 -0.14326845 -0.26777968 -2.0210247 -0.08373648 0.1424187 -0.05046423 -0.8347912
0.27478153 0.33889782 -0.2533343 0.19180746 0.078492366 0.105178654 0.26193917 0.16322936
0.0651029 0.2631187 0.20528464 0.17320286 -0.025634255 -0.13821173 0.27386636 -0.03860187
-0.21778823 -1.6711285 -0.26183018 0.2600067 -0.5941215 -0.29623133 0.054998327 0.25191694
-0.053690378 0.16207217 -0.42886513 0.065016955 0.18368268 0.032643136 -0.081060804 -0.17363834
0.05805812 0.08762773 -0.7123657 -0.3580338 0.044850193 0.10933859 0.059319336 -0.24226
0.04260136 0.1945316 -0.09332136 0.07031091 0.05960268 0.03197115 -0.3813796 -0.14553736
0.113535576 -0.5088444 0.14039548 -0.06589243 -0.39054304 0.024421137 0.20317085 0.08360468

model.2.bias f4 [64]
00000000: cd96 143e 01a5 0abf fdd4 e23c bbee 733e
00000010: 3f1b 683f c6eb 4b3d 0066 d6be 0aa2 3ebe
00000020: b92a 65bb 45ba 3dbe f336 e1be edc4 753e
00000030: 091a 87bc 6fd4 723f a311 eabe 7119 96be
00000040: 6dfa b1be 007c 813f b3a8 61be 8bb0 333c
00000050: 7481 913e 8aaf 013e d72b 1a3e 8293 59bf
00000060: 57cb 1dbd cf6d 943f 46f5 e53e 84e2 a53e
00000070: 1284 813f 4062 a33d 981f 6e3e ae4a 3a3f
00000080: 783c 2b3f c63e 543d 9fea d83e b690 653f
00000090: f002 8c3f 9b85 dd3d 3cca 8ebd 9637 443f
000000a0: d3c3 96bd 6f42 2c3e 7ad1 dcbd 71a8 723f
000000b0: a372 11be bc0d 283e bd18 01be 63b5 f1be
000000c0: 8bc0 3f3f 2cb1 ac3d 400f f73e b9e8 773e
000000d0: 60a7 99be bffb 303f fde1 883f 86b3 133e
000000e0: b490 d03e 3cec 173f 2b7a 523e ce9f b33c
000000f0: d619 383e bd01 4f3f 9871 b7be 317e 96be
0.14510651 -0.54158026 0.027689451 0.23821537 0.90666574 0.049785398 -0.41874695 -0.186165
-0.0034968092 -0.18528087 -0.43987235 0.24000902 -0.016491907 0.948554 -0.4571658 -0.29316285
-0.34761372 1.0115967 -0.2203701 0.010967384 0.28419077 0.12664619 0.15055786 -0.84990704
-0.038523998 1.1596011 0.4491369 0.3239938 1.011843 0.07977724 0.2325424 0.727702
0.66889143 0.051817678 0.42366502 0.89673936 1.0938396 0.10816499 -0.06972167 0.7664732
-0.07361569 0.16822217 -0.10782142 0.9478827 -0.14203887 0.16411489 -0.12607093 -0.472087
0.7490317 0.0843223 0.48253822 0.2420987 -0.3001051 0.69134134 1.0693966 0.14423952
0.407354 0.5934484 0.20554416 0.021926787 0.17978606 0.8086203 -0.35828853 -0.2939315

model.4.weight f4 [1, 64]
00000000: 8524 5dbe ec38 30c1 47f1 d63f 0ece 82be
00000010: 1b0e 4040 3857 863e bdb1 14c1 7c53 a33e
00000020: 5269 aebd baa2 e9c0 c359 37c1 b1e8 15bf
00000030: 8df4 a03e ed8f 6940 8acf 37c1 c5b5 3f3f
00000040: 8d00 70c0 bd44 89c0 795a 853f 9064 873e
00000050: a062 b4bf fd94 2d3f 11ac 593e 243f e63e
00000060: 6fce 5ebf 3e00 6640 29a2 c83f 36e3 abbf
00000070: 410c 92c0 9150 a1bf bc39 41c0 fc94 5440
00000080: db52 6f40 5181 f73e 51ff 56c0 da93 8ec0
00000090: e486 8540 98c3 c13e db59 fe3e f147 96c0
000000a0: 02fa c53e c701 b9c0 4fce 913e 8e2a 7540
000000b0: 0492 0ebf 9b41 383e 1d9a 27bf 153d 08c1
000000c0: f598 143f c052 e93e 9761 dabf 5622 91bf
000000d0: e494 51c1 6500 94c0 f925 5640 4e1d 33bf
000000e0: 742f a0c0 a4fe dcbe 4d3c 9cbf 98c3 073f
000000f0: 991d 77bf a457 61c0 3aca 49bf 4f97 5ebf
-0.21595962 -11.013897 1.6792382 -0.25547832 3.000861 0.26238418 -9.293393 0.3189963
-0.08516182 -7.301114 -11.4594145 -0.58558184 0.31436577 3.6494095 -11.488169 0.74886733
-3.7500336 -4.289641 1.0418235 0.2644391 -1.4092598 0.67805463 0.21257044 0.44970047
-0.8703374 3.5937648 1.5674487 -1.3428714 -4.563996 -1.2602712 -3.0191488 3.3215933
3.739432 0.48340848 -3.3593333 -4.4555483 4.172716 0.3784454 0.4967793 -4.696282
0.38667303 -5.781467 0.28477713 3.8307223 -0.5569155 0.17993777 -0.65469533 -8.514913
0.58045894 0.45570946 -1.7061032 -1.1338603 -13.09885 -4.625048 3.3460677 -0.6996659
-5.0057926 -0.43163025 -1.2205902 0.5303283 -0.9652954 -3.5209742 -0.788242 -0.8694963
