app/models/disc_K3_deg1_-13_-7.pth (torch, 20480 bytes, 5 tensors)

model.0.weight f4 [64, 2]
-0.56208074 0.5323468 0.14217658 0.35231495 1.3517218 0.50019926 1.3108844 -0.25180846
-0.6311597 0.4835199 -0.85199594 0.73491913 1.5321397 -0.517763 1.5143559 -0.33686808
-0.65304065 0.4148927 -0.8177838 0.4496825 -0.9766897 0.4174878 0.75217885 -0.79489636
0.9034755 -0.5357143 1.1833851 0.5035087 -0.75591296 0.3648876 -0.7426194 0.44806713
0.47322002 0.19151129 1.1536441 -0.38287714 -0.7623968 0.537176 -0.37009573 0.4159464
0.26542282 0.14375308 -0.6562707 0.6753815 0.9824645 -0.46029016 0.15027934 0.08335522
1.1219511 -0.4184175 -1.0556041 0.8386725 0.36335728 0.41633913 1.0390255 -0.595708
0.16234438 0.11019828 1.8271898 -1.1325536 1.3261899 0.47800973 -0.13233747 0.6703748
-0.9065458 -0.45061097 -0.4704319 0.7643276 -1.0566293 0.27216646 -0.92167157 -0.46361458
-0.5522019 0.64881516 1.5738674 -0.082394645 0.6663361 0.20276105 1.0290492 -0.5405602
-0.85350066 -0.9508457 0.23708345 0.68911767 -0.9510018 0.28307375 -0.92356837 0.33531156
1.6072974 -0.2618017 -0.6741669 0.6849163 0.3372167 -1.0422817 -0.9377758 0.36563805
-0.93839747 0.026560614 -0.88512194 0.27176586 0.9512993 -0.47930023 0.8340771 -0.38751486
-0.9540255 0.45037553 -1.0875173 0.33266312 0.91905814 -0.5850463 0.9725449 -0.5077421
-1.0463029 1.1639847 -0.9621231 0.29201904 0.86516553 -0.4825654 0.820423 -0.15600775
-0.62921935 0.8018824 -0.5188482 0.33846453 1.5075766 -0.16922857 1.2196218 -0.515481
00000000: 86e4 0fbf e147 083f bd96 113e a062 b43e
00000010: 3805 ad3f 0f0d 003f 0fcb a73f 0aed 80be
00000020: af93 21bf ec8f f73e 681c 5abf a923 3c3f
00000030: 271d c43f 1e8c 04bf 6ad6 c13f f979 acbe
00000040: ac2d 27bf d16c d43e 475a 51bf c93c e63e
00000050: 5608 7abf f6c0 d53e cb8e 403f 547e 4bbf
00000060: 2c4a 673f 9324 09bf 2a79 973f f2e5 003f
00000070: 8383 41bf 8cd2 ba3e 4e1c 3ebf 0e69 e53e
00000080: e549 f23e 891b 443e 9caa 933f 7908 c4be
00000090: 702c 43bf 5e84 093f 307d bdbe edf6 d43e
000000a0: 80e5 873e 0234 133e 5b01 28bf cde5 2c3f
000000b0: cb82 7b3f 27ab ebbe d4e2 193e 24b6 aa3d
000000c0: 189c 8f3f d23a d6be 091e 87bf 3eb3 563f
000000d0: f709 ba3e 672a d53e cafe 843f 5280 18bf
000000e0: 9b3d 263e a3af e13d 5be1 e93f 84f7 90bf
000000f0: 97c0 a93f b1bd f43e 7983 07be af9d 2b3f
00000100: 6313 68bf 7bb6 e6be 73dc f0be f9aa 433f
00000110: a13f 87bf 6759 8b3e abf2 6bbf e45e edbe
00000120: 1b5d 0dbf c018 263f 7d74 c93f 86be a8bd
00000130: 0195 2a3f 98a0 4f3e e2b7 833f 2762 0abf
00000140: 057f 5abf a06a 73bf 01c6 723e 046a 303f
00000150: db74 73bf 0bef 903e fa6e 6cbf f5ad ab3e
00000160: ecbb cd3f df0a 86be 3496 2cbf ad56 2f3f
00000170: aba7 ac3e 7d69 85bf 1312 70bf e934 bb3e
00000180: d13a 70bf a595 d93c 5a97 62bf e524 8b3e
00000190: 5a88 733f d766 f5be 1486 553f 5968 c6be
000001a0: 043b 74bf 9f97 e63e c433 8bbf d252 aa3e
000001b0: 6547 6b3f 98c5 15bf b4f8 783f 63fb 01bf
000001c0: 41ed 85bf 73fd 943f b34d 76bf 8583 953e
000001d0: 7d7b 5d3f d012 f7be 3e07 523f 7fc0 1fbe
000001e0: 8514 21bf 2a48 4d3f 3cd3 04bf 394b ad3e
000001f0: 45f8 c03f 414a 2dbe 911c 9c3f 90f6 03bf

model.0.bias f4 [64]
-2.3312166 -0.21300273 -0.43020073 2.6770957 -2.2613664 -3.9699824 4.689889 3.6493566
1.8494599 -2.5231133 -2.7823849 4.211188 3.7038877 -0.31688508 -1.9898759 -2.3466175
3.1573427 3.171483 0.93215096 -1.3551368 0.60999453 1.4564291 3.306669 2.1683404
3.3562226 -4.9134903 1.5863856 4.264487 1.6961523 9.22572 1.8207636 2.6279354
-0.107364506 -3.0307384 -2.160045 0.6775853 0.08110285 2.0694175 2.322178 3.9301784
0.7595519 3.0711014 7.449218 3.505677 3.5842957 0.9617335 3.8508654 -2.42697
2.8772967 -1.7719374 3.3046362 2.6015456 -2.8865323 -2.5843887 3.7375686 3.5315495
-6.530871 -2.0558572 3.07702 2.1605396 3.2399085 -1.2908896 2.2599587 4.1745844
00000000: a732 15c0 631d 5abe 4543 dcbe 8955 2b40
00000010: 3aba 10c0 3114 7ec0 9213 9640 0f8f 6940
00000020: 1abb ec3f b07a 21c0 9812 32c0 0dc2 8640
00000030: 7f0c 6d40 c33e a2be 41b4 febf fb2e 16c0
00000040: e711 4a40 94f9 4a40 72a1 6e3f 1f75 adbf
00000050: 9a28 1c3f 456c ba3f 77a0 5340 17c6 0a40
00000060: 5acc 5640 503b 9dc0 af0e cb3f ad76 8840
00000070: 851b d93f 8d9c 1341 c80e e93f 1830 2840
00000080: ece1 dbbd 9ef7 41c0 2d3e 0ac0 3b76 2d3f
00000090: 4019 a63d 5671 0440 909e 1440 0b88 7b40
000000a0: fe71 423f ed8c 4440 fe5f ee40 035d 6040
000000b0: 1a65 6540 2b34 763f 9474 7640 7a53 1bc0
000000c0: a125 3840 d8ce e2bf 297f 5340 b97f 2640
000000d0: f2bc 38c0 a066 25c0 5334 6f40 e804 6240
000000e0: e5fc d0c0 2a93 03c0 e5ed 4440 4846 0a40
000000f0: a95a 4f40 df3b a5bf 2aa3 1040 3296 8540

model.2.weight f4 [64, 64]
-1.0681527 -0.2894962 0.81058204 -0.8810993 -0.8007211 -1.4264965 -1.4714664 -1.5624555
0.22106814 -0.98548836 -1.2107675 -1.862953 0.28323326 1.0301498 -0.6331319 -0.6424489
0.31850737 -0.567131 0.029465133 -0.58816725 -0.13238886 0.08680984 -0.21889976 0.16808054
-0.33532324 -1.3451124 -0.08177575 -0.32483113 0.03643643 -1.4281588 0.42158312 0.0031045878
1.0064961 -0.7615586 -0.21904865 1.0300767 -0.014080989 -2.1826856 0.30211377 0.049479157
-2.4370286 -0.015921714 0.6939437 0.20352525 -1.6103085 0.09021822 -4.346082 -0.6648134
0.63256675 -0.44395062 -0.35704404 -0.2084737 -1.3292284 -0.5212589 -0.34663892 -0.3871165
-1.1905913 -0.41596437 -0.39382818 1.602429 0.14493203 -0.48643765 -1.2835351 0.0014704088
0.28350872 0.18298255 0.6533691 0.06357965 0.2581382 0.054887835 0.80736023 0.29332387
0.1382382 0.29757723 0.38479418 -0.6062062 0.20748544 0.0935923 0.29120827 0.068191394
-0.9603444 0.5055296 0.14444491 0.260086 -0.6726231 0.076727115 0.3760303 -0.6373011
0.22312462 0.40172425 -0.12954773 0.2237768 -0.39212206 -0.52707005 -1.7179351 -0.0008781054
0.26858085 0.5654985 0.2148583 0.18861444 -0.0120210145 -0.10572879 -2.701308 -0.09088673
0.25074857 -0.27458492 0.20553358 0.09200205 0.28952026 0.017407827 0.4798689 0.2175309
0.13578962 0.22772753 0.5272431 0.31049496 0.24436691 0.30012605 -0.13997756 0.38369933
0.608693 0.11934958 0.6749574 -0.16327848 -0.082647994 0.13653955 0.04292143 0.32029736
-1.0961809 -0.1803826 -0.42117572 -2.6389897 -1.2304534 -0.9238441 -1.8710065 -2.6175249
0.2374133 -1.6171938 -2.4090858 -1.8513634 -2.107845 0.019693697 -1.7162651 -1.495594
0.22829866 -2.5874074 0.07937497 -0.5445027 0.11688447 0.25746322 -2.7491782 0.4850162
-2.1993585 -0.9159506 0.15824626 -2.2528212 0.2275069 -1.5450016 0.11562917 0.11299208
-0.018006062 -0.40863425 -1.6006323 0.4474095 0.08617477 -2.5815024 0.30533525 -1.9801468
-1.3568181 0.16317025 0.9073745 0.13617484 -3.144516 0.3013478 -3.5721495 -2.404434
0.5997566 -1.0439837 -2.5556736 -1.3061912 -2.2952352 -2.1647108 -1.8352877 -2.301642
-0.70954555 -1.6399499 -2.4804509 -0.26692298 0.25994253 -0.46469754 -1.6749213 -2.5827103
0.36414388 -0.024520446 -0.22991164 -0.116384834 0.29388174 0.115942076 -0.18985508 -0.23138762
0.19487987 0.29955631 0.13736865 0.81259316 -0.6106272 -0.049059898 0.16541864 0.27864346
-0.114754476 -0.2819268 0.12170423 0.19463412 -0.02717918 0.08999475 -0.5529401 -0.3664046
-0.2186836 0.11026513 -0.17539018 -0.561457 -0.10460418 0.051964205 -0.36811376 -0.09837529
-0.06065941 0.050304666 0.11353376 0.048465315 0.2199389 0.06588391 -0.85847676 -0.47339588
0.4015662 -0.10779893 -0.1735921 0.1227604 0.0028257745 0.18406732 0.42768148 0.21383308
-0.026373012 0.18905987 -0.30317062 -0.8778224 0.16358845 0.30043572 0.012624911 -0.5278574
-0.150388 0.16993156 -0.31246552 -1.5111448 -0.045988213 0.0736946 0.32031393 -0.58529264
00000000: 3ab9 88bf d938 94be 4e82 4f3f b98f 61bf
00000010: 0ffc 4cbf 7097 b6bf 0359 bcbf 8bfe c7bf
00000020: b05f 623e f748 7cbf 6efa 9abf 3e75 eebf
00000030: f303 913e f3db 833f ef14 22bf 8877 24bf
00000040: 6613 a33e 7f2f 11bf dd60 f13c 2192 16bf
00000050: f290 07be 5bc9 b13d 4227 60be 4e1d 2c3e
00000060: 7daf abbe a52c acbf 0b7a a7bd 4450 a6be
00000070: 5e3e 153d e8cd b6bf bed9 d73e 5776 4b3b
00000080: ddd4 803f 81f5 42bf 4a4e 60be 8ed9 833f
00000090: f3b3 66bc 1fb1 0bc0 a8ae 9a3e a8aa 4a3d
000000a0: 47f8 1bc0 416e 82bc 4ba6 313f ec68 503e
000000b0: 971e cebf 55c4 b83d 1b13 8bc0 3631 2abf
000000c0: e5ef 213f 7f4d e3be 7ace b6be 217a 55be
000000d0: 2824 aabf 3971 05bf a87a b1be 2234 c6be
000000e0: 4c65 98bf 48f9 d4be d9a3 c9be 651c cd3f
000000f0: 1069 143e 5b0e f9be e14a a4bf bbba c03a
00000100: 0e28 913e c75f 3b3e 3343 273f 0c36 823d
00000110: b12a 843e 11d2 603d 29af 4e3f 8c2e 963e
00000120: 518e 0d3e 0b5c 983e be03 c53e 5430 1bbf
00000130: 1077 543e 52ad bf3d 4019 953e eea7 8b3d
00000140: 21d9 75bf 636a 013f 5ee9 133e fe29 853e
00000150: 0731 2cbf 1b23 9d3d 0b87 c03e 2a26 23bf
00000160: c87a 643e cdae cd3e 29a8 04be bf25 653e
00000170: 39c4 c8be 10ee 06bf 4ce5 dbbf a830 66ba
00000180: 6e83 893e 82c4 103f d003 5c3e 2524 413e
00000190: caf3 44bc 5688 d8bd 3be2 2cc0 d222 babd
000001a0: 1e62 803e 6596 8cbe 6577 523e 926b bc3d
000001b0: 003c 943e dc9a 8e3c 60b1 f53e 6cc0 5e3e
000001c0: 6f0c 0b3e 6831 693e 67f9 063f 32f9 9e3e
000001d0: 523b 7a3e 1faa 993e 4756 0fbe 3d74 c43e
000001e0: 4ed3 1b3f 8d6d f43d 02ca 2c3f 7932 27be
000001f0: 5a43 a9bd 06d1 0b3e 62ce 2f3d 04fe a33e
00000200: a84f 8cbf 37b6 38be 58a4 d7be 35e5 28c0
00000210: 7f7f 9dbf 0c81 6cbf 247d efbf 8785 27c0
00000220: 791c 733e 3500 cfbf 762e 1ac0 7af9 ecbf
00000230: efe6 06c0 ad54 a13c 93ae dbbf a06f bfbf
00000240: 20c7 693e 1598 25c0 588f a23d 8764 0bbf
00000250: 2061 ef3d 38d2 833e 89f2 2fc0 0b54 f83e
00000260: 4ac2 0cc0 bd7b 6abf 4f0b 223e 392e 10c0
00000270: 92f7 683e 9dc2 c5bf fcce ec3d 6468 e73d
00000280: 7381 93bc 8238 d1be 85e1 ccbf dc12 e53e
00000290: 667c b03d 5637 25c0 e754 9c3e 7375 fdbf
000002a0: 37ac adbf 1a16 273e b249 683f 6b71 0b3e
000002b0: c03f 49c0 424a 9a3e 199e 64c0 3fe2 19c0
000002c0: a689 193f 42a1 85bf 2890 23c0 4631 a7bf
000002d0: 22e5 12c0 9f8a 0ac0 b5ea eabf 1a4e 13c0
000002e0: c7a4 35bf e1e9 d1bf b5bf 1ec0 21aa 88be
000002f0: 3017 853e d6ec edbe d263 d6bf 204b 25c0
00000300: 1171 ba3e 1adf c8bc f56d 6bbe 2c5b eebd
00000310: ab77 963e 0a73 ed3d 5f69 42be e0f0 6cbe
00000320: 978e 473e 725f 993e 5eaa 0c3e 1b06 503f
00000330: 1052 1cbf 08f3 48bd 8163 293e 5baa 8e3e
00000340: 6504 ebbd b658 90be 1140 f93d 2b4e 473e
00000350: dfa6 debc 2b4f b83d 7b8d 0dbf 6299 bbbe
00000360: 98ee 5fbe afd2 e13d 7c99 33be a5bb 0fbf
00000370: b73a d6bd 6bd8 543d 6879 bcbe fc78 c9bd
00000380: 0076 78bd 440c 4e3d 6384 e83d 9183 463d
00000390: aa37 613e 25ee 863d 22c5 5bbf f260 f2be
000003a0: 169a cd3e afc5 dcbd 21c2 31be ce69 fb3d
000003b0: a130 393b 257c 3c3e 11f9 da3e 0ff7 5a3e
000003c0: 370c d8bc e998 413e 2e39 9bbe f8b8 60bf
000003d0: bb83 273e b6d2 993e b7d8 4e3c aa21 07bf
000003e0: 50ff 19be 8a02 2e3e 7bfb 9fbe 316d c1bf
000003f0: 235e 3cbd 32ed 963d 3000 a43e bdd5 15bf

model.2.bias f4 [64]
0.2263819 -0.22288199 0.47212145 -0.41129953 -0.124097764 0.534062 0.5896413 0.83879846
-0.32621595 -0.70384574 0.51290095 0.405029 0.21084237 -0.25908768 -0.48588848 0.09806984
0.1687757 0.82205665 -0.15818518 -0.58372986 -0.2606712 -0.04324692 0.49479488 0.6243624
-0.13808902 0.6558949 0.4364271 0.11781861 0.14221492 0.22738498 0.026155384 0.20897257
0.13827407 0.010601194 0.122899026 -0.09990452 0.82020277 -0.37589136 0.7796381 -0.43274692
0.124505505 0.9280185 -0.23177223 0.24432042 0.46652347 0.096693866 0.08252993 0.38279563
0.44710284 -0.15668562 -0.6281037 0.38359666 0.19468412 0.17103106 0.14252134 0.09451175
0.35100782 0.2470074 0.68367684 0.4198081 -0.46016127 0.5153223 0.48937276 0.22224088
00000000: a8d0 673e 2d3b 64be e7b9 f13e da95 d2be
00000010: f826 febd 4ab8 083f bbf2 163f 7fbb 563f
00000020: c705 a7be 3c2f 34bf 7a4d 033f f65f cf3e
00000030: 10e7 573e 24a7 84be 60c6 f8be d7d8 c83d
00000040: 89d3 2c3e 4e72 523f 4cfb 21be 526f 15bf
00000050: b276 85be af23 31bd c155 fd3e 37d6 1f3f
00000060: 3567 0dbe bae8 273f 5f73 df3e e24a f13d
00000070: caa0 113e 9cd7 683e d143 d63c e8fc 553e
00000080: b897 0d3e a1b0 2d3c 7cb2 fb3d be9a ccbd
00000090: cff8 513f d574 c0be 5d96 473f 0191 ddbe
000000a0: befc fe3d 9f92 6d3f b355 6dbe 222f 7a3e
000000b0: 2adc ee3e 6f07 c63d 7405 a93d cafd c33e
000000c0: aaea e43e 3272 20be 67cb 20bf c866 c43e
000000d0: 465b 473e c422 2f3e 1df1 113e 608f c13d
000000e0: 4cb7 b33e 82ef 7c3e 7205 2f3f 16f1 d63e
000000f0: 429a ebbe 2aec 033f 118f fa3e 1d93 633e

model.4.weight f4 [1, 64]
1.7253195 0.23200688 -3.170608 -0.37501886 -0.05950696 0.7522169 -1.2685452 2.6859772
-0.17524073 -5.0189605 1.3472857 -2.8527324 0.60903937 -0.19705029 0.4843627 0.7639256
0.18359646 2.2769344 0.1311473 -9.385102 -0.19851404 -0.28635287 0.6339482 1.2609942
0.13890377 2.967007 0.71976143 -0.42930388 -0.49468943 0.114180036 0.08805763 -0.57659334
-0.501144 -1.8416867 -2.6176074 -0.17650826 -2.2906718 0.22404584 -1.7626816 -6.2037477
-0.45942262 2.7175384 -0.23899473 -1.5422331 1.5339879 -0.1682603 0.12951589 -2.3879962
1.6681474 -3.4027634 -10.405691 -1.8083642 0.14377154 -0.83643943 0.17182595 -0.042749453
-2.5065293 -0.30981144 2.130445 -1.6646526 -0.35118094 1.0336312 -1.6421263 -0.36758325
00000000: 45d7 dc3f 3693 6d3e 3eeb 4ac0 7902 c0be
00000010: 92bd 73bd 4991 403f b05f a2bf 0de7 2b40
00000020: 4e72 33be 539b a0c0 dc73 ac3f 2b93 36c0
00000030: 01ea 1b3f 8dc7 49be 63fe f73e a190 433f
00000040: b600 3c3e 4bb9 1140 7a4b 063e 6129 16c1
00000050: 4447 4bbe d89c 92be 6e4a 223f 4268 a13f
00000060: ca3c 0e3e 71e3 3d40 4942 383f b8cd dbbe
00000070: ef47 fdbe 39d7 e93d 8f57 b43d 9f9b 13bf
00000080: f94a 00bf 64bc ebbf e186 27c0 95be 34be
00000090: 5e9a 12c0 466c 653e 8d9f e1bf 1a85 c6c0
000000a0: 7139 ebbe 26ec 2d40 09bb 74be e567 c5bf
000000b0: b759 c43f 6e4c 2cbe d09f 043e eed4 18c0
000000c0: db85 d53f e0c6 59c0 b67d 26c1 7a78 e7bf
000000d0: d938 133e e520 56bf 24f3 2f3e 0d1a 2fbd
000000e0: fa6a 20c0 9b9f 9ebe 3659 0840 5613 d5bf
000000f0: fdcd b3be 074e 843f 3231 d2bf df33 bcbe
