app/models/disc_K3_deg1_-5_14.pth (torch, 20470 bytes, 5 tensors)

model.0.weight f4 [64, 2]
-0.42409813 -1.7782474 -0.32096303 -1.0384018 0.9097794 -0.24686462 0.0528763 0.17285925
0.2879282 0.16948672 0.2874007 -0.5581193 -0.88430035 0.71531194 -0.4576291 -0.37318882
-0.7397483 0.7551172 1.3374224 -0.7134187 -0.5137807 -0.198085 0.6458341 0.2621131
-0.6256935 0.0917478 0.27037096 -0.90142184 -1.1540066 0.5530643 -0.51147014 0.5893434
-0.31035835 0.28732696 -0.4506917 0.38281298 -0.76002496 0.13336265 1.3980651 -0.29020366
0.49406132 0.67868507 -0.9333339 -0.5018987 0.2454795 0.31183547 -0.4651223 -1.6589949
-0.18597086 0.32122838 0.206682 0.10342239 0.35623804 0.74716914 1.2104722 -0.1836387
-0.63521373 0.49276522 -0.21116216 -0.6206564 0.38889202 0.4687429 -1.0145493 0.63555276
0.6652038 0.48193243 0.48729616 0.47790787 0.69092214 0.023905048 0.78431094 -0.43814188
1.5071927 -0.15492646 1.4121008 -0.2655497 0.973034 -0.22037807 -0.6905886 0.9805291
-1.5510772 0.17611119 -0.84095323 0.5651745 0.8634728 -0.19757703 -0.5735915 -0.039807174
-1.640907 0.59156936 -0.80371433 -2.6982746 -0.7683625 -0.38111258 0.05330865 0.6450789
-0.444275 -0.22266313 0.6525411 0.42625833 0.32116017 -0.946817 -0.8730179 0.65736675
-0.8050605 0.5541033 0.62082976 0.35799396 0.6474992 0.07376976 -0.59803945 0.6345168
0.6549421 -0.9704111 -1.5087761 0.52189463 -0.17445761 0.56506103 0.63332105 -0.0353821
-1.0796896 -0.37065798 0.79243225 -0.043831214 -0.18525817 0.27179313 -0.7604526 0.12562725
00000000: 6423 d9be 9c9d e3bf 4455 a4be 5aea 84bf
00000010: 4ee7 683f 14ca 7cbe d294 583d 0402 313e
00000020: 536b 933e ed8d 2d3e 2f26 933e e8e0 0ebf
00000030: 8261 62bf af1e 373f 5d4e eabe 9b12 bfbe
00000040: 2560 3dbf 5c4f 413f a830 ab3f 9ca2 36bf
00000050: 2287 03bf cbd6 4abe 6255 253f b033 863e
00000060: 732d 20bf 45e6 bb3d 106e 8a3e 95c3 66bf
00000070: 7db6 93bf 9f95 0d3f b5ef 02bf 36df 163f
00000080: 4ae7 9ebe 851c 933e 10c1 e6be 1000 c43e
00000090: ff90 42bf 3890 083e ccf3 b23f 9395 94be
000000a0: 9bf5 fc3e 4ebe 2d3f f8ee 6ebf 6f7c 00bf
000000b0: fa5e 7b3e e6a8 9f3e 8324 eebe f259 d4bf
000000c0: 256f 3ebe 0c78 a43e 72a4 533e 1ecf d33d
000000d0: d564 b63e 7a46 3f3f c1f0 9a3f c90b 3cbe
000000e0: 5e9d 22bf b94b fc3e e53a 58be 56e3 1ebf
000000f0: db1c c73e 12ff ef3e c0dc 81bf 96b3 223f
00000100: cc4a 2a3f d9bf f63e e27e f93e 57b0 f43e
00000110: 46e0 303f 85d4 c33c 9ac8 483f 2254 e0be
00000120: b1eb c03f 0ba5 1ebe b8bf b43f 21f6 87be
00000130: c218 793f caaa 61be 6aca 30bf f503 7b3f
00000140: b389 c6bf 7e56 343e b648 57bf 47af 103f
00000150: 8e0c 5d3f a251 4abe e4d6 12bf d90c 23bd
00000160: 3e09 d2bf 1771 173f 39c0 4dbf 88b0 2cc0
00000170: 68b3 44bf 3021 c3be 2c5a 5a3d e423 253f
00000180: 0378 e3be ce01 64be ef0c 273f 883e da3e
00000190: 1b6f a43e 9962 72bf 1a7e 5fbf 3049 283f
000001a0: 7218 4ebf b7d9 0d3f b3ee 1e3f fc4a b73e
000001b0: 82c2 253f 9a14 973d 1d19 19bf b16f 223f
000001c0: 49aa 273f dd6c 78bf 931f c1bf e39a 053f
000001d0: 04a5 32be d7a7 103f 5421 223f d2ec 10bd
000001e0: 4533 8abf e2c6 bdbe d7dc 4a3f 5c88 33bd
000001f0: 51b4 3dbe 7828 8b3e 06ad 42bf 6ea4 003e

model.0.bias f4 [64]
-0.45140076 0.5474493 -0.11304813 0.8328099 1.7195901 -0.21257116 -2.0716534 -1.5731484
-2.200204 1.9639547 -2.405174 0.8554112 -4.515779 0.19803853 -1.5796863 -1.2533622
0.68753135 0.022669569 -1.1958741 0.529012 1.0692708 0.9020727 1.0374243 -0.6985462
0.67759645 -0.52006996 1.0085236 0.029784782 -0.17327224 -0.61979824 1.3644521 -1.9131333
0.4891424 -0.8138854 1.301553 0.35201073 0.30552745 0.47403103 0.02501173 -2.5409575
-0.70957464 0.66239303 -0.055573005 -3.6373944 -1.8755338 -2.9944096 0.26214603 0.19746298
-1.844374 -0.98413736 0.47868007 1.8620292 1.3211259 0.8982656 1.1300792 -2.1705914
2.7817242 -1.5625938 -0.50971967 0.83716094 -0.3019032 -0.37851745 -0.3730407 -1.4763557
00000000: 001e e7be a325 0c3f c785 e7bd 0833 553f
00000010: 871b dc3f 41ac 59be f895 04c0 ed5c c9bf
00000020: 24d0 0cc0 de62 fb3f 5fee 19c0 3afc 5a3f
00000030: 4381 90c0 9dca 4a3e 2933 cabf 2c6e a0bf
00000040: 0e02 303f 88b5 b93c 6712 99bf 556d 073f
00000050: dedd 883f 3dee 663f 52ca 843f ecd3 32bf
00000060: f676 2d3f 4e23 05bf 4d17 813f 37ff f33c
00000070: 476e 31be 19ab 1ebf 5ea6 ae3f 8de1 f4bf
00000080: df70 fa3e cb5a 50bf 4a99 a63f c03a b43e
00000090: 186e 9c3e 32b4 f23e 66e5 cc3c 0c9f 22c0
000000a0: afa6 35bf 9792 293f 85a0 63bd 12cb 68c0
000000b0: 7e11 f0bf 68a4 3fc0 0138 863e bc33 4a3e
000000c0: 7214 ecbf 6df0 7bbf 8e15 f53e f956 ee3f
000000d0: a71a a93f bcf4 653f 6fa6 903f f8ea 0ac0
000000e0: c507 3240 1303 c8bf fd7c 02bf 2e50 563f
000000f0: 0e93 9abe 0acd c1be 31ff bebe 39f9 bcbf

model.2.weight f4 [64, 64]
0.13112873 -0.15685382 0.039974898 -0.09017952 0.28971624 0.6612973 0.7442094 2.3258464
0.9330801 -0.07006826 2.195168 0.04952557 2.626841 0.59757155 -0.05701703 0.24118313
-0.32594708 -0.28467402 0.8513468 -0.102689184 0.023887271 -0.89975166 -0.029541176 0.87402195
-0.07547793 0.004866875 -0.13360849 -0.20597798 -0.2591311 0.23309183 -0.03510124 0.28927568
0.025034327 -0.0048333574 -0.053004414 -0.06580143 -0.2060857 -0.17745475 -0.054435384 1.0827808
-0.9651114 -0.24045502 -0.008256566 2.3694077 -0.3931421 3.2080512 -0.36445934 -0.24618682
2.5233696 0.5829812 0.9902975 -0.8761053 -0.39591014 0.029569529 0.0009763905 0.5657388
0.35555193 -0.48403466 -0.21843955 -0.080091685 0.0041984115 -0.123472385 0.05740747 1.4645809
-0.13880183 -0.9478605 -0.88810307 0.24138735 1.1470579 -1.2877103 -1.614365 -1.138965
-1.6862566 -2.1449654 -1.0852127 -0.23194918 -1.1895908 -1.2461143 -0.973793 -0.5742702
0.10643602 -0.1882341 -0.7388355 -1.2247565 -0.09718966 0.123146884 0.0045160297 -0.2006021
0.05767571 -0.48901924 -0.07340806 -0.9154301 -0.12973942 -1.1483475 0.20789874 -1.0589416
-0.3325886 -0.74390286 0.10350361 -0.8321272 -1.7671887 -1.5746797 -1.1508795 -2.0819938
-0.40531766 0.28236645 -1.3668705 -1.2784659 -1.2169837 -0.20713271 0.021467127 -0.23393169
-1.1889896 -1.9306474 -1.7157978 0.7238833 0.5989991 0.03306186 -0.055793557 -1.0299101
-1.9107028 -0.64548296 -0.5234476 0.0074217822 -0.3293486 -1.1829038 -0.44798017 -0.7106451
-0.16323155 -0.8455986 -0.16217998 0.04960319 0.38003868 -0.45602104 -1.1750247 -0.27569118
-1.0876716 -0.13848378 -0.77172637 0.099971764 -0.23225541 -0.6609902 -0.564504 -0.067347564
0.0006339932 0.0053242617 -0.17255501 -0.17062575 0.030330855 -0.16812211 0.057792254 -0.31848806
0.03559798 -0.14583793 0.063410655 -0.053217273 -0.16225144 -0.9030336 0.035378743 -0.5938262
0.21505938 0.0069994284 0.14706898 -0.17471379 0.01752264 -0.045760017 -0.094327144 -0.5663616
-0.454349 0.0669362 -0.16320276 -0.36663347 -0.6028431 0.008380728 -0.37539786 0.08285326
-0.57009685 0.10993536 -0.414544 -0.021611838 0.13611513 0.14287463 0.09486116 -0.380165
-0.19796689 -0.65057725 0.010024185 0.08584461 -0.26786554 -0.23848267 0.021319475 -0.15987927
0.45897415 0.24432048 -0.065272994 -0.00015796113 0.10870985 -0.22239532 -0.034275986 0.049402457
-0.18289723 0.19296022 -0.317837 0.0540746 -0.6307546 -0.13490449 -0.13794324 0.059667595
0.08423775 0.18845542 0.33290502 -0.024250008 0.15989117 -0.053132005 -0.0016665246 0.5181989
0.066399924 0.12256947 0.024659852 0.06417877 0.21644199 0.20001054 0.16269329 -0.051771138
0.16813599 0.09268843 0.24035329 0.18428561 0.030115185 -0.039152477 0.013376129 0.050120875
0.027518323 0.20702481 -0.040219184 -0.32521686 0.009825009 0.54095703 0.14321591 -0.026697872
-0.47220996 -0.24740762 -0.36182943 0.109273516 0.26909548 0.16375796 0.004665589 -0.0027956986
0.2546876 0.03222578 0.008945524 0.11036316 0.10301374 -0.10577937 0.13987114 0.32409513
00000000: 9c46 063e 4a9e 20be b8bc 233d 0ab0 b8bd
00000010: b055 943e c84a 293f 8284 3e3f abda 1440
00000020: 56de 6e3f f37f 8fbd a27d 0c40 53db 4a3d
00000030: 2a1e 2840 73fa 183f b08a 69bd b6f8 763e
00000040: 89e2 a6be cbc0 91be ddf1 593f b54e d2bd
00000050: 3daf c33c 2056 66bf 5600 f2bc e7bf 5f3f
00000060: 2c94 9abd 4e7a 9f3b aad0 08be e4eb 52be
00000070: d5ac 84be a0af 6e3e 51c6 0fbd f11b 943e
00000080: ca14 cd3c 2461 9ebb 281b 59bd e6c2 86bd
00000090: 2108 53be b3b6 35be a3f7 5ebd 9098 8a3f
000000a0: 8a11 77bf d739 76be 8c46 07bc 60a4 1740
000000b0: ec49 c9be b650 4d40 6a9a babe 6618 7cbe
000000c0: e37e 2140 423e 153f 2384 7d3f 7048 60bf
000000d0: bcb4 cabe cc3b f23c 75f4 7f3a 42d4 103f
000000e0: e70a b63e 64d3 f7be 9eae 5fbe 1c07 a4bd
000000f0: d492 893b 17df fcbd 1824 6b3d 6377 bb3f
00000100: 1122 0ebe fca6 72bf b95a 63bf 3f2e 773e
00000110: cbd2 923f b1d3 a4bf 83a3 cebf 9bc9 91bf
00000120: 42d7 d7bf 1d47 09c0 40e8 8abf 1684 6dbe
00000130: 8344 98bf ac80 9fbf 804a 79bf 5f03 13bf
00000140: 21fb d93d 71c0 40be 5324 3dbf d2c4 9cbf
00000150: 5f0b c7bd 6f34 fc3d 34fb 933b a36a 4dbe
00000160: 5e3d 6c3d bb60 fabe f756 96bd a159 6abf
00000170: 69da 04be 0dfd 92bf 68e3 543e 668b 87bf
00000180: 0e49 aabe 6b70 3ebf b3f9 d33d 4a06 55bf
00000190: 3d33 e2bf 1b8f c9bf 0550 93bf 633f 05c0
000001a0: cc85 cfbe 5692 903e 9df5 aebf c5a4 a3bf
000001b0: 1fc6 9bbf 991a 54be d4db af3c ca8b 6fbe
000001c0: d030 98bf 741f f7bf 439f dbbf 6a50 393f
000001d0: 0158 193f df6b 073d c987 64bd 18d4 83bf
000001e0: e991 f4bf 5f3e 25bf a900 06bf 6c32 f33b
000001f0: 61a0 a8be 6469 97bf a85d e5be d6ec 35bf
00000200: 2c26 27be 2679 58bf 8212 26be b72c 4b3d
00000210: 6e94 c23e 977b e9be 3667 96bf 6527 8dbe
00000220: d338 8bbf b1ce 0dbe dc8f 45bf ffbd cc3d
00000230: 5dd4 6dbe a736 29bf 5683 10bf 85ed 89bd
00000240: 9032 263a 2577 ae3b 43b2 30be 84b8 2ebe
00000250: 6a78 f83c 3428 2cbe 92b7 6c3d de10 a3be
00000260: 30cf 113d 8a56 15be 72dd 813d 5bfa 59bd
00000270: 3e25 26be 362d 67bf 4de9 103d fe04 18bf
00000280: 8738 5c3e 765b e53b 4099 163e 2ce8 32be
00000290: a48b 8f3c db6e 3bbd 972e c1bd 13fd 10bf
000002a0: 6fa0 e8be d915 893d a01e 27be 62b7 bbbe
000002b0: ed53 1abf 524f 093c 2634 c0be f8ae a93d
000002c0: def1 11bf ca25 e13d 1c3f d4be 4f0b b1bc
000002d0: c461 0b3e ba4d 123e 9146 c23d fda4 c2be
000002e0: d5b7 4abe 3b8c 26bf 7b3c 243c 4dcf af3d
000002f0: ac25 89be cd34 74be 2ea6 ae3c 64b7 23be
00000300: a9fe ea3e 262f 7a3e d9ad 85bd 5ea2 25b9
00000310: 45a3 de3d 99bb 63be fa64 0cbd 3b5a 4a3d
00000320: 6949 3bbe 5d97 453e 88bb a2be 547d 5d3d
00000330: 2279 21bf 6724 0abe fe40 0dbe 0266 743d
00000340: d784 ac3d 75fa 403e 8772 aa3e f4a7 c6bc
00000350: 83ba 233e f2a0 59bd 496f daba afa8 043f
00000360: affc 873d b405 fb3d 7503 ca3c 2970 833d
00000370: f8a2 5d3e 90cf 4c3e 1299 263e f90d 54bd
00000380: d72b 2c3e 6ed3 bd3d 2c1f 763e 5eb5 3c3e
00000390: 1fb4 f63c 595e 20bd 8d27 5b3c 8c4b 4d3d
000003a0: 1b6e e13c 50fe 533e dfbc 24bd d382 a6be
000003b0: 13f9 203c 297c 0a3f 31a7 123e 7fb5 dabc
000003c0: 81c5 f1be 6c58 7dbe b541 b9be cbca df3d
000003d0: e2c6 893e 2bb0 273e cce1 983b 0a38 37bb
000003e0: 6a66 823e 2eff 033d 3f90 123c 1506 e23d
000003f0: def8 d23d dba2 d8bd 613a 0f3e ccef a53e

model.2.bias f4 [64]
-0.20558868 0.94341725 0.19819948 0.3293323 0.40985808 -0.07694436 0.09285997 0.58685964
0.3947003 0.56663924 -0.027338663 0.27762434 0.26574746 0.6430442 -0.11303802 0.22942096
-0.13497604 0.43080133 0.025629183 0.021278577 0.31366652 0.29194888 0.23849292 -0.25587857
0.24224027 -0.18855612 -0.044375822 -0.042482615 0.26525983 0.4903999 0.049188066 0.33457565
0.19783607 0.5952268 0.5896138 -0.10205191 0.22051284 -0.09987898 0.32314068 0.035855804
0.17721787 0.041196488 0.013757284 -0.12385347 -0.13491766 0.6757794 0.3029225 -0.03401996
-0.095660776 0.19303833 -0.104485236 0.5412885 0.03576471 -0.05453333 0.12578653 -0.0019514123
0.5612339 0.043196656 0.48085442 0.16036671 0.4165298 -0.052621517 0.760458 0.27231252
00000000: d785 52be cb83 713f cef4 4a3e 3e9e a83e
00000010: ebd8 d13e 0195 9dbd 5e2d be3d 6f3c 163f
00000020: 2816 ca3e 450f 113f 55f5 dfbc c724 8e3e
00000030: 0d10 883e 8b9e 243f 7a80 e7bd 54ed 6a3e
00000040: 2937 0abe fe91 dc3e 4bf4 d13c 6950 ae3c
00000050: e698 a03e 537a 953e 7d37 743e 8402 83be
00000060: d50d 783e db14 41be 6cc3 35bd 4002 2ebd
00000070: 23d0 873e b215 fb3e 6d79 493d 804d ab3e
00000080: 8a95 4a3e c960 183f eef0 163f 9700 d1bd
00000090: 1ece 613e 5a8d ccbd b272 a53e 89dd 123d
000000a0: 9a78 353e a6bd 283d 3b66 613c e3a6 fdbd
000000b0: db27 0abe e1ff 2c3f a818 9b3e 8358 0bbd
000000c0: cce9 c3bd d7ab 453e 5bfc d5bd e291 0a3f
000000d0: 047e 123d 575e 5fbd 2fce 003e 88c6 ffba
000000e0: 06ad 0f3f faee 303d 8d32 f63e 2c37 243e
000000f0: 6543 d53e a989 57bd 60ad 423f 8c6c 8b3e

model.4.weight f4 [1, 64]
-0.9950307 0.79915833 -0.7465225 0.21278216 -0.878489 -0.7689193 -0.76734 0.5721313
-0.7949325 0.50461876 -0.041982215 -0.90057796 0.24111935 0.59128916 -2.4361722 -0.93751264
-0.2209132 0.6339074 -0.89294577 -0.33891055 0.3513883 -0.8514047 0.2497435 -0.85232055
0.4051484 -0.91303915 -0.09175596 -0.11608868 -0.9414258 0.5846856 0.28085193 -1.1360371
-0.87800395 0.36873525 0.6598169 0.40758765 0.2470473 -0.13906173 0.21147537 -0.46087655
-0.65410703 0.20490205 -0.070158675 -0.49932697 -0.034025755 0.71559596 0.4076042 -0.3043236
-0.90242916 0.19655135 -0.03718693 0.6306049 -0.43519863 -0.15362512 -0.8607887 -0.48071462
0.33476326 -0.23825349 -0.92863905 0.25676602 0.35851896 -0.09369115 0.76383823 0.25024015
00000000: 55ba 7ebf a495 4c3f 191c 3fbf 91e3 593e
00000010: a8e4 60bf e5d7 44bf 6570 44bf 3277 123f
00000020: b280 4bbf b22e 013f 8bf5 2bbd 478c 66bf
00000030: fee7 763e ba5e 173f 3fea 1bc0 d400 70bf
00000040: 1237 62be c147 223f 1898 64bf af85 adbe
00000050: 2be9 b33e a9f5 59bf c3bc 7f3e ae31 5abf
00000060: 9c6f cf3e efbc 69bf 8cea bbbd e7bf edbd
00000070: 4801 71bf f5ad 153f d3cb 8f3e aa69 91bf
00000080: dec4 60bf deca bc3e c3e9 283f 54af d03e
00000090: f8f9 7c3e 3366 0ebe 008d 583e 03f8 ebbe
000000a0: 8f73 27bf d8d1 513e 5aaf 8fbd c9a7 ffbe
000000b0: 975e 0bbd 4c31 373f 7fb1 d03e 4ed0 9bbe
000000c0: 9905 67bf c244 493e 5351 18bd 536f 213f
000000d0: 5bd2 debe e74f 1dbe a65c 5cbf 3a20 f6be
000000e0: 1766 ab3e b9f8 73be 4abb 6dbf d676 833e
000000f0: cc8f b73e 25e1 bfbd e78a 433f 7a1f 803e
